output/lexicon/2f.holdout_full/logreg/climate/model.pth (torch, 301953 bytes, 2 tensors)

weight f4 [15, 5000]
0	0x3e084af4	0.13309842
1	0x3da90207	0.0825234
2	0x3c431de1	0.011908979
3	0xbdf5eb80	-0.12007809
4	0x3e14e929	0.14542069
5	0xbd8a94df	-0.06766676
6	0xbe1d2036	-0.15344319
7	0x3d50ff68	0.051024824
8	0xbdc2ccf5	-0.09511749
9	0x3d972372	0.073798075
10	0x3e210e25	0.15728052
11	0xbe80114b	-0.25013193
12	0xbc829a08	-0.015942588
13	0x3d2b1d2f	0.04177588
14	0x3e1c0af5	0.15238555
15	0xbe0ae674	-0.13564473
16	0x3cf3b8a5	0.029751131
17	0x3d962363	0.07330968
18	0xbbe448fc	-0.006966708
19	0x3d13280b	0.03592686
20	0x3e237293	0.15961675
21	0x3e8f73a9	0.2801793
22	0x3d6f13d3	0.058368515
23	0x3dbd68b9	0.0924849
24	0xbe3fa2a3	-0.18714385
25	0x3c5645cf	0.013078167
26	0xbd92d3d9	-0.07169313
27	0xbbb206f1	-0.0054329564
28	0xbcd4167e	-0.025889631
29	0xbe21ebbf	-0.15812586
30	0xbdfa3349	-0.12216813
31	0xbe98a37d	-0.29812232
32	0x3dfec124	0.124391824
33	0x3cabdafd	0.020978445
34	0xbd4daaa5	-0.050211567
35	0xbe6cd8ad	-0.2312953
36	0xbcfb86a5	-0.030703852
37	0x3c969a98	0.018384263
38	0xbe2470ae	-0.16058609
39	0x3dc4fa94	0.096181065
40	0x3dcd664d	0.10029278
41	0xbdd777dc	-0.10520908
42	0x3d6de38b	0.05807833
43	0x3d24389e	0.040093057
44	0x39ce606e	0.00039363228
45	0xbd592503	-0.053013813
46	0x3c2ec302	0.010666611
47	0xbe4e2fb3	-0.20135383
48	0xbe6cf2bb	-0.2313947
49	0x3c6cb3e3	0.014447185
50	0xbd959ac7	-0.07304912
51	0xbce46516	-0.027880233
52	0x3e20d4c9	0.15706171
53	0xbd9aef68	-0.07565194
54	0x3dbab37e	0.09116267
55	0xbce6612c	-0.028122507
56	0x3d7970fc	0.060898766
57	0xbcf3fe77	-0.029784424
58	0x3db5a061	0.088684805
59	0x3c81cf99	0.01584606
60	0xbd57ef1a	-0.05271826
61	0x3e05cabf	0.13065623
62	0x3e0c7ca2	0.13719419
63	0xbdf3e930	-0.11909711
64	0x3daf2be6	0.08553295
65	0x3d8b63c9	0.06806142
66	0xbd91d893	-0.071213864
67	0x3ce0dc82	0.027448896
68	0x3d98d698	0.074628055
69	0x3d0f9473	0.03505368
70	0xbe48cbe6	-0.19609031
71	0x3d9465cd	0.072459795
72	0xbd36a47a	-0.04459045
73	0xbd7058ed	-0.058678556
74	0xbe089b1b	-0.13340418
75	0xbe7fc579	-0.24977674
76	0xbda9f295	-0.08298222
77	0x3d2f6bc7	0.042827394
78	0x3ed79fe5	0.42114177
79	0xbdd0d7dc	-0.10197422
80	0xbe17e310	-0.14832711
81	0x3e0b34f2	0.13594416
82	0x3e2fa0e6	0.17151222
83	0xbd4f62ad	-0.050631214
84	0xbcaab169	-0.020836549
85	0xbd70dbf0	-0.0588035
86	0x3e685a90	0.22690797
87	0xbe92b65d	-0.28654757
88	0x3e027876	0.12741265
89	0x3c3b5386	0.011433488
90	0xbcc5a2c8	-0.024125472
91	0xbe3d7960	-0.18503332
92	0x3d7b7405	0.06138994
93	0x3d7b3295	0.061327536
94	0x3d87a823	0.066238664
95	0x3ce3f0e7	0.027824832
96	0x3d2f284f	0.04276305
97	0xbdf5b979	-0.11998267
98	0xbe32002c	-0.17382878
99	0xbb924ee9	-0.004464973
100	0xbe146c10	-0.14494348
101	0xbd9a73dc	-0.0754163
102	0xbe11f8bc	-0.14255041
103	0xbdecebc6	-0.11568408
104	0x3ca71fbe	0.020400878
105	0xbc9da978	-0.019245848
106	0x3b0aef8e	0.0021199915
107	0xbcef4a79	-0.029210316
108	0xbc7137d5	-0.014722784
109	0x3c8d6736	0.017261129
110	0x3ddbf96e	0.10740934
111	0x3da7d876	0.081955835
112	0x3d1f105e	0.03883397
113	0xbdd3b5cb	-0.10337409
114	0x3d6f2a97	0.058390226
115	0x3bff850c	0.007797843
116	0x3d08c651	0.033392254
117	0x3c63223d	0.0138631435
118	0x3c0ce7d8	0.008600198
119	0x3d42b089	0.04753164
120	0x3e48ae31	0.19597699
121	0x3db8d825	0.09025601
122	0x3d907026	0.070526406
123	0x3dbab326	0.09116201
124	0x3bd7ab32	0.0065816874
125	0xbccd3df3	-0.025053954
126	0x3e32b069	0.17450108
127	0xbe6f2edd	-0.2335772
128	0x3dcbedfa	0.099575
129	0x3e4bb4ac	0.1989314
130	0xbe71557e	-0.23567769
131	0xbdc79a27	-0.09746199
132	0x3ceb05e7	0.028689338
133	0x3c04a6d6	0.008096417
134	0x3c4cc8fb	0.012499089
135	0x3d30a4d1	0.04312593
136	0xbd835ff3	-0.06414785
137	0x3db92819	0.09040851
138	0xbdc8d2ce	-0.09805833
139	0x3e57b0cb	0.21063535
140	0xbe55f725	-0.2089506
141	0xbd605cb8	-0.054775923
142	0xbbf8b0ee	-0.007589451
143	0xbd1ec679	-0.038763497
144	0xbd0cf7fe	-0.03441619
145	0x3e286386	0.16444215
146	0x3d0eb69f	0.03484213
147	0xbcf587fd	-0.02997207
148	0x3cf755e7	0.030192329
149	0x3cbf7338	0.02337037
150	0xbe7224a2	-0.23646787
151	0x3e0fdcf1	0.14049126
152	0xbe4c8f4f	-0.19976543
153	0xbbcb5427	-0.0062051
154	0xbe05b77f	-0.1305828
155	0x3ae066cb	0.0017120478
156	0xbcfc1b5e	-0.030774768
157	0xbcbd9897	-0.02314405
158	0xbdffd232	-0.124912634
159	0x3c3e1251	0.011601047
160	0xbca31001	-0.019905092
161	0xbd309c63	-0.043117892
162	0xbd4b8ba9	-0.049693737
163	0x3d109b4f	0.035304364
164	0xbd4bee54	-0.049787834
165	0x3c5226ad	0.012826604
166	0x3d38345d	0.044971813
167	0xbc9e552d	-0.019327724
168	0xbd80b605	-0.062847175
169	0x3edda868	0.43292546
170	0x3eacbf84	0.33739865
171	0x3d80cc9a	0.06289025
172	0x3db04391	0.08606637
173	0xbe2795d5	-0.1636575
174	0xbd992814	-0.074783474
175	0xbd9360e2	-0.07196213
176	0x3d6f9fec	0.058502123
177	0xb99860b5	-0.00029063752
178	0x3d7e6606	0.062109016
179	0xbd5a7c7c	-0.053341374
180	0x3beeb55b	0.007284803
181	0x3db9385e	0.09043954
182	0x3d6cff2f	0.05786055
183	0x3db306f8	0.087415636
184	0xbcacaec5	-0.02107943
185	0xbe2ca43d	-0.16859527
186	0xbd7886e9	-0.060675535
187	0x3dd99b3e	0.10625313
188	0xbd67407c	-0.05645798
189	0xbdae0339	-0.084967084
190	0x3d4d174a	0.05007104
191	0xbd9b3b64	-0.07579687
192	0x3ee19ce4	0.4406501
193	0xbe622e81	-0.22088052
194	0x3c56e187	0.013115293
195	0x3d3596ef	0.044333395
196	0xbe044852	-0.12918213
197	0x3dc6bd12	0.09704031
198	0x3d8b57bc	0.068038434
199	0xbd43094a	-0.04761628
200	0xbe1a8f9d	-0.15093847
201	0x3dfa51a4	0.12222603
202	0xbd69460f	-0.05695158
203	0xbdb4e199	-0.08832092
204	0xbdf2929f	-0.11844372
205	0xbe453a46	-0.19260511
206	0xbd8730a5	-0.06601075
207	0xbcef44bf	-0.029207585
208	0xbd969192	-0.07351984
209	0xbe0f956c	-0.14021844
210	0x3e0e65f8	0.13906085
211	0xbd844d7c	-0.064600915
212	0x3d0c48b4	0.034249023
213	0x3f1fc829	0.62414795
214	0x3cdfad01	0.027304174
215	0xbde07066	-0.10958938
216	0x3e4e6783	0.20156674
217	0xbdb3ada4	-0.08773354
218	0xbe80c51b	-0.2515038
219	0x34e6f59d	4.3019546e-07
220	0x3d27b578	0.040944546
221	0xbdb54280	-0.088505745
222	0xbd986fd4	-0.074432045
223	0x3f250662	0.64462864
224	0x3e299649	0.16561235
225	0xbdc9ca99	-0.098530956
226	0xbe0dff07	-0.13866816
227	0x3d7e85e3	0.062139403
228	0x3c3c9b1d	0.011511591
229	0x3cf55976	0.029949885
230	0xba71967a	-0.0009215843
231	0xbe1888d0	-0.1489594
232	0xbdee7ce5	-0.116449155
233	0xbcea79f2	-0.028622601
234	0x3e251fdb	0.16125433
235	0x3d08b59b	0.033376317
236	0x3d146a2d	0.03623407
237	0x3e22c203	0.15894322
238	0xbdc389cf	-0.09547769
239	0xbe6d7b76	-0.23191628
240	0xbdc353d2	-0.09537472
241	0xbd102388	-0.035190135
242	0x3d4553ca	0.04817561
243	0x3d298544	0.041386858
244	0xbd22b55c	-0.03972374
245	0x3d631722	0.055441983
246	0xbc465ac4	-0.012106601
247	0xbdeafa0d	-0.11473475
248	0x3a82c5e4	0.0009977189
249	0xbdcf5ceb	-0.101251446
250	0xbcc08790	-0.023502141
251	0xbbac2b2a	-0.005254169
252	0xbde27956	-0.11058299
253	0x3d1973c2	0.03746391
254	0xbd5e02df	-0.054201957
255	0x3dfb6451	0.12274993

bias f4 [15]
0	0x3e2490f5	0.16070922
1	0xbeda3ee8	-0.4262612
2	0x3d8facae	0.07015358
3	0xbd91c024	-0.07116726
4	0x3ec48aaf	0.38387057
5	0x3d45b160	0.04826486
6	0x3e7fef3b	0.24993603
7	0xbe9872eb	-0.29775175
8	0x3e629f44	0.22131068
9	0x3d7427db	0.05960832
10	0x3f20b8cb	0.6278197
11	0xbe48ecc7	-0.19621573
12	0x3e86b8a4	0.26312745
13	0xbf14d476	-0.5813669
14	0xbf109aa7	-0.5648598
