lexicons/3.lexicon.multinomial+dev/5/holdout_samesex/model.pth (torch, 121464 bytes, 1 tensors)

weight f4 [15, 2000]
0.09562238 0.09270567 -0.035285495 -0.002276606 0.02674085 -0.15301038 0.056822076 -0.071622446
0.058597844 -0.029739821 -0.017189411 -0.15313339 -0.068448484 0.07287043 -0.0045418786 0.0923504
0.046650894 0.078703955 0.036489803 -0.058518928 -0.16760457 -0.004642971 -0.06699887 -0.056112174
-0.123737365 -0.13363746 -0.05924086 -0.08753047 -0.04873872 0.10077925 -0.1051667 -0.04536172
-0.09117973 -0.0016091967 -0.099065915 -0.043792818 -0.072613336 -0.119064555 -0.021528685 0.020548722
-0.035558634 -0.058052745 -0.03049387 -0.0711068 0.024323933 -0.11514279 0.13223949 0.03216551
-0.024729377 -0.07371045 -0.17099991 0.19511247 -0.11797341 0.10057735 -0.15657513 -0.16285646
-0.036213476 -0.06471517 0.1645069 -0.10150237 0.055308253 0.09398257 -0.0718564 0.12459738
0.10177241 0.031326454 -0.17458196 0.18133177 0.08263613 -0.057446532 -0.17536603 -0.016274717
-0.102763735 0.0068525225 -0.07834322 -0.15611252 0.14775369 -0.1662344 -0.027996361 0.030375313
0.021317037 0.049776275 0.0227447 -0.0866791 -0.09979135 -0.052924354 0.14021929 -0.0014573487
-0.19421552 0.095285356 -0.08291416 -0.06435725 -0.022549862 -0.052911177 0.10456176 0.15148439
-0.051977832 -0.1690486 -0.0550322 -0.18294558 -0.05749792 0.053154774 0.0047635175 0.13493215
0.044942573 0.004160689 -0.118468806 -0.17904699 0.17497121 -0.079025164 -0.18719266 0.109416455
-0.0044987844 -0.07153836 0.0086643025 0.08258382 -0.15454364 -0.12140254 0.10962437 -0.10083935
-0.07390457 0.08641037 -0.116091736 -0.104861856 -0.09976971 0.07276493 -0.021070933 0.02360821
0.018894998 -0.04011314 0.07736417 0.006891119 0.025497245 0.1163411 -0.06746849 -0.1805454
-0.038603723 0.18679431 -0.03522069 0.1260896 -0.18300901 -0.12879236 0.02616193 -0.11038519
0.041415792 -0.01777953 -0.008519463 0.065141946 0.0022313402 0.025343508 0.032655016 0.0015872498
-0.029332716 -0.062235005 0.0575126 0.08261676 0.043252017 0.028281463 -0.0074782493 -0.0527595
0.1398825 0.12465933 0.03469035 0.056493048 -0.18916604 0.024366653 0.064124174 -0.0055653765
-0.06587343 0.13997406 -0.06939139 -0.14542677 -0.06147483 0.022474336 0.039225448 -0.105074815
-0.041839097 -0.15849164 0.0323392 -0.1311062 -0.09325036 -0.110688545 -0.12785825 -0.098416835
-0.1915038 -0.14484993 0.11783041 -0.016587686 -0.0349192 -0.049853623 0.021015184 -0.011591513
-0.048908006 0.11561268 0.06984514 -0.19160385 0.0038108022 -0.10322616 -0.0036678102 -0.12680371
-0.163952 0.06714679 -0.13759598 0.19006245 -0.18879828 -0.00798695 -0.17232297 0.081112765
-0.09217135 -0.1703082 -0.07790271 0.0045627155 0.04473561 -0.110758215 -0.052788932 -0.06530933
0.16415153 -0.09275521 0.06885361 0.09118947 -0.02551513 0.15262963 0.13506848 -0.10790223
0.07781194 -0.06935474 0.04978075 0.16608386 0.039600093 0.18727 -0.1616124 -0.14550214
-0.013457733 -0.05946412 -0.14563274 -0.17218393 0.17955971 0.111091435 -0.11370593 0.11043282
-0.14436117 -0.17164645 0.18354732 -0.096893854 0.18980904 0.15908661 0.011364213 -0.13329633
0.12320585 -0.1542342 -0.08694154 0.065018736 -0.18218575 0.1919402 0.11461101 -0.15558906
00000000: abd5 c33d 78dc bd3d 8687 10bd 1c33 15bb
00000010: a10f db3c c1ae 1cbe 44be 683d caae 92bd
00000020: 4b04 703d eda0 f3bc cfd0 8cbc 00cf 1cbe
00000030: b82e 8cbd 183d 953d 0ad4 94bb 3522 bd3d
00000040: 0215 3f3d 8a2f a13d 5576 153d 8bb1 6fbd
00000050: 88a0 2bbe 1024 98bb b436 89bd e1d5 65bd
00000060: 046a fdbd 42d8 08be 8ba6 72bd 2d43 b3bd
00000070: 41a2 47bd 5a65 ce3d a461 d7bd 36cd 39bd
00000080: 70bc babd aeeb d2ba 12e3 cabd 1960 33bd
00000090: 4db6 94bd 1ed8 f3bd ed5c b0bc cb55 a83c
000000a0: eea5 11bd b7c8 6dbd 48ce f9bc 71a0 91bd
000000b0: fc42 c73c fccf ebbd ca69 073e fbbf 033d
000000c0: 4395 cabc 81f5 96bd 9a1a 2fbe 90cb 473e
000000d0: 0b9c f1bd 7ffb cd3d 3b55 20be d8c3 26be
000000e0: 9554 14bd 6389 84bd 7f74 283e 79e0 cfbd
000000f0: e88a 623d ef79 c03d 7329 93bd e92c ff3d
00000100: 0e6e d03d 2b50 003d 9dc5 32be 09af 393e
00000110: 223d a93d 0e4d 6bbd 2793 33be 8e52 85bc
00000120: cb75 d2bd 208b e03b 6972 a0bd f6db 1fbe
00000130: be4c 173e 5a39 2abe a058 e5bc a6d5 f83c
00000140: 11a1 ae3c 35e2 4b3d 1853 ba3c d084 b1bd
00000150: 685f ccbd 35c7 58bd a595 0f3e 8204 bfba
00000160: 6fe0 46be f824 c33d e6ce a9bd bccd 83bd
00000170: 7dba b8bc 64b9 58bd 7a24 d63d b91e 1b3e
00000180: b5e6 54bd 141b 2dbe 7269 61bd 1656 3bbe
00000190: f082 6bbd d2b8 593d 4817 9c3b a72b 0a3e
000001a0: b415 383d 6456 883b c69f f2bd 1858 37be
000001b0: a72b 333e f2d7 a1bd 6faf 3fbe bc15 e03d
000001c0: 8a6a 93bb b482 92bd b8f4 0d3c b521 a93d
000001d0: b040 1ebe e5a1 f8bd be82 e03d dc84 cebd
000001e0: 475b 97bd ecf7 b03d 81c1 edbd d0c1 d6bd
000001f0: 1054 ccbd c805 953d f39c acbc 0166 c13c
00000200: afc9 9a3c ad4d 24bd 1b71 9e3d e5ce e13b
00000210: 99df d03c 3e44 ee3d eb2c 8abd e5e0 38be
00000220: f01e 1ebd 0247 3f3e 9243 10bd a21d 013e
00000230: b766 3bbe 25e2 03be 8b51 d63c a111 e2bd
00000240: 9ba3 293d 60a6 91bc 3895 0bbc 2469 853d
00000250: ad3b 123b 309d cf3c 44c1 053d 440b d03a
00000260: 2a4b f0bc 22ea 7ebd 5592 6b3d fa32 a93d
00000270: 0729 313d 87ae e73c 1a0c f5bb 581a 58bd
00000280: 5c3d 0f3e 644d ff3d 7817 0e3d 4165 673d
00000290: beb4 41be 939c c73c 8953 833d c35d b6bb
000002a0: a6e8 86bd 5c55 0f3e 131d 8ebd c1ea 14be
000002b0: 08cd 7bbd 191c b83c ddaa 203d 7731 d7bd
000002c0: 795f 2bbd a24b 22be 1c76 043d b440 06be
000002d0: 0bfa bebd adb0 e2bd 46ed 02be c48e c9bd
000002e0: 9219 44be 8a53 14be 1251 f13d e6e2 87bc
000002f0: 6f07 0fbd 5033 4cbd 0928 ac3c 54ea 3dbc
00000300: c353 48bd 57c6 ec3d f80a 8f3d cd33 44be
00000310: a7be 793b 3d68 d3bd a55f 70bb d5d8 01be
00000320: 08e3 27be 4284 893d f6e5 0cbe bb9f 423e
00000330: 5654 41be b2db 02bc 6f75 30be 731e a63d
00000340: 55c4 bcbd 4665 2ebe 758b 9fbd d582 953b
00000350: b03c 373d 34d5 e2bd 3539 58bd e6c0 85bd
00000360: 5717 283e 72f6 bdbd 1f03 8d3d 8bc1 ba3d
00000370: 1b05 d1bc f14a 1c3e 644f 0a3e d8fb dcbd
00000380: de5b 9f3d dc09 8ebd e6e6 4b3d e311 2a3e
00000390: b533 223d b5c3 3f3e b97d 25be 83fe 14be
000003a0: d37d 5cbc a690 73bd c020 15be fc50 30be
000003b0: 80de 373e e883 e33d a8de e8bd 9a2a e23d
000003c0: 6ad3 13be 16c4 2fbe d4f3 3b3e 4970 c6bd
000003d0: 4d5d 423e 9ae7 223e f730 3a3c d57e 08be
000003e0: 5953 fc3d 92ef 1dbe 680e b2bd 8b28 853d
000003f0: e78e 3abe f98b 443e 2db9 ea3d bd52 1fbe
