lexicons/3.lexicon.multinomial+dev/2/holdout_deathpenalty/model.pth (torch, 121464 bytes, 1 tensors)

weight f4 [15, 2000]
000000 a0 f7 03 3e 9f 16 df 3d 65 5f 8a bd 22 27 f1 bc
       0.1288743 0.108929865 -0.06756476 -0.029437605
000010 5c 26 62 be eb 82 d1 3c ff b5 cb 3d c0 ce 17 3d
       -0.22084945 0.025575122 0.099468224 0.037062407
000020 29 b8 8f bd e9 04 9c 3d 45 03 7f be 30 32 88 be
       -0.07017548 0.07618124 -0.24903591 -0.2660079
000030 60 dd cb bd 9b cd a1 bd 8a 63 b1 3d b9 3b 54 3b
       -0.09954333 -0.07900544 0.08661564 0.003238423
000040 08 2d 2a bd 6d 31 91 3d 13 f8 1b 3e 9c c6 8f 3d
       -0.04154685 0.07089505 0.15231352 0.070203036
000050 e6 81 5b 3e a2 18 f3 bd 08 4e da 3c 54 da d5 bd
       0.21436271 -0.11869933 0.026648536 -0.104420334
000060 2a b9 0c be 25 a7 76 3d 77 ca 61 be d4 99 0f be
       -0.1374251 0.060217995 -0.2204989 -0.14023525
000070 0e a4 f1 bd 4d 0a f8 bd 0c 0a df bd 33 5a eb 3d
       -0.11798869 -0.1211134 -0.10890588 0.114918135
000080 6c 74 88 bd d7 82 a0 3d 2c 7c ed bc d1 7c da bd
       -0.06662831 0.07837456 -0.028989874 -0.10668338
000090 17 20 4e bd 3b be 6c 3c a2 40 25 3c 67 17 a7 3b
       -0.050323572 0.014449651 0.01008621 0.0050992253
0000a0 9c 67 11 be 2d de a9 bd 4e 22 37 be 56 cf 32 3d
       -0.1419968 -0.0829433 -0.1788418 0.043654762
0000b0 3c 91 2f be 66 5d 16 3d 84 5c 20 3d 5f e4 98 bd
       -0.17145246 0.036710165 0.03915073 -0.07465433
0000c0 f6 76 4b 3e b9 d6 9d 3d e3 1b 9d 3c cc dc 0a be
       0.19869599 0.07706971 0.019178336 -0.1356079
0000d0 56 cb 14 be 48 23 82 be dd e4 7e bd 61 f4 0d 3e
       -0.14530692 -0.25417542 -0.06222998 0.13862754
0000e0 96 de 9a bd 8a 69 73 bd d5 16 21 be 0c b9 86 3e
       -0.07561986 -0.05942682 -0.15731366 0.26313055
0000f0 9f 6e 04 3e 99 48 08 be b6 6d 0c 3e 3d 00 8e 3d
       0.12932824 -0.13308944 0.13713726 0.06933639
000100 af 62 17 bd f8 7b 28 3e 85 6f a1 3e be b6 44 3e
       -0.036959346 0.1645354 0.31530395 0.19210336
000110 79 1e 2c be 7c 1c ab 3d ce ca 8f be d4 f9 b2 be
       -0.168085 0.08355042 -0.28084415 -0.3495623
000120 13 0e 17 3e 35 00 42 bc 85 86 53 bd 29 0b 80 be
       0.14751463 -0.01184087 -0.05164196 -0.25008515
000130 70 c9 46 be 1b 02 25 3d 27 e2 d2 be 62 06 38 bd
       -0.1941278 0.04028521 -0.41188166 -0.044927962
000140 f4 4b 5d bc da 5a 08 be c1 8e 0b 3c 34 5c 3c be
       -0.013506878 -0.13315907 0.008517922 -0.18394548
000150 d2 12 0b 3e 65 f7 c6 3d a7 05 cd 3d 4e 4f ad bd
       0.13581398 0.097151555 0.10010844 -0.08462392
000160 59 08 9d 3d dc 66 db bd 28 d3 1d be ae ed 42 be
       0.07667608 -0.10712978 -0.15412581 -0.1903598
000170 f8 d8 8d 3c f1 24 ce 3d 42 a2 85 3e 69 f1 45 3e
       0.017315373 0.1006564 0.26100355 0.19330372
000180 68 f5 c7 3d 2b f9 53 3e 1f a0 47 3d 86 44 8a 3d
       0.097636044 0.20700519 0.048736688 0.06751351
000190 7e ef c9 bd 64 37 22 be 28 77 d9 3d b0 fc 15 bb
       -0.09860133 -0.15841442 0.106184304 -0.002288621
0001a0 f5 96 4c bd ff c7 33 bc 08 10 a7 bc 00 fc 5c bd
       -0.04994865 -0.010972976 -0.020393386 -0.053951263
0001b0 3c 87 fe 3c b4 f6 19 be be 12 a9 be bb c4 a1 3e
       0.031070344 -0.15035516 -0.33022112 0.31595406
0001c0 70 69 3e be 59 0c 8a bd 40 0f 43 bd 17 75 b4 bd
       -0.18594909 -0.067406364 -0.047621965 -0.088113956
0001d0 91 1a 92 bb 83 60 80 3d 89 75 74 3d c3 d2 e9 bd
       -0.0044587334 0.06268408 0.059682403 -0.11417153
0001e0 bb 78 c0 be b5 c6 59 be c9 a1 2b 3e 7a 90 0d be
       -0.3759211 -0.21267207 0.16760935 -0.13824645
0001f0 a6 41 d7 3d 2b e7 ac be fe ba 06 be 28 31 99 3d
       0.10510568 -0.33770117 -0.1315727 0.07480079
000200 7d cb e4 3d 6b 37 5f be 19 e2 1b 3e e0 c4 29 bd
       0.11171625 -0.21798484 0.15222968 -0.04144752
000210 75 15 1d be 37 a9 5d 3c b6 cf 80 bd fe eb 1a bc
       -0.15340216 0.0135291135 -0.06289618 -0.009455679
000220 3b 52 f6 bd ac 19 98 be 86 c8 8a be 40 9f cf be
       -0.12027403 -0.29707086 -0.27106112 -0.40551186
000230 6f 3c e5 3d fe b3 a8 be a9 39 ec bd 6b 22 bc 3e
       0.111931674 -0.32949823 -0.11534435 0.3674501
000240 dc 66 79 be 48 01 20 be 84 34 cf 3d 1e e4 8a bd
       -0.24355644 -0.15625489 0.101174384 -0.06781791
000250 ff 63 a1 bd 55 1f 24 be 2a 11 0d 3e 19 08 2f 3d
       -0.07880401 -0.16027577 0.13776079 0.042732332
000260 12 bf 63 bd d9 44 8b 3d ab 7f 28 3e 1f 27 3c 3e
       -0.05560214 0.06800241 0.16454951 0.18374299
000270 5b a3 b0 be 3d 4c 44 3e 24 37 4d be da 5d 1a be
       -0.3449963 0.19169708 -0.20040566 -0.15074864
000280 62 dc 6c 3e 29 a0 5d 3d 5e df 85 bd ad 78 0d be
       0.23130944 0.05410782 -0.065367445 -0.13815565
000290 e1 65 35 be b8 04 63 3d 97 f9 3d 3d 81 37 8c 3c
       -0.17714645 0.055424422 0.046380606 0.01711631
0002a0 ab 82 27 3e 2f ea 9d 3c 5d 73 51 bd 86 93 93 bd
       0.1635844 0.019276707 -0.05113541 -0.07205872
0002b0 a9 8f 42 bc a6 44 35 3e aa 87 d1 3e 00 3b d9 3d
       -0.011875072 0.17701969 0.40923816 0.106069565
0002c0 e2 5d 94 3e d2 ce 16 3e 5f 1f cb bc 36 0f 41 be
       0.28977877 0.14727333 -0.024795232 -0.18853459
0002d0 3a 38 d9 bd 88 da 54 3e a2 20 41 bd c1 b6 cb bd
       -0.106064275 0.20786488 -0.04715026 -0.09946967
0002e0 70 4a fd bd 5e ba 2e 3e c3 27 be bd 6b 04 1a be
       -0.123677135 0.17063281 -0.09284928 -0.15040748
0002f0 81 18 66 bc 5e 73 5a 3d 4a f4 90 bc 40 d7 c5 bd
       -0.014043928 0.05333268 -0.017694611 -0.09660196
000300 de 6c a0 be d0 4d d4 3d f7 8e 99 be e7 df 96 bc
       -0.3133306 0.10366404 -0.29991886 -0.018417312
000310 9f d8 be 3d b0 dc 3e 3d 81 c5 7b be c4 84 c5 bd
       0.09318661 0.046597183 -0.2458706 -0.09644464
000320 ed 92 03 be 1f 30 e9 bb 0f 15 7b 3e 42 ae 21 be
       -0.12849016 -0.007116332 0.24519752 -0.1578913
000330 ad 92 b2 be ae 5b 04 3d c1 06 bd be 3b 59 5c 3b
       -0.3487753 0.032313995 -0.36919215 0.0033622521
000340 0b 88 24 3e 8d 5c 86 3d 6b 94 8c be 0f 54 18 bd
       0.16067521 0.065606214 -0.27456984 -0.03718954
000350 bd 2d b8 bc eb 81 8f ba c9 31 87 bc 26 45 80 bc
       -0.022482747 -0.0010948753 -0.016503232 -0.015657973
000360 ad 81 0a be fd 0d bd bb e5 bf c7 be 3f 14 85 bd
       -0.1352603 -0.00576949 -0.3901359 -0.06498002
000370 da 37 a4 be b0 d8 c2 bd 5c d1 18 be ca e8 c0 3d
       -0.3207386 -0.09513986 -0.14923614 0.09419401
000380 99 1b 02 bd 15 9e 9d bd de 0c 11 3d 93 20 b4 3e
       -0.0317646 -0.076961674 0.03541266 0.35181102
000390 11 a2 54 be 93 1d ea 3b 90 1f 9c 3d a7 83 e7 bc
       -0.20764948 0.007144639 0.076232076 -0.028261019
0003a0 75 ef 20 be bf c0 82 be 50 00 98 bd 3e c7 b9 3e
       -0.15716346 -0.2553768 -0.074219346 0.36284822
0003b0 e8 08 c0 be 5d f9 b2 be e7 b0 9d 3e 46 21 a4 be
       -0.37506795 -0.34955874 0.30799028 -0.32056636
0003c0 df d8 86 3e e4 38 92 be 89 17 7e 3d 2f c7 74 bd
       0.26337335 -0.2855903 0.062034164 -0.05976027
0003d0 6f 44 82 3d 1f c1 02 3e 4f c1 24 3d 80 24 43 be
       0.06360709 0.12768982 0.040223416 -0.19056892
0003e0 0b 7f 26 be 01 33 71 be 7a 9a 15 be 3f b5 c7 3e
       -0.162594 -0.23554613 -0.1460971 0.39005467
0003f0 4d a1 5e bd da 85 01 3e d6 75 49 3e c6 e9 3e 3e
       -0.054353047 0.12648717 0.19673857 0.18643865
