lexicons/3.lexicon.ovr+dev/2/holdout_guncontrol/model.pth (torch, 121464 bytes, 1 tensors)

weight f4 [15, 2000]
000000 b5 f3 5d 3c 30 1e de 3c 74 d1 ab 3b 00 77 42 3d
       0.013546874 0.027114004 0.0052434746 0.04747677
000010 2d 9a 02 bb 8c b0 89 bd 10 e9 4c 3d 53 85 08 3d
       -0.0019928322 -0.06723127 0.050026953 0.033330273
000020 50 93 40 3d 9e 8f 55 3d 9a 99 f8 bd fb fd c4 bb
       0.04701549 0.052138917 -0.12138672 -0.006011722
000030 03 f1 8f 3d c2 4f f1 bc 41 1a 05 3e 3c c2 89 3d
       0.07028391 -0.029456977 0.12998296 0.067265004
000040 b0 e7 45 bc 1d 76 7e 3d 77 c4 8a 3c 6b 84 f3 bc
       -0.012079164 0.06212436 0.016939385 -0.029726228
000050 1d fc d7 3c 73 a3 1a bd 46 20 fb 3c 6e d9 cd 3b
       0.026365334 -0.037753534 0.030655038 0.006282023
000060 38 6c 9e 3b ca 09 dc bd e2 94 0f bd b5 de d3 bd
       0.004834678 -0.107440546 -0.035054095 -0.10345212
000070 c1 df 93 bd f4 11 af bd 17 ed 6b bd 1e e8 04 bd
       -0.07220412 -0.08548346 -0.057599153 -0.032447927
000080 86 05 65 3c 21 ba c5 3b 6d 49 92 bd 9e a5 99 bd
       0.013978368 0.006034151 -0.07142911 -0.07502292
000090 31 5e dd bd 9d 88 a0 b8 5a 1e 17 3e 8a 4f f0 3d
       -0.10808981 -7.654841e-05 0.14757672 0.11733921
0000a0 2b 57 c8 bc da 9e a0 39 28 20 55 3d dc be 48 bd
       -0.024455627 0.00030635932 0.05203262 -0.049010143
0000b0 86 87 80 3d 2f 17 d4 bd 50 51 71 bd 2e d4 d8 3d
       0.06275849 -0.103559844 -0.058915436 0.10587345
0000c0 24 33 40 3d b1 c4 a0 bd 96 d5 d7 bd 81 7a 0e 3d
       0.04692377 -0.07850016 -0.10538785 0.034784798
0000d0 91 b8 91 bd 3d ba ac bd 36 fc 13 bd 79 eb 09 3e
       -0.071152814 -0.0843396 -0.0361292 0.13468732
0000e0 61 ec a8 3a a7 18 c5 3d f4 50 8b 3c 31 5f f5 bc
       0.0012887829 0.09623843 0.017006375 -0.029952617
0000f0 55 e4 c7 3c eb 57 5b bd 1b d0 0a 3e e2 e8 57 bd
       0.02440087 -0.053550642 0.13555948 -0.05271233
000100 c9 f6 bc 3c a6 82 cd bd f3 22 23 ba 4d c4 4a 3d
       0.023066895 -0.10034685 -0.00062231644 0.049503613
000110 2f 18 fd bd 57 4c a9 3d 16 b8 49 bd 50 59 f0 3b
       -0.12358128 0.08266514 -0.049247824 0.0073348656
000120 b5 38 f8 bd 31 00 05 be 58 2c b8 bc c2 e0 1c 3d
       -0.12120191 -0.12988354 -0.022482082 0.038300283
000130 02 6b 32 bd b9 08 27 3d df 0e 93 3d 81 98 2f 3d
       -0.04355908 0.040779803 0.07180571 0.04287005
000140 fe b5 b7 bd e8 b2 1a bc 45 16 e1 bd bc 8d c0 3b
       -0.08970259 -0.009442069 -0.10990576 0.005876271
000150 a4 2f c3 bd a5 3b e4 bd 12 ac 18 bd 67 d6 a8 3c
       -0.09530571 -0.11144189 -0.037273474 0.020610048
000160 59 7e 9c bd 17 ff c1 bc 76 a8 de bd b6 93 5b 3d
       -0.076412864 -0.023681207 -0.10871975 0.053607665
000170 ca a7 6b bd 16 66 c7 3d 3e 97 c7 bb 05 e6 c5 bd
       -0.057533063 0.09736268 -0.0060910275 -0.09663013
000180 7f 07 32 3d d7 6b 31 3d 73 10 03 be 97 69 18 bd
       0.04346418 0.043315735 -0.12799244 -0.037210073
000190 bc 58 e5 bd d9 34 a6 3d e5 e6 09 3d 95 1c 00 bd
       -0.11198565 0.08115549 0.033667464 -0.031277258
0001a0 f6 44 f0 3d b9 dc 8f bc 87 ad 94 3d d2 ca c9 3d
       0.11731903 -0.017561303 0.0725966 0.09853138
0001b0 f2 39 af bc 3c ae 0d be ad f5 93 3c 19 0d f0 3d
       -0.021389935 -0.13835996 0.018061483 0.11721248
0001c0 9e 1e c9 3d 16 e1 9e 3d 59 6d ac bb 93 ee 41 bd
       0.09820293 0.077577755 -0.0052620587 -0.047346663
0001d0 8d 50 28 3d b8 3f 1e bc 92 70 5f 3d 99 dc e8 3d
       0.041092444 -0.009658746 0.054550715 0.11370201
0001e0 91 65 93 3c 39 c6 9d bd 5f c5 18 3c a8 0f b3 bd
       0.017992767 -0.077038236 0.009324401 -0.087432206
0001f0 14 11 03 bc 09 ce 60 bd 51 19 d0 bd 32 36 70 3d
       -0.007999677 -0.05488399 -0.10161079 0.058645435
000200 1f 0e d0 3d 77 0e 29 3d 26 ba 16 3d c0 5f fe 3c
       0.101589434 0.04127356 0.03679862 0.031051517
000210 a3 bc b4 bd 1f 5c 71 bd 4b 13 87 bd 4e 9f df bc
       -0.08825042 -0.058925744 -0.06595477 -0.027297642
000220 dd 96 26 3d 4d 64 06 3e bf 61 f1 3d 64 b2 5d bd
       0.04067122 0.13124199 0.11786222 -0.054125205
000230 d6 9a e7 bc c0 60 0d bd 3f a6 01 be 2c fe a3 3d
       -0.028272074 -0.034516096 -0.12661074 0.08007464
000240 3c c1 17 3d 92 b5 47 bd ef 12 bc bb f4 1a ac 3d
       0.037049517 -0.048757143 -0.0057395617 0.084035784
000250 08 8d ef bc 22 8c 97 3a 61 a8 47 3c 6e 19 0a be
       -0.029242054 0.0011562149 0.012186141 -0.13486263
000260 87 15 0c be c1 68 c3 bc cf ad 0e be 61 91 30 3d
       -0.13680087 -0.023853661 -0.1393349 0.043107394
000270 85 39 0b be 9c a4 94 bd 90 3b 95 3d 8b 16 97 3d
       -0.1359616 -0.07257959 0.07286751 0.073773466
000280 d8 2a 5c bd 1f 10 1c bd bf 47 b8 bc 8c 72 90 bd
       -0.053751796 -0.03810131 -0.022495149 -0.07053098
000290 07 5e ac 3c 7b 8f 39 bd fa 85 a3 bd 8d 18 96 3d
       0.02104093 -0.04530285 -0.079845384 0.073289014
0002a0 12 2a ab bd cd c3 21 3e 2e 6c ce 3d ea bb da bc
       -0.08357634 0.15797348 0.100792274 -0.026700933
0002b0 e4 83 a9 bd f8 88 02 3d 4a 59 cc bd cd 87 96 3d
       -0.08277109 0.031868905 -0.09977968 0.07350121
0002c0 e7 61 f3 bd 5b cc ed bd a9 c2 d5 bd 53 e6 47 bd
       -0.11883908 -0.11611243 -0.10437519 -0.04880364
0002d0 87 ac 3a bd 9b 8b ba bd 4f e7 35 3e 53 1b c9 bc
       -0.04557469 -0.09108659 0.17764018 -0.024549162
0002e0 be 83 31 bc 67 c2 b6 3d 4e 20 56 3d 7d 78 d1 bd
       -0.010834632 0.08923798 0.052276902 -0.102280594
0002f0 49 4f 70 3b f0 7e 85 bc 37 ba b3 3d a9 36 0d 3e
       0.0036668351 -0.01629588 0.08775752 0.13790382
000300 5a 6b 78 bd 1a 15 de bd dc ed 74 3d 62 e1 b9 3c
       -0.060649253 -0.108438686 0.059797153 0.022690479
000310 a1 05 d8 bd fe b9 3c 3d bc 4a ec bd 62 76 9e 3d
       -0.10547949 0.046075813 -0.11537692 0.077374235
000320 d7 e1 2b 3e 11 c9 b8 bd 58 48 f4 3c a0 bf 16 3e
       0.1678537 -0.090227254 0.029819652 0.14721537
000330 f0 ec 18 bc 20 8a 1a 3e 71 3c da bd a2 be 59 bd
       -0.009333834 0.15091753 -0.106560595 -0.053160317
000340 17 e1 80 3d 92 83 e4 bd 67 b2 06 be fc 75 f7 3d
       0.062929325 -0.111579075 -0.13153993 0.120830506
000350 a4 d1 e1 bd 92 57 6a bd 0f b5 e8 bd ee 2d 84 3c
       -0.11026314 -0.05721242 -0.11362659 0.016135182
000360 cf 7d 05 3c 6b ad 0d be c8 49 02 be a6 e5 92 bd
       0.008147671 -0.13835685 -0.12723458 -0.07172708
000370 83 3f c6 3d 85 6d 77 3d 3f da ce bd 1b 33 66 3d
       0.09680083 0.06040718 -0.10100221 0.05620108
000380 45 4d 30 bd f6 17 50 3d cc eb 9d bc 53 0f 57 3d
       -0.04304244 0.0508041 -0.019277476 0.05250485
000390 77 da 07 bd d2 81 05 be 38 e5 0b 3e 11 e4 72 3d
       -0.03316733 -0.13037804 0.13661659 0.059299532
0003a0 2c bd 82 bd 26 3a 80 bd a4 23 8c bd b7 84 67 bb
       -0.06383738 -0.06261091 -0.068427354 -0.0035326907
0003b0 4a b6 88 3d 6e 6e 2b bd 79 7e f3 3d 39 2f b8 38
       0.06675394 -0.04185336 0.11889357 8.7825996e-05
0003c0 32 0c 9a bd 2f fa 9b bd e5 ec f7 3d c4 f2 1f bd
       -0.07521857 -0.07616078 0.12105731 -0.03904988
0003d0 83 9f 84 bd a2 4e 09 be 11 37 26 3c 43 cd 10 be
       -0.06475737 -0.13408902 0.010144965 -0.14140801
0003e0 8b 95 b5 bd fc 96 c4 bc 29 e4 94 3d 0a 41 b5 bd
       -0.08866414 -0.023997776 0.072700806 -0.08850296
0003f0 68 b2 88 3d a6 3c 7b 3c 95 a5 b3 bd 69 ea 31 bd
       0.06674653 0.015334284 -0.08771817 -0.04343644
