lexicons/3.lexicon.multinomial+dev/5/holdout_immigration/model.pth (torch, 121464 bytes, 1 tensors)

weight f4 [15, 2000]
00000000: cbd2 a83d adfe b73d c208 90bd 35ff 2fbc
00000010: 47dd 0ebe 355f d33c 99bc aebd eed1 753c
00000020: 95be 5c3d 48b9 7f3d c187 afbc 54e1 77bd
00000030: 4860 1dbe 02e5 21be 7e2c 133e 2175 533c
00000040: fddb a93c ca77 333d 9c3d 75bd 93a4 c2bd
00000050: 6c77 a73d c193 09bd 4c03 ab3d 0fc0 b3bd
00000060: 5cb2 61bd c044 98bd 191e f9bd a72e 04bd
00000070: 07c1 a33d 51b1 01be ec33 3abd c902 2fbd
00000080: e1f0 85bd a095 ab3c dfe6 b039 af9c 11be
00000090: e619 afbd 6367 853c 9b38 0d3d aa5e 6dbd
000000a0: 8d47 03bd 97f8 fc3c 6245 61bd 59ac 4ebd
000000b0: d9ad 26be 229a b03d 14b5 19be 3e56 1cbe
000000c0: eff8 f8bd 9796 413e 64e7 fc3d 66d1 783d
000000d0: 1608 adbd ccb9 e43d ef36 03be cee6 6d3c
000000e0: 0679 0fbd 0443 f93d 7504 1abe 5a5e 82bd
000000f0: d1b5 1bbd f5dd 65bd 3020 113d 0982 713d
00000100: fdd8 abbd 8d78 32be 8ee9 9fbd fc03 05be
00000110: 176d 2fbe 5810 f6bd fc96 373e 28a1 31be
00000120: 1d53 db3d e1d7 b73d ad58 ab3d d6ee 943d
00000130: f3a0 b63d c2db 05be bda0 84bd 9902 b23d
00000140: 8266 143e 1f12 47be 996a b1bd 163f 1ebd
00000150: 66ed 853b afdc f13d 4978 14be 34f6 b0bd
00000160: 3d8a 56bd bee5 bdbd df3f 4abd 35c9 973d
00000170: 2df7 ccbd 97f1 8a3d 8d96 2f3e 2bf6 d4bd
00000180: 6c01 22be cd2d c13d 3206 19be ae3b 04be
00000190: b391 253e e464 1e3c 97fb e13d 38a0 55bd
000001a0: f5c5 34be b10e 48be de15 33be b404 533d
000001b0: d480 36be 082a 1dbe eb97 35be ce70 7c3d
000001c0: ed31 e93d 4337 8a3c 1c09 313e f77d 37be
000001d0: 8566 24be 503c 6f3b 0974 593c a6f8 73bd
000001e0: c1c5 eebc f3f2 e4bd 7058 f03d 9aaf 2abd
000001f0: fdc0 3d3e b5ff ab3c 2a4a fdbd 6677 223e
00000200: b3d3 16bd 39fc 32be 43b6 c33d 8ea6 f4bc
00000210: d178 013d fda2 bc3d 4857 0cbc c638 2a3e
00000220: cf93 41bd 56c6 ab3c c7dd 97bc a29b 2abd
00000230: 62da e63d 5e25 0fbe ba5a 0e3e 22e2 a1bc
00000240: f969 0ebd a088 67bd afb5 c7bd 6c20 3e3d
00000250: fe6f 2abd 7167 44bd 381d 30be 8901 3ebe
00000260: 2636 d7bc 18ab 36be 107e 843d dd6e a13d
00000270: b3d9 35be d2cd aabd 6121 3f3d 4939 b33c
00000280: 581e 0dbc efd6 a93b bf1c 973d 84fa debc
00000290: bf54 b9bd c1f6 20bd d419 0d3d 9b89 eb3c
000002a0: c478 afbd 1d13 423d 59c2 8d3d 4d25 5a3d
000002b0: ba9e 713c 7ebc cbbd 99cd 44be 2286 2dbe
000002c0: 3ba8 8e3d d96d c23d 9bb3 b7bd fcb1 04be
000002d0: 42b4 54bd 8c2d 8bbd a929 d5bd acdc d1bd
000002e0: ea96 0bbe 2427 1fbe 7e44 263c 15d4 d93d
000002f0: be2a c0bc 2960 8b3d eb16 2d3e 5974 07be
00000300: d157 61bd f6e4 45be be40 94bd 4dbb 38be
00000310: ec70 ebbc fe11 05be ce43 023e 2e11 b8bd
00000320: 6fe6 64bd f046 4ebd 3aad 99bd 0918 37be
00000330: ce94 c43d fd4b 3d3e c233 0d3d 2650 583d
00000340: e99a 19be 729a 2d3e acbd ac3d 1708 783c
00000350: 8fa3 0dbe 5699 d23d 049a 17be ddd9 35be
00000360: 2efc b1bd 6dff 34bd e194 23be 1393 87bd
00000370: f60f 3b3e 2dfb 19be 5fc8 833d a212 32be
00000380: 9b32 8e3d fb2b 96bc 079e 3dbe 29ac 48be
00000390: b875 6c3d 1bba ae3d b327 d03d 11de 423e
000003a0: 1c19 453e 8321 cc3d 59b0 70bd c092 babd
000003b0: b825 2ebe ac82 983d 1a34 453e e7fe 213e
000003c0: 7003 773d 6d1c 21be 1dbe 633d c984 583b
000003d0: 83f4 293e 417c e5bd 625f 40be 1499 24be
000003e0: 5701 a83d 9336 3e3e b999 473c 46b4 263e
000003f0: 2b84 43be 1b18 fb3d e96f f33c a8bb 35be
0.082433306 0.089841224 -0.070329204 -0.010741998 -0.13951598 0.025802234 -0.08532066 0.015003664
0.05389269 0.062432557 -0.021427037 -0.060517624 -0.1536876 -0.15810016 0.14372441 0.012906344
0.020734781 0.04381541 -0.05987321 -0.09504046 0.08177075 -0.033588175 0.08350238 -0.08776867
-0.055101737 -0.07434988 -0.12163944 -0.032271054 0.079958014 -0.12665297 -0.045459673 -0.042727266
-0.06540085 0.02094537 0.00033741348 -0.14219926 -0.085498616 0.01628465 0.03447781 -0.057951607
-0.032050658 0.030880256 -0.05499781 -0.050457332 -0.16277255 0.086231485 -0.15010482 -0.15267274
-0.12156855 0.18905102 0.12348822 0.060746573 -0.08448808 0.111682504 -0.12813924 0.01452036
-0.035027526 0.12170985 -0.15040763 -0.063656524 -0.03801519 -0.056119878 0.035431087 0.0589619
-0.083909966 -0.17428799 -0.07808219 -0.12989801 -0.17131458 -0.12014836 0.1792869 -0.17346632
0.10709212 0.089767225 0.08366523 0.07272117 0.089174174 -0.13072112 -0.06475971 0.08691902
0.14492229 -0.19440506 -0.0866291 -0.038634382 0.004087138 0.1180967 -0.1449901 -0.086407095
-0.052377928 -0.092723355 -0.04937732 0.07411424 -0.100080825 0.06784361 0.17147274 -0.10398515
-0.15820855 0.09432564 -0.1494377 -0.12913391 0.16168861 0.009667609 0.11034315 -0.05215475
-0.1765364 -0.19536854 -0.1748881 0.051518157 -0.17822582 -0.15348065 -0.17733733 0.061631016
0.11386476 0.016872054 0.17288631 -0.17919146 -0.16054733 0.0036504455 0.013272294 -0.0595633
-0.02914703 -0.111791514 0.11735618 -0.041671373 0.1853065 0.020995954 -0.12367661 0.1586586
-0.036822986 -0.17479028 0.09556248 -0.029864576 0.03160936 0.09210775 -0.008565731 0.1662322
-0.047260102 0.020968597 -0.018538369 -0.04165233 0.11272122 -0.13979098 0.13901797 -0.019761149
-0.034769032 -0.05652678 -0.0975145 0.04641764 -0.04161071 -0.047950212 -0.17198646 -0.18555273
-0.026270937 -0.17838705 0.06469357 0.078824736 -0.17758827 -0.08340038 0.046662692 0.021877902
-0.008613192 0.005183093 0.0737853 -0.027219065 -0.09049367 -0.039297823 0.03444846 0.028752139
-0.08567956 0.04738151 0.069218345 0.05325823 0.014747316 -0.099480614 -0.19219054 -0.16945699
0.06965681 0.09493608 -0.08969804 -0.1295852 -0.05192972 -0.06795797 -0.10408337 -0.10247168
-0.13631788 -0.15542275 0.010148166 0.106361546 -0.023457881 0.068054505 0.16903274 -0.13227977
-0.05501539 -0.19325623 -0.07238911 -0.180402 -0.028740369 -0.12995145 0.12721178 -0.08987652
-0.05588382 -0.05036062 -0.075037435 -0.17880262 0.09598695 0.18486018 0.03447319 0.05281081
-0.150005 0.16953447 0.084346145 0.0151386475 -0.13831924 0.10283153 -0.14804846 -0.1775889
-0.086906776 -0.044188906 -0.15974762 -0.06619849 0.18267807 -0.15037222 0.06434702 -0.1738992
0.06943246 -0.018331518 -0.18517314 -0.19596924 0.057729453 0.085315906 0.10163822 0.19030024
0.1924786 0.09967329 -0.05876193 -0.091100216 -0.17006576 0.07446799 0.19258156 0.15819894
0.060306013 -0.157335 0.055601228 0.003303813 0.1659718 -0.1120534 -0.18786386 -0.1607402
0.082033806 0.18575506 0.012182646 0.16279706 -0.19093387 0.12260457 0.029716449 -0.17747366
