lexicons/3.lexicon.ovr/5/holdout_tobacco/model.pth (torch, 121793 bytes, 2 tensors)

weight f4 [15, 2000]
0	0xbcd481be	-0.025940772
1	0xbcd22c29	-0.025655823
2	0xbcfc495b	-0.030796697
3	0xbcdd17c7	-0.026988877
4	0xbd385ebe	-0.04501223
5	0xbca15aee	-0.019696679
6	0xbd42c378	-0.047549695
7	0xbc86398d	-0.016384864
8	0xbd209522	-0.039204724
9	0xbcfbb6d8	-0.030726835
10	0xbd22025a	-0.039553024
11	0xbd4c1451	-0.049824063
12	0xbd4986c5	-0.049200792
13	0xbd439ecd	-0.047758866
14	0xbd0b74d2	-0.034046955
15	0xbce6ec25	-0.028188774
16	0xbca3ce01	-0.019995691
17	0xbce8d6e0	-0.028422773
18	0xbcc7ff8f	-0.024413852
19	0xbbcdc5f6	-0.0062797023
20	0xbd1509f4	-0.036386445
21	0xbd30369b	-0.043020826
22	0xbcf161f2	-0.02946565
23	0xbceb33cc	-0.028711222
24	0xbd28c608	-0.041204482
25	0xbd4478d5	-0.047966797
26	0xbd16f783	-0.03685714
27	0xbd0b9f9d	-0.034087766
28	0xbce3d984	-0.02781368
29	0xbd2b4a4f	-0.041818913
30	0xbd53eeeb	-0.05174152
31	0xbcb9786d	-0.022640431
32	0xbd3f2b79	-0.046672318
33	0xbd4239e7	-0.0474185
34	0xbd0c0c33	-0.03419132
35	0xbd226c61	-0.03965414
36	0xbd0ae2d7	-0.033907738
37	0xbd398929	-0.04529682
38	0xbcdc442f	-0.026887981
39	0xbd6a01e1	-0.057130698
40	0xbcceda6b	-0.025250634
41	0x3b539a79	0.0032288118
42	0xbc8f89cf	-0.017521767
43	0xbd2fbfa9	-0.04290739
44	0xbd30bf5e	-0.043151252
45	0xbd2a1765	-0.041526217
46	0xbd428668	-0.04749146
47	0xbd0d2b18	-0.034464926
48	0xbcf3855b	-0.029726675
49	0xbc5a1f8c	-0.013313185
50	0xbc506033	-0.012718248
51	0xbd59cfa4	-0.053176537
52	0xbd513052	-0.051071472
53	0xbc51e135	-0.012810041
54	0xbd3d36db	-0.046194892
55	0xbd174d05	-0.036938686
56	0xbd67d9a9	-0.05660406
57	0xbc938c80	-0.018011332
58	0xbc301f5c	-0.010749664
59	0xbd432457	-0.04764208
60	0xbbe92ca9	-0.0071159196
61	0xbcbd5f39	-0.023116695
62	0xbd63d039	-0.0556185
63	0xbcbe6323	-0.023240631
64	0xbd09d799	-0.033652876
65	0xbcb7ba73	-0.022427773
66	0xbd16fc79	-0.03686187
67	0xbcdce173	-0.026962971
68	0xbc88cc51	-0.016698988
69	0xbd1c3b42	-0.03814245
70	0x3bbcb81f	0.0057592536
71	0xbd811a99	-0.06303901
72	0xbd8071b7	-0.062716894
73	0xbc9f7a70	-0.019467562
74	0xbd33cdb0	-0.04389733
75	0xbd3e38ee	-0.04644101
76	0xbd3e0564	-0.04639186
77	0xbcdef7b8	-0.02721773
78	0xbd3ac55f	-0.045598384
79	0xbcd7c764	-0.026340194
80	0xbceb0476	-0.02868865
81	0xbca33420	-0.019922316
82	0xbcdd715b	-0.027031591
83	0xbd7368be	-0.05942606
84	0xbcd85d10	-0.026411563
85	0xbd2f1ca1	-0.042751912
86	0xbd033157	-0.032029476
87	0xbd2c9c8d	-0.042141486
88	0xbcb94ba9	-0.022619085
89	0x3db46742	0.08808757
90	0xbd06dad4	-0.032923535
91	0x3c0c57dc	0.008565869
92	0xbcc1ad02	-0.023642067
93	0xbc9ccee8	-0.01914163
94	0xbb8673ed	-0.004103175
95	0xbc9f8e97	-0.019477172
96	0xbd140df6	-0.036146127
97	0xbc6d55e1	-0.014485807
98	0xbc1676c8	-0.009183593
99	0xbd65db36	-0.05611726
100	0xbd3af790	-0.04564625
101	0xbc642712	-0.013925331
102	0xbd5eeaa3	-0.054422986
103	0x39b1a9de	0.00033886632
104	0xbd83614e	-0.06415044
105	0xbd5cf8e0	-0.053948283
106	0x3d2d6466	0.042332076
107	0xbd151bf3	-0.036403608
108	0xbd4f9e99	-0.05068836
109	0xbb24e39a	-0.0025160075
110	0xbd5cb276	-0.05388113
111	0xbd870370	-0.065924525
112	0xbd2dcd97	-0.042432394
113	0xbca3a071	-0.019973965
114	0xbd7af1d6	-0.06126579
115	0xbd2ddbd5	-0.042445976
116	0xbd5d3a6e	-0.0540108
117	0xbd2e28a7	-0.042519238
118	0x3ce44fb5	0.027870039
119	0xbce832ff	-0.02834463
120	0xbd7722f4	-0.06033607
121	0xbd1a4763	-0.037665736
122	0xbd09db68	-0.033656508
123	0xbd68b74a	-0.056815423
124	0xbd0e5c77	-0.03475615
125	0xbc92678d	-0.017871642
126	0xbd28de2f	-0.041227516
127	0xbcd48962	-0.025944415
128	0xbcf1022f	-0.029419987
129	0xbd10ba48	-0.0353339
130	0xbc4e8571	-0.012605057
131	0xbd3d04c6	-0.04614713
132	0xbd007af6	-0.031367265
133	0xbd3e4b1e	-0.046458356
134	0x3b6ba46e	0.0035956162
135	0xbd5baa65	-0.053629298
136	0xbd216012	-0.03939826
137	0xbc9b510e	-0.018959548
138	0xbccdb043	-0.025108462
139	0xbd328ee8	-0.043593317
140	0xbd0f4304	-0.03497602
141	0xbd42826f	-0.047487672
142	0xbcb94f32	-0.022620771
143	0xbcf861c7	-0.030320061
144	0xbd144954	-0.036202744
145	0xbc04079d	-0.008058456
146	0xbcd62342	-0.02613986
147	0xbd0eb716	-0.034842573
148	0xbd372d5f	-0.044721004
149	0xbb17aab2	-0.0023142514
150	0xbd326bbf	-0.043559786
151	0xbd239d85	-0.039945144
152	0xbc8cf36f	-0.017205922
153	0x3d38f7b9	0.04515812
154	0xbd465960	-0.04842508
155	0xbd3ef455	-0.046619732
156	0xbbaf2f43	-0.00534621
157	0xbd2add67	-0.041715052
158	0xbcbe2d7f	-0.023215054
159	0xbd53deee	-0.051726274
160	0xbc91c1c4	-0.01779259
161	0xbc852ec0	-0.016257644
162	0x3b923946	0.004462394
163	0xbcdb38fc	-0.02676057
164	0xbd1bf3df	-0.03807437
165	0xbd4ee1ce	-0.050508313
166	0xbc96525b	-0.018349817
167	0xba0e3409	-0.0005424624
168	0x3ceb5934	0.028729059
169	0xbd3a7e65	-0.045530695
170	0xbd28b638	-0.041189402
171	0xbd2578f0	-0.040398538
172	0xbd4eab6d	-0.050456453
173	0xbceaad0d	-0.02864697
174	0xbcbbab58	-0.022908852
175	0xbd2b502c	-0.041824505
176	0xbd331b4e	-0.04372721
177	0xbd502228	-0.050813824
178	0xbd3009f2	-0.042978235
179	0x3dbeb30e	0.09311496
180	0xbcf10934	-0.029423334
181	0xbcd4006f	-0.025879113
182	0xbce63828	-0.02810295
183	0xbd16f5dc	-0.036855564
184	0xbd2e0cf2	-0.042492814
185	0xbd109237	-0.03529569
186	0xbd2f12b3	-0.042742442
187	0xbd5e037a	-0.054202534
188	0xbd84c4f7	-0.064828806
189	0xbce2991d	-0.0276609
190	0xbd232b45	-0.039836187
191	0xbcce71ca	-0.025200743
192	0xbd6d5818	-0.05794534
193	0x3a3c0d18	0.0007173582
194	0xbbc8fe70	-0.006133847
195	0xbd27bd23	-0.04095186
196	0x3d1f6815	0.03891762
197	0xbc0b22df	-0.008492201
198	0xbd4f94e6	-0.05067911
199	0xbd72ce3b	-0.059278708
200	0xbd3446e3	-0.044012915
201	0xbd1e91e2	-0.038713343
202	0xbc9b72c7	-0.018975629
203	0xbca4e240	-0.020127416
204	0xbd569be7	-0.052394774
205	0xbce2b0da	-0.02767222
206	0x3d4f87bf	0.050666567
207	0xbd8a47ca	-0.06751974
208	0xbd4c0e94	-0.04981859
209	0xbd26ae1a	-0.04069338
210	0xbd37c1a7	-0.044862416
211	0xbd732881	-0.0593648
212	0xbd2d8dc5	-0.04237153
213	0xbd285bda	-0.04110322
214	0xbd2c8bcd	-0.042125512
215	0xbce0ada9	-0.027426558
216	0xbd13e525	-0.0361072
217	0xbd4ee84f	-0.050514515
218	0xbd02a70a	-0.031897582
219	0xbd60a492	-0.054844446
220	0xbce25206	-0.027627002
221	0xbc5af5c3	-0.013364258
222	0x3e10d9d8	0.14145601
223	0xbcac99ad	-0.021069372
224	0xbd1620bd	-0.036652315
225	0xbc4bc2d4	-0.012436587
226	0xbd4f14b2	-0.050556846
227	0xbd47ad75	-0.048749406
228	0xbc149eca	-0.009071061
229	0xbc4a3035	-0.012340595
230	0xbd52e132	-0.051484294
231	0xbd1b5f3a	-0.037932612
232	0xbd532aaf	-0.051554378
233	0xbd64cfe4	-0.055862322
234	0xbd6c20c9	-0.057648454
235	0x3e169602	0.14705661
236	0xbd7ffd00	-0.06249714
237	0xbcdb8f27	-0.026801659
238	0xbd82b9f3	-0.06383123
239	0xbcef2e4a	-0.029196877
240	0xbd22be91	-0.03973252
241	0xbce2bb4c	-0.0276772
242	0xbd1f6057	-0.038910236
243	0xbcea72a8	-0.028619125
244	0xbd5777f8	-0.052604645
245	0xbcf9fdf7	-0.030516608
246	0x3bac20f1	0.0052529504
247	0xbc5c17cb	-0.013433407
248	0xbcf29efa	-0.029616822
249	0xbd46f9c0	-0.048578024
250	0xbd3c2d6a	-0.045941748
251	0xbcd8aa37	-0.026448352
252	0xbd00d30f	-0.03145128
253	0xbb31846d	-0.0027086989
254	0x3e1ebd5d	0.15501924
255	0xbad64eac	-0.001635035

bias f4 [15]
0	0xbd3e92f1	-0.046526853
1	0xbd490129	-0.049073372
2	0xbd2ac738	-0.041693896
3	0xbd3f4657	-0.04669794
4	0xbd6949bf	-0.056955095
5	0xbd6a452e	-0.05719488
6	0xbd4a5280	-0.049395084
7	0xbd3a506e	-0.04548686
8	0xbd42f0f7	-0.047593083
9	0xbd3e6157	-0.04647955
10	0xbd335626	-0.04378333
11	0xbd463f33	-0.048400115
12	0xbd700e93	-0.05860765
13	0xbd54768a	-0.05187086
14	0xbd465f71	-0.048430864
