lexicons/1.lexicon.ovr+dev/immigration/model.pth (torch, 91448 bytes, 1 tensors)

weight f4 [15, 1500]
000000 8c 63 9a 3d 28 11 d2 3d 3f a8 aa bc 49 32 8d 3e
       0.07538518 0.102571785 -0.02083218 0.27577427
000010 d4 21 90 3d 8e 1a 98 3d c5 16 6a bd ab 45 86 bb
       0.07037702 0.0742694 -0.05715062 -0.0040976605
000020 32 63 85 3e 46 4b 02 bf c8 b5 c5 be 1c 4c e9 be
       0.26052243 -0.5089611 -0.3861525 -0.4556588
000030 4c a3 0f 3d 6a 5c bd 3e bb 66 ba 3e d7 d2 09 be
       0.03506784 0.3698457 0.36406502 -0.13459335
000040 f7 05 0f 3d 8a aa 1e bf f9 9a a6 3e 57 6c 8c be
       0.034917798 -0.6197897 0.3254011 -0.27426407
000050 79 a2 90 bc da 9b 78 3d 32 99 a5 bd 20 6f d9 3e
       -0.017655598 0.060695507 -0.0808586 0.42467594
000060 42 bc d2 3d 51 aa 90 be d7 61 80 be 2a d2 aa 3c
       0.102898136 -0.2825494 -0.25074646 0.020852167
000070 88 b3 d5 bd e6 d8 2d 3e 22 7c 0b bf 0c 64 18 3f
       -0.104346335 0.16977271 -0.54486287 0.5952766
000080 46 c6 34 bf f5 0c 49 be 26 92 35 be f2 5c 3a bd
       -0.7061504 -0.19633849 -0.17731532 -0.045498796
000090 e2 92 f2 3d 62 fc 5d be 0d e9 d4 be a4 2b 12 bf
       0.11844422 -0.21678308 -0.41584054 -0.5709784
0000a0 3b c4 bd bd 1c ac b4 3c 81 33 b8 bd 57 46 2a 3d
       -0.092659436 0.022054724 -0.089941986 0.041570988
0000b0 8d d0 e2 bd aa dc d0 3d 54 ed 10 be 05 0d 3c 3f
       -0.11074934 0.10198338 -0.14153033 0.73457366
0000c0 9b be 8c bc 7b e5 c6 3e 09 36 1a bf 96 db 10 bd
       -0.017180732 0.38846955 -0.602387 -0.035365663
0000d0 1f f3 98 be 6f aa a5 bd 0a 3b a4 be 48 91 57 3e
       -0.29872987 -0.08089148 -0.32076293 0.21051514
0000e0 3a 4b d0 bd dc 40 a1 be fb a1 27 3e 86 4e 3b bf
       -0.10170598 -0.31494796 0.16370384 -0.7316669
0000f0 df 36 34 bf 4a 82 6b 3d 84 44 62 be 2c e1 b7 be
       -0.70396227 0.0574973 -0.22096449 -0.3591398
000100 6d 86 9a bd 7c 89 6b bd eb 45 62 be e5 d7 09 3d
       -0.07545171 -0.057504162 -0.22096984 0.03365316
000110 47 36 5b 3e 4e dc 9e be 2f 54 de 3b 1b ba 91 bd
       0.21407424 -0.31027454 0.006784938 -0.07115575
000120 39 f0 72 3d b2 4b 70 3d 1f e2 22 3f 83 f6 f3 3e
       0.059311125 0.05866594 0.63626283 0.4764901
000130 06 d8 79 bc 56 be 49 bf e2 30 68 3d 90 4d ab 3e
       -0.015249258 -0.78806055 0.056687243 0.33457613
000140 21 24 8d 3e 43 18 08 bf 4e 6d 0c 3f e7 ca cc be
       0.27566627 -0.5316202 0.54854286 -0.39998552
000150 79 f8 f3 be 9e bf 5e 3e a6 2b 83 bf 8d da a6 3e
       -0.47650507 0.21752784 -1.0247695 0.32588616
000160 fa cd 9e bc 0d ca cf 3e d2 92 db 3b 4b ce 48 3d
       -0.019385327 0.4058384 0.006700852 0.04902486
000170 d9 1d ce be 9a a3 25 3d 10 da 1a 3f 9d 30 07 bf
       -0.40257147 0.040439226 0.60488987 -0.52808553
000180 fc 6e 4c be ca 9c ae be be 76 00 3f b2 f5 c7 bd
       -0.19964212 -0.34103996 0.50181186 -0.097636595
000190 16 01 43 bf 95 89 b4 3e 08 b2 5a 3e 1f 9f f9 be
       -0.7617353 0.35261217 0.21356976 -0.48754212
0001a0 0c 5a ec be 83 16 34 bf 7d 03 e3 3d 16 43 84 be
       -0.4616245 -0.7034685 0.1108465 -0.25832433
0001b0 d9 1a 2d bf 22 b9 9b 3e d4 a0 02 bf cb 51 ae 3d
       -0.6761909 0.30414683 -0.51026654 0.085116945
0001c0 ed 8a c2 3d e4 27 31 3d da 11 01 be f8 be 2c 3e
       0.09499154 0.043250933 -0.12604466 0.16869724
0001d0 13 50 f2 be 07 0e 14 bd d7 8b 1a 3f 9f a0 86 be
       -0.47326717 -0.03614619 0.6036963 -0.2629442
0001e0 1f 73 10 3f 24 0a 20 bf fe 96 fc be d8 e2 c3 3e
       0.5642566 -0.62515473 -0.49333948 0.38259006
0001f0 c8 1b 2a be c3 46 24 bd 29 a9 ee 3b 5a d8 1a 3e
       -0.1661216 -0.040106546 0.007283349 0.15121594
000200 1c 26 7f 3d 8a 14 11 bf 5e 8f f1 be 29 ad 8d 3e
       0.062292203 -0.56671965 -0.47179693 0.27671173
000210 90 2a 3b 3f 64 33 ce be 06 16 c1 be 37 88 37 bf
       0.7311182 -0.40273583 -0.37712115 -0.7169222
000220 e2 32 53 be 06 c0 00 bf 9a ff ed be ba 99 3c be
       -0.20624879 -0.50293005 -0.4648407 -0.18418017
000230 f4 60 b6 3c ba 8e 2e 3e 6d 9b d6 be df 77 d5 be
       0.022263028 0.17046633 -0.41915455 -0.41693017
000240 66 88 9d be c8 4f 55 bf 2b 08 c1 be c2 2b bb bd
       -0.30768126 -0.8332486 -0.37701544 -0.091392055
000250 1e ff de be c5 8c a2 be 58 87 1c be 90 6f fe 3d
       -0.43554014 -0.31748024 -0.15286005 0.124236226
000260 e2 c9 f7 be 6b 8d f1 3d 46 ee ff 3d f6 22 0a 3d
       -0.48396212 0.117945515 0.12496619 0.033724748
000270 22 48 b5 be a4 7c 3f bf ae 52 80 be 72 63 12 3e
       -0.35406595 -0.7479956 -0.2506308 0.14295748
000280 c0 13 a6 3d 78 f4 a1 3e e6 ba 82 bf 93 45 35 bf
       0.08109236 0.31631827 -1.0213287 -0.70809287
000290 02 b1 ff bb 76 0d 0b bf 3d 13 be be 90 4b fb 3e
       -0.0078030834 -0.54317415 -0.37124053 0.49081087
0002a0 33 ab b6 be 11 85 40 3e 63 0a 49 bf bc d1 c0 be
       -0.3567749 0.18800761 -0.78531474 -0.37660015
0002b0 e8 ea b2 3d 84 a9 00 3f 38 cb 08 3e a4 3a 21 bf
       0.08736211 0.5025866 0.13358772 -0.62980103
0002c0 ce ea af be 68 c1 86 3e 33 8c 98 3e 94 b6 0b bf
       -0.3435883 0.26319432 0.29794464 -0.5457547
0002d0 78 46 84 3f 53 2f e8 be 75 c9 37 be 77 a3 0e bf
       1.0334005 -0.45348606 -0.17947944 -0.5571818
0002e0 4c df 13 bf fc 14 e0 be 2f 05 8e be 35 c7 0e 3f
       -0.577626 -0.4376601 -0.2773833 0.55772716
0002f0 57 fb 67 bf 34 bb df 3c 2a 9c 11 3f c4 7a 0d bf
       -0.9061789 0.027310945 0.5687891 -0.5526545
000300 c2 06 16 be d1 05 18 bf 46 58 9e be e1 e5 5c bf
       -0.14651015 -0.59383875 -0.30926722 -0.8628827
000310 a9 d4 ca be 5e e1 3e 3d b8 6e de 3e f9 51 b5 be
       -0.39615372 0.046601646 0.43443847 -0.35414103
000320 5a 23 1e be 40 4b 1e 3f 6a 6e 95 bc 00 1e d6 3c
       -0.15443173 0.6183357 -0.018241126 0.026137352
000330 74 4f 56 bd 4c 17 fd 3e 54 11 9a 3e e3 a4 06 bf
       -0.052321866 0.49431837 0.30091345 -0.5259535
000340 d6 70 14 3f b0 80 1e 3f ad b5 14 3f 32 35 bb 3e
       0.57984674 0.6191511 0.58089715 0.36564022
000350 0a 0f e2 be 8d fa 9b be bc 45 3f 3e c2 93 85 be
       -0.441521 -0.30464593 0.18678945 -0.26089293
000360 4a 92 4a bf e3 55 35 3e 12 64 56 bf eb cf 51 be
       -0.7912947 0.17708544 -0.83746445 -0.2048947
000370 7f bc 01 3f dd 5b cb 3e 5c dc 41 be ba c3 49 3d
       0.5067825 0.39718524 -0.18931717 0.049258925
000380 f3 d2 20 be 6b 88 67 bf ac 63 d5 be ef 90 25 bf
       -0.1570547 -0.9044253 -0.41677606 -0.64674276
000390 4a 41 43 3f 37 67 3c 3d fa 0e a3 3e a7 c0 17 bf
       0.762715 0.04599687 0.31847364 -0.5927834
0003a0 e9 a2 6c bf fa 3c 60 bf 63 93 58 bf 40 68 28 bf
       -0.9243608 -0.8759304 -0.84599894 -0.6578407
0003b0 1d b1 38 bf 84 44 31 bf 4e 49 ca 3e f8 14 45 3d
       -0.72145253 -0.6924517 0.39509052 0.0481157
0003c0 2b 45 a8 be 5a 07 b9 be c8 fd 05 3e f0 9b e7 be
       -0.3286527 -0.3613842 0.13085091 -0.45236158
0003d0 dd f5 12 bf a2 71 36 bf cf 45 db be fd 30 30 3d
       -0.5740641 -0.7126714 -0.42826697 0.04301547
0003e0 0f 24 85 bf a6 c4 63 3f 70 d0 13 bf 41 46 c4 be
       -1.0401629 0.88971937 -0.57739925 -0.3833485
0003f0 88 50 32 bf a3 20 df 3c 67 9f 1c bf 35 ab 27 bf
       -0.6965413 0.027237242 -0.6118073 -0.65495616
