lexicons/1.lexicon.ovr+dev/immigration/model.pth (torch, 91448 bytes, 1 tensors)

weight f4 [15, 1500]
00000000: d055 913d 4f15 cb3d f873 bfbc b95f 8a3e
00000010: 4966 953d 8dd5 963d edac 67bd 9a1c 31ba
00000020: 5338 853e 6f70 01bf cb26 c8be d2d9 e8be
00000030: 774d 293d 7544 b73e 79a4 b93e cd2f 13be
00000040: 41fd f43c b9b2 15bf cba7 a53e c019 8ebe
00000050: 1190 33bc 00d7 743d 6137 a2bd ee57 da3e
00000060: 1226 cb3d 9c1d 91be cefe 82be 14a9 0c3d
00000070: c5ee d6bd cce8 263e 3768 08bf 6aa5 153f
00000080: 7132 38bf 93cc 48be edc0 34be 2cce 1abd
00000090: 7396 f13d 74ac 5fbe 0b91 c8be e73e 14bf
000000a0: cbba b4bd aebc df3c 3cb1 aabd c6e5 4e3d
000000b0: b4ca f6bd 4cad af3d cc98 0dbe f2b2 3a3f
000000c0: c126 62bc 5aac c43e 7670 17bf 75f3 16bd
000000d0: 3867 99be 34f8 9fbd c8f7 a3be a008 593e
000000e0: d96b ccbd 4981 9bbe 2b64 153e 87c5 3bbf
000000f0: 98e0 33bf a4df 853d eccb 51be 2df8 b4be
00000100: 5da1 95bd c4da 5ebd 5eb5 69be 1de2 033d
00000110: d26a 693e 4555 9cbe 1346 1d3c fa2a 97bd
00000120: a5ef 6b3d 98bd 963d 914d 1c3f 9d5f ed3e
00000130: 4ea4 91bb 8ad2 4bbf c40a 8d3d d245 a33e
00000140: 08b2 893e 4853 07bf 7795 0b3f 32d5 c4be
00000150: fdde efbe f85e 5a3e 8390 7dbf 3696 a63e
00000160: 62ed 8dbc e13c ce3e 2b1b 1eba 6ac2 483d
00000170: bb82 d3be bfa0 2f3d 294c 183f 3b8e 00bf
00000180: d6f2 51be 5543 abbe 3c66 fc3e c991 e2bd
00000190: 7197 36bf 5a6a ab3e 233b 553e 19ff edbe
000001a0: 74ea eebe acc3 35bf 1bd8 d63d 7712 80be
000001b0: 16ea 25bf 5b8b a03e cbf8 04bf 8b37 a93d
000001c0: 3eb1 ac3d 11d3 363d fe86 febd 91c3 2f3e
000001d0: b968 ebbe 1833 0ebd 216f 133f 9431 85be
000001e0: fbce 0f3f c7b4 1cbf 8a68 fabe ad0d cd3e
000001f0: 76ff 1dbe 8dd7 16bd 3e8b 303c d6c5 073e
00000200: c0cd 8e3d 5afe 08bf 0da7 f8be 9ab8 843e
00000210: 34d0 393f 8f7d c4be 40a7 bdbe 836d 35bf
00000220: b6b4 67be 021a fdbe 5626 ebbe 0a5b 4ebe
00000230: 2512 953c 3388 1f3e 52c3 cfbe a6b5 cfbe
00000240: 4f51 98be 77d1 58bf 4b52 c3be 87c4 cabd
00000250: 7f8f d5be 1f73 a6be cae5 1bbe 657d 133e
00000260: 0fc5 ebbe bca8 093e 9c3f 113e b3ac 0e3d
00000270: bcc8 b4be 2569 3ebf 85d8 7ebe d96a 153e
00000280: 3d7c 963d 376a a33e 71ff 81bf f714 2dbf
00000290: abcc 6fbc af70 08bf ab10 bbbe f12c fa3e
000002a0: 0916 babe 26ef 393e 7a65 4cbf 4911 bebe
000002b0: a32e a33d b33b 013f 0755 043e 284a 1fbf
000002c0: ce02 b4be 850d 863e 031a a03e 6ecd 06bf
000002d0: 38ca 823f 0596 e2be 4ca9 2ebe c9d6 0fbf
000002e0: 938e 10bf a459 e5be 17d7 8cbe c67a 0e3f
000002f0: 4791 6abf 68e1 133d f15b 0e3f 19f4 13bf
00000300: 9530 19be 575c 19bf 5bb1 a2be 394a 50bf
00000310: 83a6 c6be cef2 3a3d a7eb e43e 4c4c aebe
00000320: 7f3a 25be c4c8 1b3f 95cf c1bc 198a 253d
00000330: 18a2 73bd b21e fa3e 4867 9d3e f6a0 f9be
00000340: 989e 133f 7e39 1f3f a8ad 173f 023a c03e
00000350: b70c d9be 33e9 98be a86d 463e 0285 82be
00000360: 54af 45bf 3a5c 383e 4c5b 55bf a2cd 4dbe
00000370: c98d 013f 17d4 c73e 8d56 38be d5d0 953c
00000380: f6d1 0bbe bf01 64bf 7c53 d1be 20b9 27bf
00000390: e780 3e3f a2e7 473d 7a6f a03e f049 17bf
000003a0: f2e9 69bf fb67 4dbf ec0a 50bf 1f51 27bf
000003b0: b34c 3abf a948 33bf 2c76 c83e 2619 683d
000003c0: 8d4b a6be f957 bdbe a5d4 ec3d dd79 dcbe
000003d0: 0199 0cbf 8009 3fbf c881 dbbe 88a0 513d
000003e0: 1c6b 87bf e939 633f a767 18bf 8397 c6be
000003f0: 0fa8 30bf 56f4 023d 6b75 16bf 5280 25bf
0.070964456 0.09916174 -0.023370728 0.27026156 0.072949 0.0736495 -0.0565614 -0.0006756276
0.26019534 -0.50562185 -0.39092097 -0.45478684 0.04133364 0.35794416 0.36258295 -0.14373703
0.029905917 -0.58475834 0.32354578 -0.2775402 -0.010959641 0.059775352 -0.07920719 0.4264521
0.09919371 -0.28342903 -0.25585026 0.034340933 -0.104947604 0.16299742 -0.5328402 0.58455527
-0.7195197 -0.19609289 -0.1765172 -0.037794277 0.11796274 -0.2184313 -0.3917316 -0.5790848
-0.088246904 0.02731165 -0.08334586 0.050512098 -0.12050381 0.08577976 -0.13827819 0.729293
-0.013803185 0.38412744 -0.59155977 -0.036853272 -0.29961562 -0.07811013 -0.3202498 0.21194696
-0.09981508 -0.30372074 0.14588992 -0.7334828 -0.7026458 0.06536797 -0.20487946 -0.35345593
-0.07306168 -0.05440785 -0.22823092 0.03219806 0.22794655 -0.30533805 0.0095992265 -0.07381244
0.05760159 0.07360381 0.61055857 0.4636201 -0.0044446355 -0.7961813 0.06886819 0.31889206
0.2689364 -0.5286145 0.5452494 -0.38443905 -0.46849814 0.2132529 -0.9904863 0.32536477
-0.017325107 0.40280822 -0.000603127 0.049013533 -0.41310677 0.04287791 0.5949121 -0.50217026
-0.20502791 -0.33449808 0.4929675 -0.110629626 -0.7132483 0.33479577 0.2082334 -0.46483687
-0.4666325 -0.71001697 0.104904376 -0.25014088 -0.6481031 0.3135632 -0.5194213 0.08262547
0.08432244 0.044634882 -0.124280915 0.17164446 -0.45978335 -0.034716696 0.57591444 -0.26014388
0.561752 -0.61213344 -0.48907882 0.40049496 -0.15429482 -0.03682666 0.010775385 0.13259062
0.069728374 -0.5351311 -0.4856495 0.2592209 0.7258332 -0.38377044 -0.37041664 -0.70870227
-0.2262753 -0.49433905 -0.45927685 -0.20151916 0.018197129 0.155793 -0.40578705 -0.40568274
-0.29749534 -0.8469462 -0.38148722 -0.09900766 -0.4171104 -0.32509705 -0.15224376 0.14403303
-0.4604878 0.13443273 0.14184421 0.034832668 -0.35309398 -0.7437919 -0.24887283 0.1459154
0.07347915 0.31916973 -1.015608 -0.67610115 -0.014636199 -0.5329694 -0.36536154 0.48862413
-0.36344936 0.18157634 -0.7984234 -0.37122563 0.079678796 0.5048172 0.1292306 -0.6222253
-0.3515839 0.2618219 0.31269845 -0.5265721 1.0217962 -0.4425508 -0.17056769 -0.5618711
-0.5646755 -0.44794953 -0.2750785 0.5565609 -0.91627926 0.036103636 0.5560904 -0.5779434
-0.14959939 -0.59906524 -0.31775936 -0.81363255 -0.38798913 0.045641713 0.44711038 -0.34042585
-0.16135596 0.6085322 -0.023658553 0.040414903 -0.059480757 0.48851544 0.3074286 -0.48755616
0.5766387 0.621971 0.59249353 0.37544256 -0.42392513 -0.29865417 0.19377768 -0.25492102
-0.77220654 0.18003932 -0.8334243 -0.20097974 0.5060697 0.39029 -0.18001767 0.018288055
-0.13654312 -0.89065164 -0.40884006 -0.65516853 0.7441544 0.048804887 0.3133505 -0.59097195
-0.913726 -0.80236787 -0.81266665 -0.65358156 -0.72773284 -0.70032746 0.39152658 0.05666461
-0.32479516 -0.3698118 0.11563996 -0.43061724 -0.54920965 -0.7462387 -0.42872453 0.051178485
-1.0579562 0.8876024 -0.5953316 -0.3878747 -0.6900644 0.0319713 -0.58772916 -0.64648926
