lexicons/3.lexicon.ovr+dev/3/holdout_climate/model.pth (torch, 121464 bytes, 1 tensors)

weight f4 [15, 2000]
00000000: a7ac 233d c09a ab3d 0ef8 1e3c fb4b 053c
00000010: 273c d6bd 9325 853d 00de 88bd e339 0d3c
00000020: 0303 603d 5b97 14bd bf77 1e3d 6a9d b5ba
00000030: 4576 04be e554 b0bd 0bd9 263d 84b6 a63d
00000040: 07c7 09bd 5461 4e3d 1111 c93c 44ed 1e3d
00000050: 3941 c6bc 4905 003e d287 d63c 4ef6 20bd
00000060: a2e2 313b e70c f4bc 3494 633d 95ad 95bd
00000070: b402 60bd b387 3bbd 4241 c4bd b3ab 0cbc
00000080: be48 a6bd 5be4 babd 745f 28bd 69f0 04bc
00000090: ee41 66bd 1f28 253d 7399 873d fcdd 8cbd
000000a0: 82a0 ad3d 183a 27bd 226e c5bd 967f cebd
000000b0: 7187 1a3d 0ed9 5cbc 9418 68bd 6eaa 043d
000000c0: f5de 343d 1fc6 d2bd e529 e23d 2e34 2dbd
000000d0: cbcc 223e 311a 8bbd edb5 bcbd 58b6 fe3b
000000e0: 3adf bf3d 812e a9bd a6c3 04be 7250 f2bc
000000f0: ac97 d7bd a8d8 bb3d 691a f9bc 03b5 6939
00000100: 6dda d0bc 48ed 4b3d 32b8 05be 42fd cbbc
00000110: 5178 8e3d 3ee8 7f3c 573e 9b3d 89e2 0dbe
00000120: baa2 76bd 1f69 03bd ab62 b83d 5ae7 043e
00000130: ee8f aabd 0bac 8cb9 dc1c da3d 7a3e 473d
00000140: 18e4 ba3d fc47 0d3d 675e 0fbe b499 85bd
00000150: 1f90 a93c 83ab f1bd 6ae9 023e 10e0 85ba
00000160: 1058 b4bd 574d 1ebd e73f 0ebe 1b61 4b3d
00000170: e154 02bc a28c f43d 4398 acbd 514d 9f3c
00000180: 7636 09be 0700 023b 3ad0 b3bd 1b53 03be
00000190: d945 ffbd ad7f fcbd 0a90 ccbd 75be fdba
000001a0: 25b3 773d b954 9abc 67a9 f43d 979c 09be
000001b0: 2040 fb3c 3b81 3cbd b794 48bd 4633 91bd
000001c0: 22be 12be 43fa 69bd 2f4e 93bd c81d cc3d
000001d0: 9f4c a7bd cba1 c3bd ca92 f8bd 9b48 e3bd
000001e0: c73b 183d 31fc 923d 6211 32bd b2b7 de3d
000001f0: 9089 de3a fdcc 8f3d 50a7 6a3d aa65 363d
00000200: 7381 b3bc 951f 7b3c d355 033d f6df d7bc
00000210: fdf8 ccbc a912 c63c 39f5 19bd 0287 f73c
00000220: 01ab b6bb 3439 4ebd 7460 ccbd f0e1 98bd
00000230: 7ab9 033d a6de 9e3d 5a78 193e 333a d83d
00000240: ceaf 69bd 715a 18bd 7e17 f03c 4bfd d9bc
00000250: af62 8d3d 827b 9b3c 0154 56bc 5cdc 133d
00000260: f8e6 dfbd e1d3 09bd 47a9 e43d ccf7 e0bc
00000270: ede6 d73d d3bd 293c 3aa7 27bd 03d0 10be
00000280: 9632 533b a06a 063e 646d ee3c 7172 633d
00000290: 762b cd3c 9763 43bd b55b 31bd 4f80 02be
000002a0: 9d30 d9bd b06f 9bbd 8afb 003e 8e72 02be
000002b0: c3f2 c3bd 1277 04bd 39f1 053d 7d58 cc3d
000002c0: 16b3 2f3d c850 efbd fd2e d7bd d507 c53d
000002d0: 621a 44bd 264a 30bd d363 71bd df63 09bd
000002e0: a013 1bbe e69a eebd e611 143c 7125 d9bc
000002f0: 0b48 b2bd 2ce8 c3bd b689 9ebd 188c 15bd
00000300: 0c69 b9bd 5cf6 19be 349f bbbc 0044 19bd
00000310: f132 94bd c453 99bd 58eb f6bd 3a73 a3bb
00000320: 11b0 ecbd 6c8c 6c3d e8de c63d 2992 283c
00000330: cd68 e83b 46d1 11bd a56f d03d b6c4 40bd
00000340: 7b48 1a3d 258c 88bd 5550 6a3d 983a 013e
00000350: 177e 97bd 47fd 013d 90d7 23be 1497 2b3d
00000360: 76e9 a93d 52d7 743d 5e62 393e b04f d63d
00000370: e9a0 3fbd 5ed9 9bbc 12bb 3ebd a5f1 a9bd
00000380: 1b1f bcbc 1dae d73d 1d53 a6bd c2cb e1bd
00000390: 6cc4 333e cfcf 24be b8bc d33c f376 e2bd
000003a0: 1b3b 1abd ebf2 183e ed3f 9e3d 2182 a8bd
000003b0: ae34 85ba 3ce1 103d b22d c9bd ef0b 95bd
000003c0: 7d44 a4bd bb55 b9bd 5916 bebd bb64 c63d
000003d0: a951 1c3e 4943 aabc ed2a 733a 6bbd e2bc
000003e0: 9e9c abbd a924 6bbd 9673 5fbd d066 14be
000003f0: d22d a93d d8ba 313d 2bbf b53d 383c 29be
0.039959576 0.083791256 0.0097026955 0.008135791 -0.10460692 0.06501307 -0.06682968 0.008619758
0.054690372 -0.036277156 0.038688418 -0.0013856117 -0.12935741 -0.08609942 0.040734332 0.08140281
-0.033637073 0.050385788 0.02454427 0.038800493 -0.024201022 0.12502016 0.026187811 -0.039297394
0.002714314 -0.029791309 0.05556126 -0.07308499 -0.054690078 -0.04578371 -0.095827594 -0.008585858
-0.08119343 -0.091255866 -0.041106656 -0.008113959 -0.05621522 0.040321466 0.06621065 -0.06878278
0.0847788 -0.040826887 -0.09640147 -0.10082929 0.037726823 -0.013479484 -0.056664065 0.032389097
0.04415794 -0.10291695 0.11043147 -0.04228609 0.15898435 -0.06792105 -0.09214387 0.007773202
0.09368749 -0.08260823 -0.12965259 -0.029579375 -0.10526976 0.09172183 -0.030408101 0.00022288044
-0.025494779 0.049786836 -0.13058546 -0.024901036 0.06956542 0.015619336 0.0758025 -0.13855948
-0.060213782 -0.032082673 0.090031944 0.12978879 -0.08328234 -0.00026831063 0.10650036 0.048643567
0.09125537 0.034492478 -0.14000855 -0.06523457 0.020698605 -0.118002914 0.12784353 -0.001021387
-0.08805859 -0.038647976 -0.13891564 0.049653154 -0.007954807 0.11940886 -0.08427479 0.019446047
-0.13399681 0.0019836442 -0.087799504 -0.12824671 -0.12464494 -0.1232904 -0.09988411 -0.0019359129
0.06047358 -0.018839227 0.119463734 -0.1343864 0.030670226 -0.04602168 -0.04896995 -0.07089858
-0.14330342 -0.057123434 -0.07192647 0.09966618 -0.08168911 -0.09552344 -0.12137373 -0.11097833
0.037166383 0.07177008 -0.04347361 0.10874881 0.0016978253 0.0702152 0.057288468 0.04453055
-0.021912312 0.015327354 0.03206427 -0.02635191 -0.02502107 0.02417882 -0.03758738 0.030215744
-0.0055745845 -0.050347522 -0.099793345 -0.07464969 0.032159306 0.077573106 0.14987317 0.105579756
-0.057052426 -0.037195627 0.029308077 -0.026610037 0.06903588 0.018979792 -0.0130815515 0.036098823
-0.10932726 -0.03364933 0.111650996 -0.027461909 0.105420925 0.010360199 -0.040930964 -0.1414185
0.0032226196 0.13126612 0.029104896 0.05552906 0.025045138 -0.0477024 -0.04330035 -0.12744258
-0.106049754 -0.07589662 0.12595955 -0.12739012 -0.095677875 -0.032340117 0.03270075 0.09977815
0.0428954 -0.1168533 -0.10507009 0.096206345 -0.047876723 -0.043039463 -0.05893309 -0.03354251
-0.15144205 -0.11650638 0.00903747 -0.026507111 -0.08705147 -0.09565768 -0.0774111 -0.036510557
-0.09053239 -0.15035385 -0.022903062 -0.037418365 -0.07236279 -0.0748668 -0.12056607 -0.0049881013
-0.115570195 0.057751104 0.09710485 0.010288754 0.0070925714 -0.03559997 0.101775445 -0.0470626
0.03766678 -0.066673554 0.057205517 0.12620008 -0.073970966 0.031735685 -0.160002 0.041892126
0.08296482 0.059775658 0.1810393 0.10464418 -0.046784315 -0.019024547 -0.046565123 -0.08298043
-0.022964051 0.10531256 -0.08121321 -0.11025192 0.17555398 -0.16094898 0.025846824 -0.11057844
-0.037654024 0.14936416 0.077270366 -0.08227945 -0.0010162794 0.03537105 -0.09823169 -0.07277667
-0.080208756 -0.09049555 -0.09281606 0.096871816 0.15265526 -0.020784037 0.0009276111 -0.027678212
-0.08379482 -0.05740801 -0.05455359 -0.14492345 0.08260693 0.04339108 0.08874353 -0.16526878
