lexicons/2.lexicon.ovr+dev/model.pth (torch, 91448 bytes, 1 tensors)

weight f4 [15, 1500]
00000000: 2bff a73d 7ad9 b8bd 167e da3d a768 8cbd
00000010: 7b58 53be 238b 443c 07d6 a13d f5b4 ecbc
00000020: 13e9 f23d e89f 813b 6425 eb3d aa63 4ebe
00000030: 6675 73be 01fc 9ebe 248f 26bd 0710 f43b
00000040: 64ee e63d e881 823d a21a 0f3e 99aa 533d
00000050: 4bf7 403d 92aa 99bd e8c7 bb3d cd6e 87be
00000060: 0055 88bd 5f63 633e 24c0 e7bd 7880 cf3c
00000070: 1623 9abc 94dd 07be 08b2 65bd 4850 68bd
00000080: 93ba d2bd 99bb 66bd 30c8 edbc 5dca f2bd
00000090: 1ef9 593b 8dda 983d 71a8 313b b568 8ebc
000000a0: 122c b13d 0e40 813d c6a3 c0bd 37ec cfbd
000000b0: c13f aabd 22d8 55be c2ea 2b3d ad92 56bd
000000c0: 5051 21be 1561 37be 45ce 5b3e 9af8 5dbe
000000d0: 5bd8 163e 1bfb 09be db13 15be 8f01 04bc
000000e0: a9df 49be 24aa 42bd d187 1ebe ecf3 a53d
000000f0: edb7 0f3e e994 373d 30d4 32be d872 cc3e
00000100: 65b8 6a3d 86c8 fc3d 4e85 5fbd eaf7 93be
00000110: f042 253e 0206 a33e 1bf9 5c3d 12de 95be
00000120: c970 183e 1e24 aa3c aab9 aabe 989e e7be
00000130: 3794 c8be 2643 8cbd 7b18 61be f512 043f
00000140: a31d 4e3c 339b ab3e a585 29be 274a 953d
00000150: 90d0 07be 5162 a5bd 8074 0f3d e150 7d3e
00000160: 91f3 edbc 9a0f 64be c612 263e 9cf8 933d
00000170: 090e f1bd 9708 e6bd c738 f8bd b193 03bf
00000180: bd39 983d 7639 81be 61a9 94be 2763 0c3e
00000190: bfff 0f3c 7826 49be 4d10 60bd 0eea 233d
000001a0: e1e6 72bd 5024 003e 13ec 663c 6f19 873e
000001b0: 24ea 283e 5981 84bd 8087 693e daec 493d
000001c0: 1a54 e7be ac7b 6cbe f2c0 493d 34b7 8fbe
000001d0: d398 f0be 107b 6fbd 2791 2a3e ecfd 0cbd
000001e0: bc5e 0bbe 07a0 0ebe 59c5 1dbe e4d2 c3bd
000001f0: bb6b 25bd e3d9 c33d e085 003e ee4f d1bd
00000200: 258c 9abd 6e04 e4be 3049 e2bd ac2a 91be
00000210: 3ac9 8abe 3054 933e d5b7 dabd 3436 09bc
00000220: 44fd 1f3e 3d24 80be d05f 863b 0dc5 19be
00000230: 9e07 18bc 4feb 493e adc7 dd3c 662a 6ebd
00000240: 06cf c83c d0dd a9bd 185c e03e 018b 113e
00000250: 621f 033e 3821 8ebe 497a bfbe c0d7 823d
00000260: 34db 8d3d 39ef 18be 2aa4 d13b 8c85 24bd
00000270: c982 b03d 3f88 e0be 50e7 38bd 4fb6 a3bd
00000280: 864f 17be 0b4a adbd 4d32 a3bd f9ed f93d
00000290: 825c e53d 9fca 843d 2b58 15be 118c 903c
000002a0: e881 8bbe fb46 7a3c f6d7 1ebd 3b6d 9abe
000002b0: 75ac 333e cb43 003e 17b4 03be fdb5 2eba
000002c0: 47c2 153f 35e6 37be d8de 9c3d fcc4 abbd
000002d0: 310f 933d 658f 07be 9c1a 023e 5e3e e0bd
000002e0: 4f91 9c3d fd00 20be eace 5a3d 0d51 58be
000002f0: 3982 acbd 3502 e0bd aac3 01be 778e f2be
00000300: 16c7 06be 6b83 49be 7d4b 8f3e 5c2c f63d
00000310: cf00 babd efee 2fbd 5d4d 13be d91e b73d
00000320: 62b8 513e e171 c73c 0008 6e3e 2cd2 8abe
00000330: 5486 92be 4235 443f 37e1 8cbd c4a2 013e
00000340: e211 d53e fa43 783e f837 35bb caa0 473e
00000350: ca93 7c3c 045e a63e e6ba 243e ed63 153d
00000360: 7600 8bbe bc8c 01be 2289 723c 09ec 083e
00000370: 757d 49be 3ef1 82bc cb7b 5a3b 1bdb 0bbf
00000380: 0532 913b 7ad7 743e 9cd4 24bf f89a aabe
00000390: 2b38 ff3d 74b0 2c3d 3006 5cbe e5f7 c7bd
000003a0: 2a94 62bf ae00 00bb 6ef8 ecbd f099 acbe
000003b0: ada1 313d a128 1ebd c5aa e1bd 3509 d13c
000003c0: 08ee da3d ee5f c5be eb71 8dbe 3af1 c9be
000003d0: 2519 053e a7f1 1abe 0794 153e 7a47 863e
000003e0: b525 9c3e 839e eb3e 5998 cb3e 3bf4 bebc
000003f0: e40c 193c 4997 213e ff7c 3ebe b628 c73e
0.08202966 -0.09025855 0.1066858 -0.06855898 -0.20639221 0.011996063 0.079021506 -0.02889488
0.11860862 0.00395583 0.11481741 -0.20155206 -0.23775253 -0.3105164 -0.040663853 0.0074481997
0.11275938 0.06372434 0.13975003 0.051676366 0.047110837 -0.07503237 0.091689885 -0.26451722
-0.066568375 0.22205876 -0.11315945 0.025329813 -0.018815558 -0.13268119 -0.056077987 -0.056717187
-0.102894925 -0.05633125 -0.02902612 -0.11855004 0.0033260058 0.0746356 0.0027108456 -0.017383913
0.08650984 0.063110456 -0.09406237 -0.10152476 -0.08312941 -0.2088323 0.04197193 -0.052385975
-0.15753675 -0.17908128 0.21465404 -0.21676865 0.1473097 -0.13474695 -0.14558356 -0.008057012
-0.19714226 -0.04752554 -0.15481497 0.08103165 0.14035006 0.044819746 -0.17463756 0.3993137
0.05730476 0.12342934 -0.05457049 -0.2890008 0.16138816 0.3184052 0.053948503 -0.2927099
0.14886774 0.020769175 -0.33344775 -0.45238185 -0.3917558 -0.06848745 -0.21981995 0.51591426
0.012580308 0.33516845 -0.16554888 0.07289534 -0.13263154 -0.08075393 0.035023212 0.24737884
-0.029046806 -0.22271577 0.16218099 0.07225153 -0.11770255 -0.11232107 -0.121202044 -0.51397234
0.07432888 -0.25239152 -0.29035476 0.13709699 0.008789002 -0.19643581 -0.054703046 0.040018134
-0.059302215 0.12513852 0.01409437 0.26386592 0.16495568 -0.064699836 0.22805595 0.049298145
-0.45181352 -0.23094052 0.049256273 -0.2806946 -0.46991596 -0.05846697 0.16656934 -0.034421846
-0.13610357 -0.13928233 -0.15407313 -0.095617086 -0.040385943 0.09563043 0.1255107 -0.102203235
-0.07546262 -0.4453463 -0.11049116 -0.2835287 -0.2710665 0.28775167 -0.106795944 -0.008374739
0.15623957 -0.25027648 0.004100777 -0.15016575 -0.00927916 0.1971867 0.027072752 -0.058145903
0.024512779 -0.082942605 0.43820262 0.14213182 0.1280494 -0.2775972 -0.37397984 0.06388807
0.06926575 -0.14935006 0.0063977437 -0.040166423 0.08618695 -0.43853948 -0.04514247 -0.07993757
-0.1477643 -0.08461388 -0.079685785 0.12203593 0.11199285 0.064839594 -0.14584415 0.017644914
-0.27247548 0.015275712 -0.038780175 -0.3016146 0.17546256 0.12525861 -0.12861668 -0.00066646916
0.5849957 -0.17958911 0.076596916 -0.08387181 0.07180632 -0.13238294 0.12705463 -0.109493956
0.07644903 -0.15625377 0.053419985 -0.21124668 -0.084232755 -0.10937921 -0.12672296 -0.47374317
-0.13161883 -0.19679038 0.2798728 0.1202018 -0.090821855 -0.042952474 -0.1438498 0.089414306
0.20480493 0.024346294 0.2324524 -0.27113473 -0.2861811 0.76643765 -0.06878894 0.12659746
0.41615206 0.24244681 -0.0027651768 0.1949493 0.015416095 0.32493603 0.16086921 0.03647225
-0.2714879 -0.12651342 0.014803203 0.1337129 -0.19676764 -0.015984174 0.0033337947 -0.54631203
0.0044310116 0.23910323 -0.64386916 -0.33321357 0.12461885 0.042160466 -0.21486735 -0.09764079
-0.8850733 -0.0019531655 -0.11570822 -0.33711195 0.043367077 -0.038612965 -0.110189 0.025517086
0.10689932 -0.3854975 -0.27625975 -0.39441854 0.12997873 -0.15131246 0.14607249 0.26226407
0.30497518 0.46019372 0.3976467 -0.023309818 0.009341452 0.15780367 -0.1860237 0.38898247
