output/lexicon/2f.holdout_full/logreg+kb/deathpenalty/model.pth (torch, 301688 bytes, 1 tensors)

weight f4 [15, 5000]
0.11260432 0.3727966 0.018994812 0.11321722 -0.098196834 -0.008904308 -0.17729944 0.33005214
-0.056651168 0.04335824 -0.15536036 -1.5605355e-06 0.086052865 0.058209017 0.15230486 0.0078430865
0.021200633 0.009168115 -1.8171241e-06 0.03541579 0.32388368 -4.080456e-06 -0.18102829 0.15707514
-0.21132493 -0.0031750565 -0.20214261 0.042276066 0.05353692 -0.21405786 0.022888007 -9.980381e-06
-0.21509103 0.1418318 -0.3067747 0.06346158 1.0317469e-05 0.012984211 -0.0015603589 -0.0053216764
-0.17062569 0.1432788 -0.1390265 -0.00998089 -0.102145135 -0.029989583 -0.36162847 -4.9040386e-06
-0.031540573 0.037926048 0.03508076 0.10265228 -0.17524299 6.140595e-06 -0.019982416 0.06093947
-0.0023283674 0.053417068 0.023072816 0.052051585 -0.11312817 -0.012479606 -0.067159496 -0.05059635
0.072571054 -0.07134417 -0.3553178 -0.0754315 -0.14253527 -0.10426039 0.30882192 0.041033104
0.09212748 -0.17667714 0.15402575 2.6902499e-06 -0.005276481 0.017863102 0.03438342 -0.05104693
0.04071171 0.11393511 -0.012998668 6.7812402e-06 -0.15703277 0.05385809 -0.03373137 0.042860024
0.043761116 0.06693296 -0.16937882 4.215854e-06 0.026549747 1.6975297e-05 0.05910051 -0.09738061
0.11458688 -0.11045378 -6.716333e-06 -0.060733583 -0.11510927 4.193267e-05 0.017924173 0.0019415165
-4.875908e-06 0.036568835 0.04805526 0.104344964 -0.11488953 -0.13584484 2.568239e-07 0.23499085
0.15222117 -0.103311814 0.041929565 0.11973189 0.35208994 0.14231747 0.059641376 0.012539508
0.051430855 0.07489146 -0.13059685 -0.02647474 -0.0116761895 3.8541884e-06 0.0003324182 -2.004202e-06
1.3428436e-05 0.009028428 -0.04032305 -6.2991994e-06 -0.34538692 -1.0615531e-05 0.050973974 0.0028028018
0.11244475 -0.023171632 0.62539005 0.0803319 0.09414178 -0.07980708 0.0685764 -0.1632446
-0.0036238304 -1.4038815e-06 5.417172e-06 0.15115587 -0.053236876 -0.07841877 -0.1340992 1.4085495e-06
-0.023232182 -0.06980946 -0.15535551 -0.029057784 0.0056753014 7.887325e-06 0.006107333 0.047971472
0.011572623 -6.949332e-06 -0.22169606 -0.087954074 0.075955145 -7.669888e-06 -0.086050965 -9.938151e-06
0.0055066333 0.02695344 0.02297153 0.08547721 0.0014437833 1.2165345e-05 -0.033998325 0.16338769
0.02760844 -0.2644734 0.45393398 0.020949949 -5.8355586e-06 -0.013189595 1.4199511e-05 -0.037192225
0.059244208 0.106649645 -0.024304925 -0.092020586 -0.1880217 -1.1475507e-06 -0.025759604 -0.22602904
-0.026382903 -0.21415168 -0.12792255 3.762146e-06 -0.052484073 0.07570467 9.834367e-06 -0.13701138
-0.039658718 -0.10113659 -0.15442948 0.011334202 -0.12800182 -3.5648413e-06 0.18979922 -3.832413e-06
-6.159778e-06 -0.08032215 0.59440124 0.13886318 0.051889136 -8.189475e-06 5.687561e-06 -9.189821e-06
6.2006998e-06 -0.052132446 -4.3150285e-06 6.2141344e-06 8.552055e-06 0.048578516 0.6811063 0.028602486
-0.18669333 -0.1711228 0.15187259 -0.06743138 1.0122106e-05 0.028174374 0.027326846 0.15712674
-0.052046545 0.06843964 0.02793259 -0.0147836795 -0.0011449247 -0.13525279 -0.19124085 -0.056564026
-7.792837e-05 -0.0764839 4.262809e-06 0.060924023 0.019344158 0.85278904 1.258253e-05 0.049087405
-0.032391705 -3.461469e-06 -0.2608019 9.200244e-06 0.10291299 0.039371397 -0.18807596 0.010006389
00000000: 189d e63d 32df be3e 029b 9b3c 6ede e73d
00000010: 6c1b c9bd 60e3 11bc fc8d 35be 98fc a83e
00000020: 0e0b 68bd 6998 313d c916 1fbe 9773 d1b5
00000030: 7c3c b03d 946c 6e3d cef5 1b3e 4a80 003c
00000040: f3ac ad3c dd35 163c e9e3 f3b5 2610 113d
00000050: 15d4 a53e daea 88b6 7b5f 39be 4ed8 203e
00000060: 9065 58be 9c14 50bb 79fe 4ebe ab29 2d3d
00000070: 8849 5b3d fc31 5bbe a17f bb3c 6971 27b7
00000080: d340 5cbe 5b3c 113e 9311 9dbe 25f8 813d
00000090: 3119 2d37 babb 543c f584 ccba 7561 aebb
000000a0: 80b8 2ebe aeb7 123e f65c 0ebe e386 23bc
000000b0: 7831 d1bd b7ac f5bc 5e27 b9be 5f8d a4b6
000000c0: b030 01bd 5858 1b3d d8b0 0f3d 5c3b d23d
000000d0: e672 33be 4f0b ce36 2ab2 a3bc aa9b 793d
000000e0: 8697 18bb dbcb 5a3d 3403 bd3c 0b34 553d
000000f0: beaf e7bd 4377 4cbc eb8a 89bd 1e3e 4fbd
00000100: 22a0 943d e41c 92bd 37ec b5be d57b 9abd
00000110: c4f4 11be 7986 d5bd e81d 9e3e 5412 283d
00000120: 55ad bc3d daea 34be edb8 1d3e 248a 3436
00000130: 55e6 acbb a455 923c a1d5 0c3d 9616 51bd
00000140: 52c1 263d d056 e93d 5df8 54bc 698a e336
00000150: 33cd 20be 4d9a 5c3d e829 0abd fe8d 2f3d
00000160: db3e 333d 2614 893d a471 2dbe e975 8d36
00000170: db7e d93c 2c66 8e37 6013 723d 7c6f c7bd
00000180: 87ac ea3d 9735 e2bd dc5c e1b6 c7c3 78bd
00000190: 69be ebbd dde0 2f38 b7d5 923c 7c7a fe3a
000001a0: bb9b a3b6 34c9 153d 98d5 443d d0b2 d53d
000001b0: 344b ebbd e91a 0bbe 9ce1 8934 71a1 703e
000001c0: dedf 1b3e 2595 d3bd 56be 2b3d fe35 f53d
000001d0: 2245 b43e acbb 113e 844a 743d 8272 4d3c
000001e0: 29a9 523d b260 993d 2ebb 05be 8ee1 d8bc
000001f0: 7d4d 3fbc 3a53 8136 6a48 ae39 ee7f 06b6
00000200: b24a 6137 f9eb 133c c829 25bd b65d d3b6
00000210: 8ed6 b0be 5c19 32b7 16ca 503d 36af 373b
00000220: 6f49 e63d 6fd2 bdbc 9019 203f 0d85 a43d
00000230: 68cd c03d e571 a3bd c971 8c3d 9829 27be
00000240: c97d 6dbb 006d bcb5 27c5 b536 9bc8 1a3e
00000250: e90e 5abd 059a a0bd 4d51 09be 640d bd35
00000260: 6b51 bebc 43f8 8ebd 8415 1fbe 970a eebc
00000270: e1f7 b93b ce53 0437 0620 c83b bc7d 443d
00000280: 199b 3d3c 4f2e e9b6 4b04 63be 4421 b4bd
00000290: 5f8e 9b3d ebad 00b7 7d3b b0bd 09bc 26b7
000002a0: fd70 b43b 76cd dc3c ca2e bc3c ad0e af3d
000002b0: 543d bd3a c219 4c37 d441 0bbd 1a4f 273e
000002c0: 182b e23c 0f69 87be 096a e83e 3a9f ab3c
000002d0: 11cf c3b6 2c19 58bc 6f3a 6e37 e056 18bd
000002e0: 0eaa 723d 216b da3d 1f1b c7bc 4a75 bcbd
000002f0: c388 40be 8b05 9ab5 ce05 d3bc 2874 67be
00000300: f520 d8bc 944a 5bbe 21fe 02be 2d79 7c36
00000310: 8af9 56bd 0d0b 9b3d 49fe 2437 b64c 0cbe
00000320: 2e71 22bd b320 cfbd c322 1ebe 17b3 393c
00000330: e912 03be 823b 6fb6 ba5a 423e 2d98 80b6
00000340: 17b0 ceb6 f07f a4bd ae2a 183f 2632 0e3e
00000350: b489 543d 8765 09b7 c7d7 be36 fb2d 1ab7
00000360: 9b0f d036 d588 55bd d0c9 90b6 0283 d036
00000370: cc7a 0f37 44fa 463d fc5c 2e3f c34f ea3c
00000380: 892c 3fbe d13a 2fbe 7d84 1b3e 7719 8abd
00000390: 1dd2 2937 f2cd e63c 8ddc df3c d5e5 203e
000003a0: c22e 55bd 152a 8c3d e3d2 e43c 3f37 72bc
000003b0: 4c11 96ba b57f 0abe a4d4 43be aeaf 67bd
000003c0: 7a6d a3b8 97a3 9cbd 4009 8f36 788b 793d
000003d0: a477 9e3c 6250 5a3f 8e19 5337 e00f 493d
000003e0: 2aad 04bd 964b 68b6 d487 85be bf5a 1a37
000003f0: 0cc4 d23d e743 213d fc96 40be d6f1 233c
