lexicons/3.lexicon.ovr/3/holdout_climate/model.pth (torch, 121857 bytes, 2 tensors)

weight f4 [15, 2000]
-0.027646525 -0.025402328 -0.027080469 -0.03853588 -0.050863203 -0.004053933 -0.05266363 -0.03966927
-0.014962719 -0.040914122 -0.028897477 -0.06349511 -0.062795065 -0.059762828 -0.032485086 -0.019388463
-0.039935686 -0.013036328 -0.019965453 -0.018615622 -0.048833106 -0.02556933 -0.044680443 -0.04405392
0.036125273 -0.04395957 -0.033104103 -0.044099797 -0.041710407 -0.059695635 -0.051514123 -0.033113144
-0.056927163 -0.047330104 -0.04083065 -0.03571656 -0.051721532 -0.018170727 -0.024475142 -0.03573508
-0.013881403 -0.041452743 -0.06445593 -0.04980637 -0.018255627 -0.04238833 -0.04377988 -0.034801565
-0.02005339 -0.06741568 -0.011187369 -0.039208606 -0.050208807 -0.05500939 -0.050140474 -0.04295911
-0.009578779 -0.0611932 -0.068443954 -0.051502787 -0.055993166 -0.005708209 -0.040261596 -0.0068448833
-0.037530567 -0.029805526 -0.064086854 -0.04995204 -0.015056928 -0.027480522 -0.004914754 -0.07007792
-0.04894309 -0.043523494 -0.01546267 0.119125165 -0.048243724 0.012152274 -0.003673899 -0.020952998
-0.021333158 -0.018133469 -0.064971134 -0.04504827 -0.029028246 -0.06593078 0.12809734 -0.028947005
-0.05465232 -0.042125512 -0.044411656 -0.0050499816 -0.018684506 -0.003356086 -0.056222025 -0.02419111
-0.07516802 -0.03917451 -0.06421535 -0.06798438 -0.06871838 -0.072768085 -0.05415154 -0.028641853
-0.01728467 -0.026338086 0.04184316 -0.06226093 -0.037282333 -0.033124257 -0.02612767 -0.053028937
-0.061790787 -0.05153059 -0.056089584 0.0054605505 -0.04473154 -0.062387485 -0.0421899 -0.059344146
-0.00969585 -0.029344238 -0.022247339 0.041290883 -0.038829096 -0.016093336 -0.033708755 -0.008621301
-0.047301047 -0.033262197 -0.06097612 -0.04354018 -0.05168904 0.005532568 -0.04105511 -0.028103381
-0.035551786 -0.04354203 -0.049525533 -0.055534836 -0.022220287 -0.003315046 0.15936565 -0.023160247
-0.043092802 -0.037876416 -0.034609206 -0.039114527 0.000514254 -0.028821638 -0.040226527 -0.02808891
-0.07069878 -0.044186253 0.10104943 -0.04977578 0.008962756 -0.054275673 -0.032356024 -0.0618801
-0.029996442 0.10596212 -0.01816651 -0.0075814435 -0.032418296 -0.049565963 -0.044196524 -0.07183973
-0.060131148 -0.044510394 0.011515365 -0.06585722 -0.051222384 -0.026128491 -0.024968084 -0.030779457
-0.015976276 -0.07172114 -0.05981965 -0.010340627 -0.04222972 -0.06197223 -0.043523517 -0.037247844
-0.07100596 -0.0714022 -0.03451536 -0.042099643 -0.046495393 -0.06539513 -0.067493424 -0.035700314
-0.05154403 -0.07415091 -0.039586615 -0.032195214 -0.055603664 -0.05637436 -0.046923686 -0.033339225
-0.060843986 -0.025321575 0.025575833 -0.004446291 -0.0389082 -0.048081495 0.05590532 -0.046073783
-0.052089185 -0.043420564 -0.004120438 0.14062557 -0.03886813 -0.0322201 -0.06471791 -0.027588159
-0.0143871065 -0.0170911 0.1861794 -0.057060067 -0.036935054 -0.057373535 -0.04465568 -0.040783133
-0.023499496 -0.007203307 -0.05625116 -0.06635177 -0.011607821 -0.06503611 -0.030561268 -0.07903272
-0.04586647 0.0023630392 0.024368284 -0.0635727 -0.035956748 -0.038978428 -0.056033276 -0.036393978
-0.049137186 -0.05216022 -0.058080103 0.011994611 0.15825477 -0.033825714 -0.023361493 -0.031656582
-0.061858874 -0.03760998 -0.03333083 -0.08318555 -0.0057724025 -0.054627318 -0.01595168 -0.10066954
00000000: f77a e2bc 8b18 d0bc dcd7 ddbc cdd7 1dbd
00000010: ef55 50bd dbd6 84bb d2b5 57bd 3f7c 22bd
00000020: 3126 75bc 9195 27bd 67ba ecbc b909 82bd
00000030: b39a 80bd dec9 74bd 150f 05bd 8ed4 9ebc
00000040: 9a93 23bd 5396 55bc 978e a3bc ca7f 98bc
00000050: 3905 48bd c676 d1bc d702 37bd e271 34bd
00000060: 18f8 133d f30e 34bd 2b98 07bd fda1 34bd
00000070: 88d8 2abd 6983 74bd 7900 53bd a6a1 07bd
00000080: 752c 69bd 36dd 41bd 0a3e 27bd 874b 12bd
00000090: f5d9 53bd c7da 94bc 1880 c8bc f25e 12bd
000000a0: d36e 63bc 5aca 29bd 7801 84bd c401 4cbd
000000b0: d38c 95bc 639f 2dbd 8852 33bd 168c 0ebd
000000c0: 0247 a4bc 3b11 8abd 3a4b 37bc 3499 20bd
000000d0: c0a7 4dbd 8751 61bd 1960 4dbd e4f5 2fbd
000000e0: 50f0 1cbc b9a5 7abd 582c 8cbd 96f4 52bd
000000f0: 1759 65bd ed0b bbbb 58e9 24bd 0b4b e0bb
00000100: a7b9 19bd b82a f4bc f83f 83bd 839a 4cbd
00000110: 55b1 76bc d51e e1bc f20b a1bb 0385 8fbd
00000120: 8d78 48bd b145 32bd 2357 7dbc e5f7 f33d
00000130: 369b 45bd 551a 473c ccc5 70bb 9fa5 abbc
00000140: e0c2 aebc a48c 94bc 960f 85bd 8984 38bd
00000150: a5cc edbc b706 87bd f32b 033e 4522 edbc
00000160: 1cdb 5fbd cd8b 2cbd ffe8 35bd 517a a5bb
00000170: 4010 99bc c8f1 5bbb 1149 66bd 6f2c c6bc
00000180: b1f1 99bd 7375 20bd 5683 83bd 653b 8bbd
00000190: 39bc 8cbd 6f07 95bd 01ce 5dbd 52a2 eabc
000001a0: 9598 8dbc f8c2 d7bc bc63 2b3d 5105 7fbd
000001b0: 5cb5 18bd 4dad 07bd b209 d6bc df34 59bd
000001c0: 5618 7dbd bd11 53bd 31be 65bd 6bee b23b
000001d0: 6b38 37bd 058a 7fbd 51cf 2cbd d912 73bd
000001e0: 58db 1ebc 5463 f0bc 0d40 b6bc a120 293d
000001f0: 420b 1fbd 2cd6 83bc 3112 0abd 5b40 0dbc
00000200: bebe 41bd f13d 08bd 19c2 79bd 3057 32bd
00000210: e3b7 53bd 8b4a b53b 6729 28bd 1039 e6bc
00000220: c09e 11bd 2159 32bd 49db 4abd 7f78 63bd
00000230: 5207 b6bc 3e41 59bb c030 233e 8fba bdbc
00000240: 1482 30bd 4d24 1bbd 62c2 0dbd 8e36 20bd
00000250: 00cf 063a 5b1b ecbc 92c4 24bd b71a e6bc
00000260: 86ca 90bd a5fc 34bd 01f3 ce3d b0e1 4bbd
00000270: 86d8 123c 2b50 5ebd c087 04bd fd75 7dbd
00000280: 19bb f5bc ab02 d93d efd1 94bc c26d f8bb
00000290: 0cc9 04bd ae05 4bbd 6a07 35bd b520 93bd
000002a0: 144c 76bd 8850 36bd f1aa 3c3c 26e0 86bd
000002b0: 90ce 51bd 6b0b d6bc de89 ccbc 3325 fcbc
000002c0: aee0 82bc 88e2 92bd 7305 75bd bc6b 29bc
000002d0: 12f9 2cbd 98d6 7dbd b745 32bd 3291 18bd
000002e0: 936b 91bd 513b 92bd fa5f 0dbd ad70 2cbd
000002f0: f471 3ebd e2ed 85bd fe39 8abd 7e3a 12bd
00000300: d51f 53bd 6fdc 97bd 9325 22bd 21df 03bd
00000310: abc0 63bd cde8 66bd 0d33 40bd b68e 08bd
00000320: 8b37 79bd 316f cfbc 6984 d13c 31b2 91bb
00000330: 345e 1fbd 1af1 44bd fafc 643d ddb7 3cbd
00000340: 785b 55bd c3d9 31bd bd04 87bb 2600 103e
00000350: 3034 1fbd 39f9 03bd d38a 84bd 9000 e2bc
00000360: e6b7 6bbc a202 8cbc d0a5 3e3e d1b7 69bd
00000370: 3649 17bd 8300 6bbd e0e8 36bd 370c 27bd
00000380: 0482 c0bc b809 ecbb 9e67 66bd 70e3 87bd
00000390: bb2e 3ebc a731 85bd a05b fabc e8db a1bd
000003a0: 7bde 3bbd 38dd 1a3b ff9f c73c 6732 82bd
000003b0: 6247 13bd d8a7 1fbd 2683 65bd da11 15bd
000003c0: 1344 49bd f4a5 55bd 67e5 6dbd 0b85 443c
000003d0: 8a0d 223e d58c 0abd 9a60 bfbc 55aa 01bd
000003e0: bb5f 7dbd ec0c 1abd e985 08bd 305d aabd
000003f0: 6c26 bdbb e5c0 5fbd 19ad 82bc d52b cebd

bias f4 [15]
-0.054820668 -0.053763755 -0.046013854 -0.0504451 -0.06331211 -0.06374335 -0.054184444 -0.05610244
-0.05289692 -0.055130184 -0.04852032 -0.050108463 -0.070424296 -0.04778704 -0.050555903
00000000: a38b 60bd 6237 5cbd 0679 3cbd 859f 4ebd
00000010: c8a9 81bd e08b 82bd 82f0 5dbd accb 65bd
00000020: 71aa 58bd 30d0 61bd 3ebd 46bd 883e 4dbd
00000030: 9d3a 90bd 58bc 43bd b513 4fbd
