lexicons/3.lexicon.ovr/4/holdout_deathpenalty/model.pth (torch, 121857 bytes, 2 tensors)

weight f4 [15, 2000]
0	0xbc9f5c8e	-0.019453313
1	0xbcebb9ee	-0.028775182
2	0xbce6c76e	-0.028171267
3	0xbcd6a1aa	-0.026200134
4	0xbd6d35f9	-0.0579128
5	0xbc0024b7	-0.0078212535
6	0xbc41d6b1	-0.011830972
7	0xbd3214ca	-0.043476857
8	0xbd21aa0b	-0.039468806
9	0xbcfb62ab	-0.030686697
10	0xbd707593	-0.058705878
11	0xbd6c3b0e	-0.057673506
12	0xbd6e0736	-0.058112346
13	0xbd0eac2a	-0.034832157
14	0xbd039809	-0.032127414
15	0xbcb63aea	-0.02224489
16	0xbd1b2f90	-0.037887156
17	0xbc47f100	-0.012203455
18	0xbc855453	-0.01627556
19	0xbc9eea1a	-0.019398738
20	0xbd01e768	-0.031714827
21	0xbd414aed	-0.047190595
22	0xbcea719e	-0.02861863
23	0x3cf1c2e9	0.029511886
24	0xbd5f3718	-0.0544959
25	0xbd06992d	-0.032860924
26	0xbd37bd33	-0.04485817
27	0xbd4cf45b	-0.050037723
28	0xbd3d2a4e	-0.046182923
29	0xbd04d9d1	-0.03243429
30	0xbce6c628	-0.02817066
31	0xbd3065a6	-0.04306569
32	0xbd4137f2	-0.047172494
33	0xbce29edf	-0.027663646
34	0xbb82d90b	-0.0039931587
35	0xbd3fbb00	-0.046809196
36	0xbd1937d7	-0.03740677
37	0xbc861734	-0.016368486
38	0xbd4054df	-0.04695594
39	0xbd725b15	-0.059168894
40	0xbd51f25e	-0.05125653
41	0xbc13dd4c	-0.009024929
42	0xbd3dc343	-0.046328794
43	0xbccf382d	-0.025295341
44	0xbd2d2072	-0.04226727
45	0xbd29617f	-0.041352745
46	0xbcfe8837	-0.031070812
47	0xbd312b05	-0.043253917
48	0xbb62c806	-0.0034604087
49	0xbd16f2c2	-0.036852606
50	0xbc75d7ce	-0.015005065
51	0xbd497d27	-0.04919162
52	0xbd847142	-0.06466915
53	0xbd990ecd	-0.07473526
54	0xbcaa8350	-0.020814568
55	0xbc3aded4	-0.011405665
56	0xbd35a85e	-0.04435002
57	0xbcedf255	-0.029046217
58	0xbd568301	-0.05237103
59	0x3dd35ba2	0.10320212
60	0xbc29b9f5	-0.010359277
61	0xbd136b67	-0.0359911
62	0xbacd2162	-0.0015650208
63	0xbd2bd2f4	-0.041949227
64	0xbd8cd385	-0.06876282
65	0xbbf8cbc7	-0.0075926515
66	0x3e125250	0.14289212
67	0x3b5a1e93	0.0033282384
68	0xbd5c879a	-0.053840257
69	0xbd18a398	-0.03726539
70	0xbd5c898f	-0.053842124
71	0xbd90b849	-0.070663996
72	0xbbe3f8e0	-0.0069571584
73	0xbd3ce0d7	-0.04611286
74	0x3c7a0e3b	0.015262182
75	0xbd57b90d	-0.052666713
76	0xbceab095	-0.028648654
77	0xbd0041be	-0.031312697
78	0xbd5ea68d	-0.054358054
79	0xbd626481	-0.05527163
80	0xbcafb2ec	-0.021447621
81	0xbd0616ec	-0.032736704
82	0xbc2722cb	-0.010201166
83	0xbd7680f9	-0.06018159
84	0xbd135e9e	-0.035978906
85	0xbc2da759	-0.010598981
86	0xbcc65aaa	-0.024213154
87	0xbd01e2f8	-0.031710595
88	0x3ade8a50	0.0016978476
89	0xbd133865	-0.035942454
90	0xbcb704df	-0.02234119
91	0xbc0f3e1f	-0.008742838
92	0xbb81ddf3	-0.003963226
93	0xbc1f93b3	-0.009739804
94	0x3d1b675d	0.03794037
95	0x3b766125	0.0037594524
96	0xbc1a5ec7	-0.009422011
97	0x3b572106	0.003282608
98	0xbc91defc	-0.017806523
99	0xbc823089	-0.015892284
100	0xbd59df5e	-0.053191535
101	0xbcca1e6e	-0.024672713
102	0x3cbf776c	0.023372374
103	0x3d05200b	0.03250126
104	0xbce5ac66	-0.028036308
105	0xbc93d322	-0.018045012
106	0xbd293dd0	-0.041318715
107	0xbccb996d	-0.024853433
108	0xbd136906	-0.03598883
109	0xbc724d3c	-0.014788922
110	0xbd7e573f	-0.062094923
111	0x3df341b6	0.11877768
112	0xbd9fece0	-0.07808852
113	0xbd646f4d	-0.055770207
114	0xbd1a95cd	-0.037740517
115	0xbd2a8b67	-0.04163685
116	0xbc3e8fc7	-0.011630959
117	0xbc63d217	-0.01390507
118	0xbd32f3b1	-0.043689433
119	0xbcb62dbb	-0.022238603
120	0xbd9c6ddd	-0.07638142
121	0xbd24aec5	-0.040205736
122	0xbcd81f72	-0.026382182
123	0xbd69f979	-0.05712268
124	0xbd2d2fee	-0.042282037
125	0xbd929291	-0.071568616
126	0xbd6000a9	-0.05468813
127	0xbd01ddba	-0.031705596
128	0xbad0b4e0	-0.0015923046
129	0xbd7cc46b	-0.061710756
130	0xbca3d079	-0.019996868
131	0xbce34248	-0.027741566
132	0xbd1cc5b3	-0.03827448
133	0xbcbdd675	-0.02317355
134	0xbcffd172	-0.031227801
135	0xbd0008a3	-0.031258237
136	0xbd28f055	-0.041244823
137	0xbd4e6c90	-0.050396502
138	0xbd4ab6b3	-0.04949064
139	0xbd9dd256	-0.07706134
140	0xb6431cab	-2.9073951e-06
141	0xbd8c8103	-0.068605445
142	0xbd34ddc5	-0.04415681
143	0x3e1a6fc6	0.150817
144	0xbd91bb69	-0.07115824
145	0xbd8ad6cd	-0.06779251
146	0xbc802638	-0.015643224
147	0xbd23b631	-0.039968673
148	0xbd6646c1	-0.05621982
149	0xbd274d61	-0.04084528
150	0x3916f4f3	0.00014396365
151	0xbce74d0d	-0.028234983
152	0xbcd7ee18	-0.02635865
153	0x3d2b391e	0.041802518
154	0xbca159c1	-0.019696118
155	0xbd207f02	-0.039183624
156	0xbd8c6c85	-0.06856636
157	0x3ace09a6	0.0015719428
158	0xbd769da9	-0.06020895
159	0xbd11152f	-0.035420593
160	0xbcda8924	-0.026676722
161	0xbd0db66e	-0.034597807
162	0xbd61281c	-0.054969892
163	0xbd22f50b	-0.039784472
164	0xbd348d6a	-0.044080175
165	0xbd00b3f0	-0.0314216
166	0xbc85b094	-0.01631955
167	0xbd012d46	-0.031537317
168	0x3dbf9d83	0.09356215
169	0xbd4605ed	-0.048345495
170	0xbd4f7a86	-0.050653957
171	0xbd232a79	-0.039835427
172	0xbd5aad4e	-0.053387932
173	0xbc33d351	-0.010975675
174	0x3e2dde3a	0.16979304
175	0xbcd5ce88	-0.026099458
176	0x3e08c698	0.13357008
177	0xbcf9ea08	-0.030507103
178	0x3be15870	0.0068769976
179	0xbd7a7e3f	-0.061155554
180	0xbd45d497	-0.048298445
181	0x3d594528	0.05304447
182	0xbcf18e4b	-0.029486796
183	0xbd36a6c9	-0.044592652
184	0xbd7300b9	-0.05932686
185	0xbc89f3a9	-0.016839819
186	0xbd4060be	-0.04696726
187	0xbd4f4765	-0.050605197
188	0xbd69879f	-0.057014104
189	0xbd486908	-0.04892829
190	0xbd01e85c	-0.031715736
191	0xbcdad3b9	-0.026712285
192	0xbd69f49d	-0.057118047
193	0xbc9a4bed	-0.018835032
194	0xbcdf81c0	-0.02728355
195	0xbcae64d0	-0.021288306
196	0x3d097107	0.033555057
197	0xbd2cb5c2	-0.042165525
198	0xbd3c6e22	-0.04600347
199	0xbceac841	-0.028659942
200	0xbd4db620	-0.050222516
201	0xbd18d179	-0.037309144
202	0xbbe1669f	-0.0068786885
203	0xbd87d8cf	-0.0663315
204	0xbd9207c1	-0.07130385
205	0xba40c42d	-0.0007353451
206	0xbd868f96	-0.065703556
207	0xbcbc32bc	-0.02297341
208	0xbd0f47b1	-0.03498048
209	0xbca949c7	-0.020665063
210	0xbd40d63e	-0.047079317
211	0xbd53dcc0	-0.051724195
212	0xbcd6e07a	-0.026230086
213	0xbd3cb8c1	-0.046074633
214	0xbd445626	-0.04793372
215	0xbd08c56b	-0.033391397
216	0xbccdc39a	-0.025117684
217	0x3cdd3184	0.02700115
218	0xbd8362d4	-0.06415334
219	0xbd2ecc73	-0.042675447
220	0xbd6ad4e0	-0.05733192
221	0xbd40a750	-0.04703456
222	0xbd91f583	-0.07126906
223	0xbc8ae864	-0.016956516
224	0xbd1da1d1	-0.0384844
225	0xbd8d04e5	-0.06885699
226	0x3c31c43f	0.010850011
227	0x39ba31db	0.0003551383
228	0xbd389ef3	-0.04507346
229	0xbd0f1caf	-0.034939464
230	0xbcb04b25	-0.021520207
231	0xbd49b1af	-0.049241718
232	0xbd5f8d5b	-0.054578166
233	0xbcd7dea5	-0.026351282
234	0xbd2e1b96	-0.042506777
235	0x3e165c7a	0.14683715
236	0xbdaa05ad	-0.08301864
237	0xbda11a3f	-0.07866334
238	0x3b71ee6a	0.0036915787
239	0xbd91de10	-0.07122433
240	0x3e10358b	0.14082925
241	0xbd809923	-0.062792085
242	0xbd00758f	-0.031362113
243	0xbcd195a4	-0.02558405
244	0xbcd218a4	-0.025646515
245	0x3d968e17	0.0735132
246	0xbcebb856	-0.028774422
247	0xbd44166c	-0.047872946
248	0xbd9e0b46	-0.07716994
249	0xbd40581d	-0.04695903
250	0xbda2bdc5	-0.07946352
251	0x3e22b557	0.15889488
252	0xbc8de7b1	-0.017322393
253	0xbcbee3d6	-0.023302
254	0xbc41a22f	-0.011818453
255	0x3bc63c62	0.0060496787

bias f4 [15]
0	0xbd4f869c	-0.050665483
1	0xbd5c773b	-0.053824645
2	0xbd35e28f	-0.044405516
3	0xbd57f398	-0.052722543
4	0xbd66bb31	-0.056330863
5	0xbd878a7f	-0.06618213
6	0xbd4476b4	-0.047964767
7	0xbd5327fb	-0.0515518
8	0xbd47735f	-0.04869401
9	0xbd48db3c	-0.049037203
10	0xbd38ee9c	-0.04514943
11	0xbd56eb3b	-0.052470427
12	0xbd93ec7a	-0.07222839
13	0xbd584d10	-0.052807868
14	0xbd535fdf	-0.0516051
