lexicons/3.lexicon.multinomial+dev/5/holdout_deathpenalty/model.pth (torch, 121464 bytes, 1 tensors)

weight f4 [15, 2000]
000000 94 32 a5 3d 03 79 b8 3d f1 87 f9 bc e0 f9 3c 3a
       0.08066288 0.09007456 -0.03046033 0.0007208865
000010 6d d6 10 be 34 3b e0 3c d6 6a 8a 3d fe 63 f6 3c
       -0.14144297 0.02737198 0.067586586 0.030076977
000020 41 42 a2 bd b3 3a 34 3d 5c 49 0e be a6 1c 25 be
       -0.07922793 0.044001292 -0.13895172 -0.1612421
000030 dd 11 e6 bd 0c 76 8a bd 2b 3e 8f 3d 75 f5 4a 3c
       -0.11233876 -0.06760797 0.069942795 0.012387623
000040 52 39 95 bd 73 3f 93 3d cb 6e e1 3d df 14 5a 3c
       -0.072863236 0.07189836 0.1100746 0.01331064
000050 90 36 10 3e 69 1b ac bd 5b b0 c3 3b 79 45 92 bd
       0.14083314 -0.084036656 0.005971951 -0.07142157
000060 69 0f e7 bd b1 72 ae 3d 95 a2 f9 bd ad bc c5 bd
       -0.11282236 0.085179694 -0.12189213 -0.09655128
000070 fe 53 c8 bd 0e 58 b3 bd 00 1c 65 bd 9a ce 2d 3d
       -0.09781645 -0.087570295 -0.055934906 0.04243336
000080 cf f6 a5 bd 45 23 2b 3d 9f fc 2b ba f4 c8 9d bd
       -0.08103716 0.041781683 -0.0006560776 -0.077043444
000090 40 83 59 bd 9a e2 da 3c 64 da f5 bc 05 d6 c3 bd
       -0.053103685 0.02671938 -0.030011363 -0.09562305
0000a0 8c 0f aa bd a5 d5 77 bd 25 79 eb bd 93 f8 d3 3c
       -0.083037466 -0.06050648 -0.11497716 0.025875365
0000b0 a9 9f e5 bd f7 b8 e4 3b c0 59 59 3c ed 85 83 bd
       -0.112120934 0.0069800573 0.013266027 -0.06422029
0000c0 05 b6 fc 3d 05 34 9e 3c cd 10 10 3d 08 95 f3 bd
       0.12339405 0.019311914 0.035172272 -0.1189366
0000d0 aa 4f 08 be 63 d7 20 be f0 b5 39 bd 77 6f dd 3d
       -0.1331164 -0.15707164 -0.045339525 0.10812276
0000e0 f2 29 64 bd 53 bf 0b bd be 1c bf bd 7b 8a 25 3e
       -0.055704065 -0.034118008 -0.09331654 0.16166107
0000f0 15 7b be 3d 0a 70 eb bd 99 30 e0 3d ac e8 8a 3c
       0.0930082 -0.11495979 0.10946769 0.01695665
000100 b4 ad ac bd 5f ab e0 3d b1 c4 37 3e 7b cb f2 3d
       -0.08431569 0.109701864 0.17946126 0.11855217
000110 b5 da de bd 2b d4 ef 3c 2c 9a 2f be d1 92 32 be
       -0.10881559 0.029275974 -0.17148656 -0.17438819
000120 ac 23 e6 3d 85 c0 1b bd a3 cc 56 bd 9d f1 31 be
       0.112372726 -0.038025398 -0.05244125 -0.17377324
000130 3d 36 c9 bd 9d bb 3d 3d ea b1 47 be 92 bd 66 bd
       -0.09824798 0.0463215 -0.19501463 -0.056333132
000140 09 60 d9 3b de d3 7f bd cb 34 0c 3d f8 c0 13 be
       0.0066337627 -0.06245791 0.034230035 -0.1442908
000150 0a a5 13 3d eb d6 80 3d a6 02 67 3d f1 17 50 bd
       0.036046065 0.06290992 0.05639901 -0.050804082
000160 d9 ea 89 3d 7a e7 8b bd 56 c1 99 bd 72 af e1 bd
       0.06734247 -0.0683126 -0.07507579 -0.11019792
000170 17 9e a8 3d 09 49 bd 3d bd 28 21 3e a3 28 0e 3e
       0.08233278 0.09242446 0.15738197 0.13882689
000180 ed 47 c5 3d e7 35 09 3e 18 d2 26 3d c0 d8 75 3d
       0.096328594 0.13399468 0.040727705 0.060021162
000190 b5 4e f0 bd c7 80 b1 bd 83 48 de 3d 0e dd cc 3c
       -0.11733762 -0.086671405 0.10853674 0.02500775
0001a0 81 89 3f bd 7d ac 5a ba 04 8c e7 bc 55 8b 7f 3c
       -0.046761993 -0.0008341743 -0.028265007 0.015597184
0001b0 14 b6 fe 3c 38 a7 7b bd 6d da 38 be 41 67 34 3e
       0.031092681 -0.06143877 -0.18052073 0.17617513
0001c0 68 36 21 be bf 3d 84 bd 22 f3 10 bd 6a d9 68 bd
       -0.1574341 -0.0645709 -0.03538812 -0.056847967
0001d0 fb fd ff 3c 2e 85 4a 3d ca 05 35 3d 59 95 c8 bd
       0.031249037 0.049443416 0.044194974 -0.09794111
0001e0 04 c4 3b be c5 6f 29 be cc 95 ec 3d 31 1b 01 be
       -0.18336493 -0.16546543 0.11552009 -0.12608029
0001f0 d2 a6 3d 3d 7a 9d 36 be 4a 6e 0a be 12 82 a5 3d
       0.04630167 -0.1783351 -0.13518634 0.080814496
000200 06 44 da 3d 86 3d 0f be ee 4d 98 3d 54 b6 0a bd
       0.10657506 -0.13988313 0.07436739 -0.033865288
000210 0e df 8a bd ad 03 06 bc 90 9b 8e bc db 94 02 3c
       -0.067808256 -0.008179587 -0.017408162 0.00797006
000220 99 89 ca bd 31 36 23 be 0d a3 e2 bd 62 7b 44 be
       -0.09889526 -0.15938641 -0.11066256 -0.19187692
000230 97 e7 c6 3d 7c 1e 34 be 9f 49 4d bd ce 92 3c 3e
       0.09712141 -0.17589754 -0.05011904 0.18415377
000240 a7 22 2d be c5 12 02 be 3b b2 be 3d ca af 35 bd
       -0.1690775 -0.12702473 0.093113385 -0.0443571
000250 04 c2 e0 bd 23 95 82 bd 14 92 6b 3d 5b bf 96 3c
       -0.109745055 -0.06376102 0.057512358 0.018401792
000260 d0 9a 1d bd 77 44 8f 3d 95 5c ae 3d f4 c6 8c 3d
       -0.03847772 0.069954805 0.08513752 0.06873885
000270 63 49 3d be 61 69 ea 3d 13 10 1d be 62 56 85 bd
       -0.18485026 0.11445881 -0.15338163 -0.06510617
000280 5b 27 1c 3e 24 a9 ad 3b 9b e9 bd bd b6 bb be bd
       0.15249388 0.005299704 -0.09273072 -0.09313147
000290 6a 4f bf bd 60 bf f8 3c 2d 64 d7 3c ab 58 61 bc
       -0.09341319 0.030364692 0.026292885 -0.01375405
0002a0 36 da 0d 3e db a2 fc bc df ed 27 bd a6 74 5a bd
       0.13852772 -0.030839374 -0.040998336 -0.0533339
0002b0 f0 71 93 bd a2 5e bc 3d cb 13 42 3e 8d c5 13 3d
       -0.07199466 0.09197737 0.18952863 0.03607707
0002c0 fb 58 28 3e 30 ae b8 3d 5a a4 61 3c 1a 39 15 be
       0.16440193 0.09017599 0.013772095 -0.14572564
0002d0 f7 d2 24 bd 2f a7 0b 3e 7a 99 01 bc 96 2b dc bd
       -0.040240254 0.13637994 -0.007910127 -0.10750501
0002e0 08 3b 13 be 7d 51 ab 3d 6b c1 fd bd 63 60 b5 bd
       -0.14377987 0.08365152 -0.12390407 -0.08856275
0002f0 68 3b 02 bd 89 ce c5 3c 60 f9 dc bc 57 b5 78 bd
       -0.031794935 0.024146335 -0.02697438 -0.060719814
000300 ca d4 2a be 68 95 38 3d 8e a8 16 be 05 b2 06 bc
       -0.16682735 0.04506436 -0.14712736 -0.008221154
000310 25 df 8f 3d d0 8f 43 3b 7e 80 0d be 61 aa 2f bd
       0.07024983 0.0029840358 -0.13818547 -0.042887095
000320 0e 83 a8 bd 85 32 1a bd d5 80 04 3e b9 fe 1d be
       -0.08228122 -0.037645835 0.1293977 -0.154292
000330 e4 a6 38 be 48 25 dd 3c cb a1 40 be 74 52 7b bc
       -0.18032414 0.026995316 -0.18811719 -0.015339483
000340 06 78 b2 3d 5a 81 9c 3d df eb 21 be 4b 3c 77 bd
       0.08714299 0.07641859 -0.15812634 -0.060360234
000350 f7 37 95 bc d3 9c 5e bd d0 d7 08 be 61 f8 73 bd
       -0.018215163 -0.054348778 -0.13363576 -0.059563044
000360 f0 e4 a9 bd 77 5a 61 3d b0 fa 43 be 1f ca 22 bd
       -0.082956195 0.055017915 -0.19138598 -0.03974354
000370 b1 53 35 be 20 52 a6 bd 16 c5 14 be 12 35 92 3d
       -0.17707707 -0.08121133 -0.14528307 0.071390286
000380 6f 8d f5 bc 60 3a a7 bd 24 64 9c 3d d5 d9 3f 3e
       -0.029974667 -0.08165431 0.07636288 0.1873544
000390 a9 16 1a be 6e 45 85 3c 76 5a 8a 3d 1d a6 a6 bc
       -0.15047707 0.016268458 0.06755535 -0.02034288
0003a0 19 3d 0a be 03 c7 04 be bc 01 d1 bd 9b d1 3b 3e
       -0.1349987 -0.12966542 -0.10205409 0.18341677
0003b0 38 a5 3f be c9 c0 39 be 11 c5 2b 3e c4 09 3a be
       -0.1871537 -0.18139948 0.16774394 -0.18167788
0003c0 7c 26 32 3e cf 0f 35 be ea 53 1b 3c 47 d2 c1 bc
       0.17397493 -0.17681812 0.009480456 -0.023659838
0003d0 43 0a c7 3c 9d 22 f8 3d 28 4d 33 3c 5b c6 e3 bd
       0.024296885 0.12115977 0.010943688 -0.11121818
0003e0 50 00 1d be 90 80 0c be 88 2a 19 be aa fc 40 3e
       -0.1533215 -0.13720918 -0.1495763 0.18846384
0003f0 a9 f0 ea bc 82 56 24 3d 5d 00 0f 3e d0 9a dd 3d
       -0.028679209 0.040121563 0.13964982 0.10820544
