lexicons/1.lexicon.ovr+dev/guncontrol/model.pth (torch, 91448 bytes, 1 tensors)

weight f4 [15, 1500]
0.13855429 0.46733013 -0.2731978 -0.17649302 0.1817787 -0.34832603 -0.5162322 -0.09629019
-0.104207754 -0.011577371 -0.5269107 -0.17378181 0.06433374 0.2284178 -0.3179767 0.14534871
-0.34237215 -0.16644324 -0.14492567 -0.41126716 -0.37242725 0.08805475 -0.3067327 0.12997961
-0.34881446 0.13739131 -0.26536423 -0.2785713 -0.62946326 -0.2238821 -0.22711433 0.32907286
0.084232755 -0.29661506 -0.24130279 -0.24995445 -0.17314549 -0.6202958 -0.28306377 0.056886088
0.0440151 -0.20396513 -0.42759454 -0.32596356 -0.35045683 0.22201706 -0.39942625 0.1126352
0.44559178 -0.29789194 0.42186248 0.7122701 0.51019883 0.025954487 -0.1117597 0.056144904
0.42147124 -0.73821235 0.039777294 -0.40067583 -0.46121687 0.113554716 -0.093119 -0.32723212
-0.043682683 -0.17966421 0.1419671 -0.027325155 0.0650911 -0.6379145 0.6136671 -0.25385386
-0.292246 0.32839164 -0.06794952 0.2899552 -0.35000944 0.47608426 0.09400893 0.12387051
0.16486649 0.58375376 0.041153412 0.14746173 -0.8725772 0.47008362 0.063558616 -0.3005595
-0.35031697 -0.36161277 -0.29719654 -0.023654947 0.36116993 -0.22587562 -0.2434649 0.39669454
-0.13076437 0.44196948 -0.13399056 0.06575552 -0.66548854 -0.054486357 -0.4196115 -0.40413815
0.7793062 0.55029124 -0.77962184 -0.04323562 -0.6031839 0.40008745 -0.7825006 0.4647419
0.2535215 -0.6037437 -0.51883 -0.2821991 0.10746481 0.00023323159 -0.2230497 -0.57341486
0.2783841 -0.110704556 -0.71430147 -0.23920514 0.14186957 0.5268317 0.19153354 -0.01155041
-0.5323384 0.13647084 -0.110396005 -0.5873065 -0.14149752 -0.034546744 0.03729912 0.059906185
0.0036272386 -0.18456072 -0.4111045 -0.15367365 0.18939857 0.26469168 0.056749683 -0.561435
0.0818951 0.36855176 -0.3105764 -0.19204158 -0.2626017 -0.8822475 -0.4685936 -0.25462857
-0.28323016 0.3310454 -0.031519126 -0.010104083 -0.4795065 -0.01077304 0.038459376 0.10955092
0.20676857 0.17652124 -0.21024032 -0.42484936 0.06869151 -0.36462238 0.081677906 0.5648311
0.5408996 -0.8111562 -0.35785475 -0.749404 0.5219107 -0.9745169 0.09780307 -0.11603069
-0.2386125 0.17609563 0.58224344 -0.24088922 -0.44424373 0.6907433 -0.10961909 -0.32514155
-0.24495074 0.23101322 0.12140952 -0.36750135 -0.26643947 -0.08786824 0.4460226 -0.46556038
0.6865862 -0.20645042 0.094843715 -0.37762448 0.5230046 -0.02622825 -0.42988613 0.27759144
-0.20268653 -0.4061234 0.3915214 -0.10436557 -0.7577849 0.022056721 -0.52716434 -0.038327444
-0.79305744 -0.36466804 -0.015481226 -0.030170228 -0.59493446 -0.15762958 -0.105860375 -0.20291467
-0.58305746 0.48679623 -0.6686016 -0.035212066 -0.64286774 -0.13031234 0.18542305 -0.69254845
-0.4672844 -0.52412623 -0.25324905 0.18109708 0.13435721 -0.31819513 -0.45227456 -0.59190065
0.2828224 -0.25302762 -0.62803715 -0.5382906 0.6122635 -1.0915585 -0.086242236 0.12872402
-0.04481694 -0.0500862 -0.2676251 -0.6646341 -0.4375263 0.006797569 -0.57076156 -0.31766796
-0.1543831 0.6422704 0.38485044 -0.22042431 0.2644134 -0.6492351 0.47451213 -0.7133405
00000000: 2de1 0d3e e545 ef3e 95e0 8bbe 96ba 34be
00000010: 3224 3a3e ca57 b2be cb27 04bf cb33 c5bd
00000020: e06a d5bd 03af 3dbc 9fe3 06bf dcf3 31be
00000030: 68c1 833d 5be6 693e d8cd a2be 4bd6 143e
00000040: 674b afbe 1970 2abe 6567 14be 9c91 d2be
00000050: c9ae bebe 0c56 b43d 120c 9dbe 6019 053e
00000060: cf97 b2be 4fb0 0c3e d2dd 87be e6a0 8ebe
00000070: 8124 21bf 5941 65be a990 68be 3d7c a83e
00000080: 3982 ac3d eedd 97be 1418 77be 0ff4 7fbe
00000090: 0d4d 31be b5cb 1ebf bced 90be 6301 693d
000000a0: 2d49 343d 3cdc 50be aced dabe b2e4 a6be
000000b0: 146f b3be 7158 633e 9981 ccbe 49ad e63d
000000c0: 9b24 e43e 4b85 98be 5cfe d73e 5557 363f
000000d0: 649c 023f 819e d43c 45e2 e4bd 33f8 653d
000000e0: 14cb d73e 7cfb 3cbf 84ed 223d 6225 cdbe
000000f0: 9e24 ecbe 608f e83d 2db5 bebd f88a a7be
00000100: 9dec 32bd e5f9 37be d35f 113e 01d9 dfbc
00000110: 7c4e 853d 5d4e 23bf 4919 1d3f 22f9 81be
00000120: 45a1 95be f322 a83e 1e29 8bbd 0275 943e
00000130: 7034 b3be 51c1 f33e c187 c03d d2af fd3d
00000140: c3d2 283e e370 153f 7b90 283d 3500 173e
00000150: 3861 5fbf cdae f03e 052b 823d efe2 99be
00000160: bf5c b3be 4f25 b9be 252a 98be 05c8 c1bc
00000170: 44eb b83e f04b 67be dd4e 79be 8c1b cb3e
00000180: 18e7 05be d349 e23e d234 09be d4aa 863d
00000190: 755d 2abf 162d 5fbd 52d7 d6be 32eb cebe
000001a0: 9c80 473f e3df 0c3f 4c95 47bf d517 31bd
000001b0: 436a 1abf 43d8 cc3e f651 48bf a6f2 ed3e
000001c0: 92cd 813e f28e 1abf 0bd2 04bf 677c 90be
000001d0: 8316 dc3d a18f 7439 2467 64be 51cb 12bf
000001e0: 5c88 8e3e 12b9 e2bd 76dc 36bf 31f2 74be
000001f0: 4246 113e 71de 063f 5e21 443e ee3d 3dbc
00000200: 5447 08bf 03bf 0b3e 4d17 e2bd b859 16bf
00000210: bae4 10be e380 0dbd f6c6 183d 3060 753d
00000220: f7b6 6d3b 7cfd 3cbe 4a7c d2be a05c 1dbe
00000230: b3f1 413e ab85 873e 5b72 683d 34ba 0fbf
00000240: 9eb8 a73d d1b2 bc3e df03 9fbe 8ca6 44be
00000250: bb73 86be f9da 61bf 80eb efbe ad5e 82be
00000260: 8b03 91be c87e a93e 331a 01bd 998b 25bc
00000270: e081 f5be 6881 30bc 9487 1d3d 3c5c e03d
00000280: 24bb 533e fcc1 343e 3d49 57be db85 d9be
00000290: 22ae 8c3d c9af babe bf46 a73d c598 103f
000002a0: 6578 0a3f efa7 4fbf bd38 b7be f1d8 3fbf
000002b0: f19b 053f f179 79bf fa4c c83d 80a1 edbd
000002c0: d656 74be 6a52 343e e80d 153f aaab 76be
000002d0: ea73 e3be 8ed4 303f f97f e0bd f478 a6be
000002e0: 5ed4 7abe bb8e 6c3e 8ea5 f83d 2329 bcbe
000002f0: c16a 88be 44f4 b3bd 135d e43e ee5d eebe
00000300: 1dc4 2f3f bd67 53be 6c3d c23d ff57 c1be
00000310: a1e3 053f a0dc d6bc 091a dcbe 7720 8e3e
00000320: 0f8d 4fbe 68ef cfbe 7e75 c83e 9ebd d5bd
00000330: 31fe 41bf 4cb0 b43c 3ef4 06bf 3dfd 1cbd
00000340: d005 4bbf c5b5 babe f8a4 7dbc 8e27 f7bc
00000350: a04d 18bf a669 21be 53cd d8bd ddc8 4fbe
00000360: 4143 15bf 5b3d f93e 7929 2bbf 873a 10bd
00000370: fb92 24bf 9970 05be 8adf 3d3e db4a 31bf
00000380: e73f efbe 232d 06bf dca9 81be 8371 393e
00000390: f094 093e 79ea a2be 8890 e7be cd86 17bf
000003a0: 19ce 903e d68c 81be 0bc7 20bf 6acd 09bf
000003b0: 4dbd 1c3f 30b8 8bbf c59f b0bd 3bd0 033e
000003c0: f891 37bd 3027 4dbd 2806 89be 7625 2abf
000003d0: 7203 e0be 24be de3b 6e1d 12bf 60a5 a2be
000003e0: 9a16 1ebe d56b 243f 1e0b c53e e9b6 61be
000003f0: 3161 873e 4634 26bf 41f3 f23e 7c9d 36bf
