lexicons/1.lexicon.multinomial+dev/climate/model.pth (torch, 91448 bytes, 1 tensors)

weight f4 [15, 1500]
00000000: 2421 34be a3f7 a03d b2e5 b63e 2742 9ebe
00000010: f709 a63e 5207 de3c fc4a d03d 3043 8ebd
00000020: 93c1 2cbd 0e73 eb3d 68ee 583d 1da3 0dbe
00000030: 5106 c33d 9a9d ed3d 23bf a2be cc58 23be
00000040: 3cfb 443b 2295 5cbe 1307 03bf 24ee debd
00000050: 2c65 013e c4ca 52bd 23d4 3dbe 2936 1e3e
00000060: 69c6 96be d4d4 c4be a6ee b1be c077 40be
00000070: c1ec 0c3e 8437 f4bd 721e 64bd b324 803e
00000080: c023 c3be 76ec 71be 80d9 19be 2e20 633d
00000090: e822 ab3d 38a4 ddbd 8a28 5ebe 1345 bcbe
000000a0: f194 65be de04 6cbe 34c9 54be 843c a7be
000000b0: 9258 6bbd cd70 223e e23a c6be cc82 ac3e
000000c0: a920 3b3e 3d7b 86be 2ed8 50be c6fa 92b9
000000d0: 5616 a3be ebf1 063d eb00 83be 8c68 cdbe
000000e0: 2abd a73e 8507 95be 5dd6 9f3e 47ec 793e
000000f0: 019b 30be f5e5 cabd e092 0a3d 545c 243d
00000100: c9d7 d73d c347 f4be 2c5a 3c3d e945 b9be
00000110: fb5c 013f a54d 343e 1e8f 0abf 1dba efbc
00000120: c572 e53e bc57 18bd ef02 21be 7ba6 e73d
00000130: 680f 883e 117e 843e aeb5 e03d c597 bd3e
00000140: 46d7 42be 8ff1 16bf 4861 adbe 2b70 0d3e
00000150: 669e b8be 80c7 40bd eec4 ac3e b957 e03e
00000160: fcd1 293e a8fb 4dbe c421 70be 38f0 8bbe
00000170: 5cd1 833e 55cb febd 3647 803d fb76 56be
00000180: 6ba8 57be ba92 6c3e 9e1b 533e 7e5e 4b3e
00000190: 3295 c13e 6413 b2bd 2cb7 b6bc ac4b df3e
000001a0: fab0 a6be 78c9 eebe 4932 06be 661e 53be
000001b0: d63e 053f a2c9 54bd 3053 973e 76d5 a3be
000001c0: cf15 95be 1019 563e e25b ca3d acf4 fbbc
000001d0: 416d da3e 03ba 7a3e e973 c0be 3005 b63e
000001e0: 9e98 093e 7850 f9bd c11b 2dbe 5aaf d5be
000001f0: 999b ebbd e2a7 fe3e 414a 92be b4b5 23bf
00000200: cdbf c5be cfb4 f53e 1d83 0e3e bd08 94be
00000210: 2aa1 ccbe 0289 fdbd 6184 073d dbf3 143c
00000220: 7599 15be 509a 463d 7b5f f6be 1477 df3d
00000230: 6c04 c93c 4247 68be 0384 99be 8410 973e
00000240: b1f2 9d3d 8057 6dbe 607f cf3e 4ee1 a13d
00000250: c84b c93e 2507 bbbe 30dc 383d 6d71 d53c
00000260: d673 07bd b436 24be 63a2 983b 3521 123f
00000270: 9dd2 833e 0d18 9bbd ec35 ae3e 7d1e b83e
00000280: a520 7fbe b045 12be d28f d0be 768d dabe
00000290: 5c2f b9be 00d6 c43e 0e5f 80be 81df 8ebe
000002a0: b7a1 cfbe 9871 78be eb80 833c 624d 16be
000002b0: ed6a c9bd 5de6 9fbd e2c5 edbe 3cee 1e3e
000002c0: 19f6 8e3d dc13 ca3e d73f a5be 1cc6 7dbe
000002d0: 6b5a 56be df48 d3bd a109 f7be e984 d93e
000002e0: 9392 973e 9af1 1f3d 4c32 c43e e598 bfbe
000002f0: 435f fd3e 8ec8 0bbf 41d8 0dbf cf7b 8a3e
00000300: 3df2 af3e 1761 613d 087f bbbe 9090 cdbe
00000310: eaf4 96bd 63de 5dbe 2c6d ccbd 3d03 8d3d
00000320: 9ae9 01bf efd3 dabe 2ae7 83be 536f 4a3e
00000330: 20f5 bdbd 319f 82be d417 0dbf 8b1a c93e
00000340: 97f2 343e 22a9 1cbc bbd5 1cbe dffb 8f3e
00000350: 427d 023f 7c53 0bbe 07ab ef3e 44d6 7bbe
00000360: daed aa3e 27ef 99be 3f4c 27be 2163 f3bd
00000370: b64a 32be e3d1 83bd 745a 103e c3ed efbe
00000380: a448 9e3d 830e 27bf 4b09 46bc e73c 103f
00000390: 8113 9cbe 4125 ee3d 7fe3 7f3d cb04 dabd
000003a0: ead9 08bf 388b 983e 1eab 6d3e 5cfb 9fbd
000003b0: c54e 47be 3d88 7b3e 6585 09bf becc 97be
000003c0: 6bc0 ad3e 5801 81be a216 debe c397 0f3f
000003d0: 4d99 18be 81d8 4ebd ea5b 0cbe 0e91 f33e
000003e0: 7527 703e b82a 61be 0c13 98be efc7 923e
000003f0: 97f6 c73e 25b3 d7bd eea9 75bd f6f9 dfbd
-0.17590767 0.07859733 0.3572212 -0.30909845 0.32429478 0.0271031 0.10170552 -0.06946409
-0.042176794 0.11496554 0.052961737 -0.13831754 0.09522689 0.11602326 -0.3178645 -0.15951842
0.0030056974 -0.21541265 -0.5118267 -0.108852655 0.1263625 -0.051462904 -0.18537955 0.15450348
-0.2944825 -0.38443625 -0.34752387 -0.18795681 0.1376219 -0.11924651 -0.055693097 0.25028
-0.38113213 -0.23625359 -0.15024376 0.05545061 0.08356267 -0.10822338 -0.21695152 -0.3677145
-0.22420098 -0.23048732 -0.20779878 -0.32663357 -0.057457514 0.15863343 -0.387168 0.3369354
0.18274178 -0.26265898 -0.20394966 -0.0002803413 -0.31852978 0.032945555 -0.25586638 -0.40118825
0.32761508 -0.291073 0.31218234 0.24406539 -0.1724663 -0.09907142 0.033831477 0.040127113
0.105392046 -0.47711 0.045984432 -0.3618615 0.505325 0.17607744 -0.5412463 -0.02926355
0.44814125 -0.037193045 -0.15723775 0.113110505 0.26574254 0.2587743 0.10972153 0.37029853
-0.19027433 -0.5896234 -0.33863282 0.1381232 -0.36058348 -0.047065258 0.33743995 0.43816927
0.16584009 -0.2011553 -0.2345038 -0.2733171 0.25745666 -0.12441126 0.062635824 -0.20943825
-0.2106034 0.23102847 0.20616004 0.19860265 0.3780914 -0.08695105 -0.02230414 0.4361242
-0.32556897 -0.46638083 -0.1310512 -0.20617065 0.52049005 -0.051950105 0.29555655 -0.31998795
-0.291182 0.20907998 0.098808065 -0.030756317 0.4266148 0.2448502 -0.37588432 0.35550833
0.13437125 -0.12173551 -0.16905119 -0.41735345 -0.11504287 0.4973746 -0.28572276 -0.6394913
-0.38622895 0.47989509 0.13917203 -0.28912917 -0.39966708 -0.12379648 0.03308523 0.009091343
-0.1460932 0.048487008 -0.4811972 0.10911384 0.024538241 -0.22683433 -0.2998353 0.29504788
0.07712305 -0.2317791 0.40526867 0.079043016 0.3931563 -0.36528888 0.045131862 0.026055062
-0.033069454 -0.16036493 0.00465803 0.5708192 0.25746623 -0.07572947 0.34025514 0.3596076
-0.24914797 -0.14284396 -0.40734726 -0.4268605 -0.36168945 0.3844452 -0.2507252 -0.27904895
-0.40553066 -0.24262083 0.016052684 -0.14677957 -0.098348476 -0.0780761 -0.46440035 0.15520567
0.06980533 0.39468277 -0.32275268 -0.24782604 -0.20932929 -0.103166334 -0.48249534 0.42484215
0.29604015 0.03904877 0.38319623 -0.37421337 0.4948674 -0.546029 -0.554081 0.27047583
0.343645 0.055024233 -0.36620355 -0.40149355 -0.073709324 -0.21666865 -0.099817604 0.06885383
-0.5074707 -0.42739818 -0.25762302 0.1976903 -0.092752695 -0.25512078 -0.55114484 0.39278063
0.17670666 -0.009561809 -0.15315907 0.2812185 0.5097238 -0.13606066 0.4681017 -0.24593455
0.3338459 -0.3006527 -0.1633768 -0.11884142 -0.17411312 -0.06436517 0.14097005 -0.46861085
0.07728699 -0.6525652 -0.012087177 0.5634293 -0.3048363 0.11628199 0.062472817 -0.106454454
-0.5345751 0.29793715 0.23209807 -0.07811615 -0.19463642 0.2456369 -0.5371917 -0.29648393
0.33935866 -0.25196338 -0.43376642 0.56090945 -0.1490223 -0.050499443 -0.13706937 0.47571605
0.23452552 -0.21988952 -0.29702032 0.28668162 0.3905532 -0.10532216 -0.05997651 -0.10936348
