lexicons/1.lexicon.multinomial/tobacco/model.pth (torch, 91841 bytes, 2 tensors)

weight f4 [15, 1500]
00000000: 567e d33d 516a 9b3d a81b 0ebe 2644 b03d
00000010: 429e f2bc 5bf0 a23d 8289 36bd 5b98 223e
00000020: 3c60 5cbe 519c adbd 2499 fdbc 6d53 7d3e
00000030: 7901 123e fe15 fbbc 8e10 0e3d 5c50 563d
00000040: 1a9a 633d c94d 223e b8fc 833e 0f88 d2bd
00000050: a344 803e 0b0e 0bbe d437 06be fa0c 1bbe
00000060: b82f babe a706 ae3d fdc9 9abe 4323 353e
00000070: f7dc 97be 4fd2 90be 8f27 513d 9b15 153d
00000080: c92e 1bbe 5c52 513e 63e7 ffbd 95d1 a03b
00000090: 6336 0cbe 8bc3 773e 9f8b c1be f40d 8c3e
000000a0: c9a5 563e e670 d2bc 8d83 433e 5b92 e4bc
000000b0: a8c8 1ebe c040 b0be 5ec2 abbd c542 fb3c
000000c0: a849 ad3e 9a60 023e 4ecf 8fbe 61ad 703e
000000d0: 5458 b3be d4a6 3ebe 81d4 78be b954 06bc
000000e0: 8c5d 0ebe 7d4d a33d 8e9c a13e 4ae2 25bd
000000f0: 3615 bfbd b9a0 0e3e 15d8 6a3e c04b 81be
00000100: e1c5 013f 7912 3e3e 43a7 4cbe 57c0 81be
00000110: 9f03 943c af50 ebbd f649 023c 11e8 e4bc
00000120: bc95 a03e 4176 013e 42df 393e 008a e83c
00000130: 27f1 533e 1281 5dbe 295d f9bd dc75 833d
00000140: 89de 203e 649a 0b3e 014a 86bc 80e0 263e
00000150: 8b60 1dbe 3e22 3a3e 7429 93be 531f 54be
00000160: 3f26 83be 825d 58be d6a4 4bbd c205 543c
00000170: cf2f 453e df2b 8ebe 4069 9cbe 8dcd 883d
00000180: b92b 243d ae95 13be 68a7 e4bd e206 3f3e
00000190: 5f60 c03e dcd1 2f3e e3e4 cdbd 21b4 0e3e
000001a0: d779 81be f933 99be e033 9f3d c1d1 6cbe
000001b0: 7a22 86be 1683 263e 7169 b13d 4bc8 513e
000001c0: fd7c 4ebe 1bdc 9e3b ec22 eabd 9106 1bbd
000001d0: 9d56 57be da28 483e 49c6 d3bc 2dee e5bd
000001e0: 5f65 82be 703f 483e 5693 e6bc 62ab dabd
000001f0: e78e 693d 00d3 573d 7bf5 a1bd 1982 26be
00000200: e135 33bd fe54 ccbe 1e33 69be c6d5 223e
00000210: 78f4 edbd 98a2 553e 0c43 063d 6de1 0a3e
00000220: 0cde 98be bbd2 6b3e 1237 9b3e e584 43be
00000230: e505 193e 53a6 37be e925 bf3b adc5 fa3d
00000240: 3e45 ac3e a342 edbd 74e5 f83d 80e5 463e
00000250: 12de 2f3e ab11 5e3e e0fc b8bc 9784 33bd
00000260: ef55 3bbe 9d29 9ebe 9561 073f 5f10 683e
00000270: 5057 35bc d960 22be f7cb 4b3e d719 06bf
00000280: 3075 5f3e 660c 84be 4867 39be 5843 c4be
00000290: 1423 173e e0a9 ad3d 97cd b8be 1ccc df3b
000002a0: 3bf3 91be f66a c7bd 7b00 47be a8ff 983d
000002b0: dce4 103e 237f 0e3e 4c7b bd3d f96f bcbe
000002c0: 2179 55be beb1 8d3e 5998 81be 625a 88be
000002d0: 0b75 163e 9f15 3c3e 166d 8ebe 351f 7bbe
000002e0: c2cc 183e ea8e 0f3e 526e 283d fa38 f1bd
000002f0: e53f b8be 3746 8bbd 1d34 91be a3f9 61bd
00000300: 9d7b 92be 91bb 423c 714a 4abe b04e 983e
00000310: b500 233e ecf4 e3be 5082 a43e 793f 8e3e
00000320: 7b98 b73e 0de4 01be 4b9d 8a3e 2adb 603e
00000330: e5ad 81be ee80 ebbc 4d82 85be 4154 803e
00000340: 556d c0be f050 19be 3f61 253e 71b1 d93d
00000350: a739 953e e87a a7bd 495f 773e d1c8 76bb
00000360: 446d 5dbe 8c16 913e 8e27 613e 18be 0b3e
00000370: 85f1 593e 0fc9 2fbc 7606 15be 3295 97be
00000380: 7cde bebe 0eed e33d d941 08be 308b 9a3e
00000390: 10e4 dabe 46c4 9abd 0795 32be a59a edbe
000003a0: 8e2b 583e 0b4f f3be 6bbd 473e 5504 f73d
000003b0: 88cf c73e bf2c 6a3e 9cb1 793d 667a f4be
000003c0: 3f0d 57bc c771 a0be 1a9e 77be 82cd b03e
000003d0: d74d aabe cb95 ae3d 30f5 cabe 666b 50be
000003e0: f2a1 4abe d079 df3c 7857 54be 6333 91bd
000003f0: b12d 6bbe 384a 79be 21ef 13be f163 9b3d
0.10326831 0.075886376 -0.13877738 0.08606748 -0.029616479 0.079560004 -0.04456473 0.15878431
-0.21521086 -0.084770806 -0.030956812 0.24738856 0.14258374 -0.030650135 0.034683757 0.05232273
0.055566885 0.15849985 0.25778747 -0.10279857 0.25052366 -0.13579576 -0.13107234 -0.15141669
-0.36364532 0.084973626 -0.3023223 0.17689233 -0.2966077 -0.28285453 0.051063117 0.036397558
-0.15154566 0.20441574 -0.124953054 0.0049077966 -0.13692622 0.24195687 -0.37801835 0.27354395
0.2096168 -0.0256886 0.19093151 -0.027901819 -0.15506232 -0.344244 -0.08386682 0.030671487
0.33845258 0.12732163 -0.28087848 0.23503639 -0.35028327 -0.18618327 -0.24299814 -0.00819891
-0.13902873 0.07973764 0.31564754 -0.04049901 -0.093302175 0.13928498 0.22933991 -0.25253105
0.50692564 0.18561734 -0.1998568 -0.25342056 0.018068133 -0.114899985 0.007952204 -0.02794269
0.31364238 0.12642767 0.18151572 0.028386116 0.20697461 -0.21631268 -0.12175972 0.06418964
0.1570989 0.13633114 -0.01639271 0.16296577 -0.1536886 0.18177125 -0.28742564 -0.20715074
-0.25615117 -0.2112942 -0.049717747 0.012940826 0.19256519 -0.27767846 -0.3054905 0.06679831
0.04008076 -0.14412567 -0.11164743 0.1865497 0.37573525 0.17169899 -0.10053422 0.13935901
-0.2528827 -0.29922464 0.07773566 -0.2312689 -0.2619818 0.16260943 0.086626895 0.20486562
-0.20164867 0.004848016 -0.11432442 -0.03784806 -0.21029134 0.19546834 -0.025851386 -0.11227069
-0.25467965 0.1955545 -0.028146427 -0.1067722 0.057021048 0.05269146 -0.0790815 -0.16260566
-0.043752555 -0.39908594 -0.22773406 0.1590186 -0.11618894 0.20862806 0.032778785 0.13562556
-0.29856908 0.23029606 0.30315453 -0.19093664 0.14943655 -0.17934541 0.0058333767 0.12244735
0.33646578 -0.115849756 0.1215314 0.19423485 0.17174557 0.21686427 -0.022581518 -0.04382762
-0.182945 -0.30891123 0.52883273 0.22662495 -0.01106818 -0.15857257 0.19902025 -0.5238318
0.21822047 -0.2579071 -0.18105805 -0.3833263 0.14759475 0.08479667 -0.36094353 0.0068297517
-0.28505883 -0.09737198 -0.19433777 0.074706376 0.14149803 0.13915686 0.09252033 -0.36804178
-0.20846988 0.2767467 -0.25311545 -0.26631457 0.14693086 0.18367623 -0.278176 -0.24523623
0.14921859 0.14019361 0.041120835 -0.117784455 -0.35986248 -0.06800502 -0.28360072 -0.055169713
-0.28609934 0.01188554 -0.1975496 0.29747534 0.15918238 -0.44522798 0.3213067 0.277828
0.3585852 -0.1268465 0.2707313 0.21958604 -0.25327983 -0.028748002 -0.26075974 0.2506428
-0.37583414 -0.14972281 0.16150378 0.106295474 0.29145548 -0.081777394 0.24157442 -0.0037656317
-0.21623713 0.28337514 0.21987745 0.13646734 0.21283539 -0.010729088 -0.14553246 -0.29606014
-0.37279117 0.11129199 -0.13306369 0.30184317 -0.42752123 -0.075569674 -0.17439662 -0.46407047
0.21110365 -0.47521242 0.19505851 0.12061373 0.3902552 0.22868632 0.060960397 -0.47749633
-0.013125717 -0.31336805 -0.24181405 0.3453179 -0.33262512 0.085246645 -0.39640188 -0.20353469
-0.1978834 0.027279764 -0.20736492 -0.07089879 -0.22966649 -0.24344718 -0.14446689 0.07587422

bias f4 [15]
00000000: 8981 4e3d d41c c2bd 2c78 e2bd f3b9 afbd
00000010: 00ef b03d 2165 b63d 9f70 24bd 7c42 babd
00000020: d3d1 5c3e 4860 af3b bd2e 653e a9d2 01be
00000030: 0a8c 2cbe 5628 b9bd fb26 b8bd
0.050416503 -0.09478155 -0.11058077 -0.08580389 0.08639336 0.089060076 -0.040146466 -0.09094712
0.21564417 0.005352054 0.2238111 -0.12678017 -0.16850296 -0.090408966 -0.0899181
