lexicons/3.lexicon.ovr/5/holdout_guncontrol/model.pth (torch, 121857 bytes, 2 tensors)

weight f4 [15, 2000]
-0.02982018 -0.02219269 -0.025078937 -0.014470108 -0.043625847 -0.04693022 -0.018546613 -0.04882386
-0.028749451 -0.03348915 -0.047074463 -0.033135597 -0.016556611 -0.03419351 -0.032276742 -0.031876817
-0.030969026 -0.018758742 0.03871025 -0.04237794 -0.025645595 -0.033072792 -0.042866085 -0.029809536
-0.0264858 -0.04036004 -0.04153116 -0.04363181 -0.048792418 -0.044446804 -0.041371386 -0.03390951
-0.023026668 -0.040120877 -0.04141708 -0.047477853 -0.060650486 -0.0009732431 -0.042397123 -0.010448389
-0.03235695 -0.036084928 -0.017950289 -0.043354124 -0.004415217 -0.053591292 -0.033376765 -0.0068061836
-0.012528459 -0.043875802 -0.044748303 0.025199655 -0.04917442 -0.047775637 -0.028189046 0.1058348
-0.01656223 -0.006421598 -0.02696994 -0.03629425 0.00085938995 -0.043490905 0.08749376 -0.03895812
-0.026763575 -0.05618669 -0.027446788 -0.014297717 -0.054865338 -0.011995302 -0.029001951 -0.036095284
-0.03666312 -0.049130898 -0.04116486 -0.016380347 -0.042043403 -0.019396259 -0.03091755 -0.020599192
-0.05293952 -0.032779574 -0.05872825 -0.033650845 -0.042726282 -0.050802145 -0.054128323 -0.053812437
-0.045502815 -0.03144267 -0.05724265 -0.005553313 -0.04641028 0.023141995 -0.022630874 -0.054075126
0.021989185 -0.008823606 -0.058988575 -0.040066667 -0.055319443 0.031873442 -0.0019568023 -0.034180105
0.08639451 -0.021110224 0.008980709 0.0015764195 -0.03516755 -0.06456446 -0.041389495 0.0860799
-0.009702222 -0.005994727 -0.033781912 -0.03710899 -0.03599955 -0.03463455 -0.012676234 -0.0005954509
-0.041483644 -0.035608716 -0.04664799 -0.04759295 -0.034321584 -0.030423917 -0.047758978 -0.011889017
0.037257373 0.031462092 -0.022076692 -0.028929766 -0.045087382 -0.030914865 -0.05017528 -0.041021764
-0.028608186 0.11308331 0.0073571065 -0.04530912 -0.039758593 -0.029547285 -0.056233916 -0.029882146
-0.020908833 -0.047718637 -0.04127912 -0.023318158 -0.05196246 -0.026116243 -0.026959896 -0.045675736
-0.05783389 -0.031291764 -0.06282751 -0.01484617 -0.055034593 -0.044856705 0.0053581866 -0.036621734
-0.037294656 -0.03721708 -0.035215203 -0.05216365 -0.023344949 -0.031498086 -0.04191425 0.011995767
-0.041740704 0.13255364 -0.019995112 -0.03387858 -0.041863292 -0.015635489 -0.047312953 0.007545612
-0.055487964 -0.062124893 -0.055628527 -0.051805347 -0.031906385 -0.044520333 -0.014454681 -0.025294539
-0.023531217 -0.031067295 -0.012126739 -0.0423936 -0.027245596 -0.017995507 -0.027414246 0.11955474
-0.043590974 -0.047352917 -0.046178717 -0.024366619 -0.04394908 -0.033604912 -0.05177961 -0.02707107
0.13270421 -0.05231168 -0.03332195 0.12232488 -0.029190669 -0.032601763 -0.05235727 -0.02280977
-0.019911844 -0.05686508 -0.059345897 0.101013646 -0.055118084 -0.03129254 -0.043264005 -0.027942905
-0.030764274 -0.053225372 -0.056546364 -0.04810144 0.06605746 -0.013842768 -0.055771317 -0.005623661
-0.049941182 -0.025035523 -0.044640627 -0.020744761 -0.042915016 -0.051449306 0.0007408821 -0.00028331584
-0.047564548 -0.044369463 -0.050581615 -0.027124599 -0.047008388 -0.034690693 0.0068323547 -0.034680955
-0.04033509 -0.04494021 -0.05387986 -0.04238802 -0.040070094 -0.060834963 -0.031690847 -0.05158793
-0.056335174 -0.037074585 -0.009499332 -0.06070037 0.0060447617 -0.031042846 -0.04782012 -0.028838137
00000000: 7349 f4bc 72cd b5bc 5872 cdbc 0814 6dbc
00000010: 04b1 32bd e739 40bd 11ef 97bc 87fb 47bd
00000020: f883 ebbc eb2b 09bd 27d1 40bd 31b9 07bd
00000030: bba1 87bc 7e0e 0cbd 9e34 04bd 4491 02bd
00000040: c1b2 fdbc efab 99bc a48e 1e3d 7e94 2dbd
00000050: b616 d2bc 5677 07bd 5994 2fbd 2133 f4bc
00000060: c0f8 d8bc 9250 25bd 941c 2abd 45b7 32bd
00000070: 8fda 47bd da0d 36bd 0b75 29bd b3e4 0abd
00000080: 6ca2 bcbc ca55 24bd f5a4 29bd 2378 42bd
00000090: a56c 78bd 3d21 7fba 9ba8 2dbd b82f 2bbc
000000a0: b988 04bd cacd 13bd 7c0c 93bc 1894 31bd
000000b0: 86ad 90bb 8b82 5bbd 13b6 08bd 6806 dfbb
000000c0: 2a44 4dbc 1db7 33bd ff49 37bd 826f ce3c
000000d0: 1e6b 49bd 63b0 43bd b7ec e6bc eabf d83d
000000e0: 84ad 87bc 456c d2bb 10f0 dcbc 48a9 14bd
000000f0: af48 613a 8523 32bd ee2f b33d 8d92 1fbd
00000100: 493f dbbc 0424 66bd 16d8 e0bc f940 6abc
00000110: 7aba 60bd f187 44bc 8095 edbc a6d8 13bd
00000120: 112c 16bd 7b3d 49bd 7c9c 28bd 1430 86bc
00000130: b435 2cbd e7e4 9ebc cd46 fdbc a3bf a8bc
00000140: 1cd7 58bd e043 06bd 098d 70bd 78d5 09bd
00000150: c101 2fbd e915 50bd a9b5 5dbd 6e6a 5cbd
00000160: 2961 3abd 07ca 00bd 4577 6abd 91f8 b5bb
00000170: b518 3ebd 4894 bd3c 6264 b9bc e17d 5dbd
00000180: aa22 b43c e390 10bc 019e 71bd f21c 24bd
00000190: a496 62bd ba8d 023d b23d 00bb 7000 0cbd
000001a0: 9bef b03d 59ef acbc d323 133c dc9f ce3a
000001b0: d90b 10bd 5f3a 84bd 0888 29bd a94a b03d
000001c0: 12f6 1ebc 6a6f c4bb e75e 0abd 99ff 17bd
000001d0: 4474 13bd f5dc 0dbd fbaf 4fbc 0918 1cba
000001e0: c1ea 29bd 72da 11bd f611 3fbd d3f0 42bd
000001f0: ca94 0cbd 943b f9bc eb9e 43bd 27ca 42bc
00000200: 309b 183d 65de 003d 2eda b4bc 1efe ecbc
00000210: 8cad 38bd 2c41 fdbc 9884 4dbd 7006 28bd
00000220: b75b eabc 3998 e73d e213 f13b 0e96 39bd
00000230: e8d9 22bd 260d f2bc 8955 66bd 67cb f4bc
00000240: 0049 abbc 9e74 43bd 4b14 29bd b905 bfbc
00000250: 97d6 54bd bbf1 d5bc 00db dcbc 7b16 3bbd
00000260: 3be3 6cbd cb2b 00bd b6ab 80bd 5a3d 73bc
00000270: f46b 61bd aabb 37bd ba93 af3b ac00 16bd
00000280: 48c2 18bd f070 18bd d13d 10bd 8da9 55bd
00000290: e83d bfbc 2304 01bd 47ae 2bbd e589 443c
000002a0: 4df8 2abd 24bc 073e cacc a3bc 44c4 0abd
000002b0: d878 2bbd ff15 80bc 3acb 41bd 2e41 f73b
000002c0: 5947 63bd ac76 7ebd bdda 63bd d831 54bd
000002d0: 45b0 02bd f45a 36bd 54d3 6cbc 7e36 cfbc
000002e0: 8ac4 c0bc d780 febc 3baf 46bc e9a4 2dbd
000002f0: 2832 dfbc 506b 93bc d793 e0bc 1ed9 f43d
00000300: 738c 32bd 22f5 41bd e525 3dbd 819c c7bc
00000310: f303 34bd 4ea5 09bd db16 54bd 26c4 ddbc
00000320: 9de3 073e c644 56bd 997c 08bd 7785 fa3d
00000330: 4521 efbc 6d89 05bd 9474 56bd 8edb babc
00000340: 2a1e a3bc 5ceb 68bd af14 73bd 3ee0 ce3d
00000350: 80c3 61bd 9b2c 00bd 9935 31bd 85e8 e4bc
00000360: 5c05 fcbc d902 5abd 299d 67bd 0406 45bd
00000370: 2249 873d c7cc 62bc 7770 64bd b046 b8bb
00000380: 208f 4cbd 4c17 cdbc 17d9 36bd ebf0 a9bc
00000390: a8c7 2fbd 82bc 52bd c237 423a 028a 94b9
000003a0: 0bd3 42bd c1bc 35bd ab2e 4fbd 6834 debc
000003b0: de8b 40bd d417 0ebd f2e1 df3b 9e0d 0ebd
000003c0: 6836 25bd 3a13 38bd 21b1 5cbd 0f9f 2dbd
000003d0: 8a20 24bd 152e 79bd 43ce 01bd de4d 53bd
000003e0: b6bf 66bd 85db 17bd 16a3 1bbc f4a0 78bd
000003f0: 2313 c63b 914d febc 08df 43bd f53d ecbc

bias f4 [15]
-0.04551798 -0.04987682 -0.03918488 -0.04262822 -0.051430833 -0.05133656 -0.039876316 -0.041628424
-0.0423658 -0.043592874 -0.043108728 -0.04337003 -0.048746407 -0.047769044 -0.047425635
00000000: 1071 3abd a34b 4cbd 5380 20bd ee9a 2ebd
00000010: 23a9 52bd 4946 52bd 5955 23bd 9182 2abd
00000020: c387 2dbd 718e 32bd c792 30bd c6a4 31bd
00000030: 50aa 47bd 79a9 43bd 6241 42bd
