lexicons/3.lexicon.ovr/5/holdout_climate/model.pth (torch, 121857 bytes, 2 tensors)

weight f4 [15, 2000]
000000 30 38 cf bc 48 70 e0 bc 59 f6 e3 bc 20 96 04 bd
       -0.025295347 -0.02739729 -0.027827429 -0.032369733
000010 c1 9b 59 bd 6e 74 bb bb eb bd 52 bd db 44 21 bd
       -0.053127054 -0.0057206666 -0.05145065 -0.039372306
000020 f2 12 6c bc f3 99 1d bd 93 18 fa bc b7 e8 4c bd
       -0.014408814 -0.038476896 -0.030529296 -0.05002662
000030 a7 20 5b bd 33 ca 52 bd dd 8d f7 bc 13 82 ad bc
       -0.053497937 -0.051462363 -0.030219013 -0.021180188
000040 1d 6c 19 bd 62 06 73 bc 57 c3 b4 bc 68 30 a8 bc
       -0.03745662 -0.014833065 -0.022065802 -0.020530894
000050 9d c6 27 bd 7a 44 f3 bc 99 0f 23 bd e2 48 2a bd
       -0.040960897 -0.029695738 -0.039809797 -0.041573413
000060 3d 4e 23 3d 3f 47 16 bd 62 ad ff bc a5 11 2b bd
       0.039869536 -0.03668904 -0.031210605 -0.041764874
000070 d3 bf 2c bd e4 06 59 bd 9d 1b 37 bd 3a fc 02 bd
       -0.042175125 -0.052985087 -0.04470407 -0.031978823
000080 ed c2 4e bd 08 c5 46 bd ae b3 24 bd 4c 68 18 bd
       -0.050478864 -0.048527747 -0.04021042 -0.03720884
000090 7b d6 38 bd 54 3e 85 bc d4 61 a3 bc cd e4 16 bd
       -0.04512642 -0.016265072 -0.019944109 -0.036839295
0000a0 6e 77 85 bc 3a 1e 23 bd 5c 0f 5c bd 7c c8 3a bd
       -0.0162923 -0.03982375 -0.053725585 -0.045601353
0000b0 3d e6 be bc 51 74 18 bd 20 36 1f bd e6 21 fd bc
       -0.023303146 -0.037220303 -0.038869977 -0.030899953
0000c0 f5 14 9f bc 0f df 70 bd ac 48 4c bc 4a 5e 0d bd
       -0.019419173 -0.058806475 -0.012468498 -0.03451375
0000d0 b1 97 31 bd f2 99 3d bd 51 7a 2f bd 8e 10 2a bd
       -0.043357555 -0.04628939 -0.04284126 -0.041519694
0000e0 bc 35 28 bc eb 0b 63 bd 45 70 84 bd 37 cc 44 bd
       -0.0102667175 -0.055431288 -0.06466726 -0.048046317
0000f0 f3 2a 5f bd f6 7d 05 bc 2c 36 2b bd e8 7f 4f bb
       -0.05448432 -0.008147707 -0.04179971 -0.0031661931
000100 2c 5d 09 bd bf 49 e1 bc 9a 0b 7b bd f4 fd 32 bd
       -0.03353612 -0.027500985 -0.06129036 -0.04369922
000110 1c a8 66 bc 09 8f ef bc c7 c8 0b bc 01 c6 70 bd
       -0.014078166 -0.02924301 -0.008531756 -0.05878258
000120 40 e2 40 bd aa fb 2c bd f7 dd 86 bc ef 37 cd 3d
       -0.04709077 -0.042232193 -0.016463263 0.10020434
000130 47 87 50 bd 68 e2 b3 3c 2b fa 0c bc b5 28 aa bc
       -0.05091026 0.021958545 -0.008604567 -0.020771364
000140 20 bd b9 bc 99 6f b1 bc ad 23 7f bd 71 fd 23 bd
       -0.02267319 -0.02165966 -0.062289882 -0.040036622
000150 5a 46 00 bd 00 50 63 bd 20 6a dd 3d 9d ee fc bc
       -0.031317092 -0.055496216 0.10811257 -0.030875498
000160 f5 eb 35 bd a1 e0 31 bd 51 cd 1a bd 09 75 17 bc
       -0.04441448 -0.043427113 -0.03779346 -0.009244212
000170 16 4a b2 bc 15 7e a4 bb 7c 67 65 bd f3 a0 ec bc
       -0.021763843 -0.005019913 -0.056006894 -0.02888534
000180 17 f8 87 bd fb 7b 0a bd 3d 7d 6e bd 3f 5f 61 bd
       -0.06639116 -0.033809643 -0.058224905 -0.055022474
000190 22 23 62 bd ca 44 7f bd c2 36 3d bd b2 1b dc bc
       -0.055209287 -0.06232146 -0.0461948 -0.026868675
0001a0 dc 45 b4 bc b6 7d ed bc dd 1c 15 3d 41 0d 5b bd
       -0.022005968 -0.028990608 0.03640448 -0.053479437
0001b0 db 30 18 bd b2 b3 06 bd c0 da cb bc 4a 04 44 bd
       -0.037155967 -0.032886215 -0.024884582 -0.047855653
0001c0 a5 df 7d bd ea 42 49 bd f2 11 47 bd 9d 3a 39 39
       -0.061980862 -0.04913608 -0.0486011 0.0001766481
0001d0 08 23 11 bd 16 c8 50 bd fb 44 0f bd 41 00 5f bd
       -0.0354338 -0.050972067 -0.034977894 -0.0544436
0001e0 74 d5 2e bc f9 df f5 bc af f4 99 bc d8 9f 0c 3d
       -0.010671008 -0.030014025 -0.018793432 0.034332126
0001f0 30 9d 1b bd 62 7e 93 bc 5a 18 19 bd 64 0d 34 bc
       -0.037991703 -0.0180046 -0.03737674 -0.010989521
000200 46 aa 29 bd 58 a9 e9 bc a7 36 5b bd c0 39 24 bd
       -0.04142215 -0.028523132 -0.053518917 -0.040094137
000210 20 6e 3d bd e8 d0 0e 3c 46 d5 33 bd 23 af c8 bc
       -0.0462476 0.008716799 -0.043904565 -0.024497574
000220 92 50 09 bd ab 10 32 bd fd b9 46 bd 6c 3f 3f bd
       -0.033524103 -0.043472927 -0.048517216 -0.046691343
000230 67 3f c9 bc d4 d8 18 bc 49 1f 04 3e 03 9d ab bc
       -0.024566365 -0.00932904 0.1290256 -0.020948892
000240 dd 94 29 bd c7 b3 1c bd 51 3e 03 bd b5 c1 1d bd
       -0.041401733 -0.038257387 -0.03204185 -0.03851481
000250 89 57 b3 bb b2 f7 cb bc aa d9 2f bd a9 b3 bd bc
       -0.0054730815 -0.024898384 -0.04293219 -0.023156958
000260 37 5a 74 bd c3 1b 21 bd ea 08 b7 3d 2b 45 31 bd
       -0.059656348 -0.039333116 0.08937247 -0.043278854
000270 5e 58 08 3c 5c a7 4d bd a3 7f 06 bd 6b a2 58 bd
       0.00832185 -0.050208434 -0.032836568 -0.05288927
000280 30 91 07 bd 44 d2 b8 3d d5 18 7e bc 5a d4 5b bc
       -0.033097446 0.0902448 -0.01550885 -0.013417328
000290 d2 51 10 bd 81 27 25 bd 03 ff 31 bd 20 21 84 bd
       -0.03523428 -0.040320877 -0.04345609 -0.064516306
0002a0 70 ba 68 bd 13 20 23 bd 9f a0 3d 3c 97 9c 7c bd
       -0.056818426 -0.03982551 0.01157394 -0.061672773
0002b0 f4 ba 4f bd 30 5a c4 bc 65 1c ce bc ba 2a f0 bc
       -0.0507154 -0.023968786 -0.025160024 -0.029317249
0002c0 dc b8 72 bc 53 03 7d bd 54 6f 5a bd d7 0e 44 bc
       -0.014814582 -0.06177075 -0.053328827 -0.011966429
0002d0 47 3b 39 bd 2b 46 4d bd 2b 93 2e bd fb 44 0e bd
       -0.045222547 -0.050115746 -0.04262082 -0.034733754
0002e0 48 28 84 bd 28 66 63 bd 9a 9e ef bc 5c 9d 37 bd
       -0.064529955 -0.055517346 -0.029250432 -0.044827804
0002f0 c1 d1 39 bd 9e cc 61 bd 4d a9 5f bd 71 63 10 bd
       -0.045366053 -0.05512678 -0.054604817 -0.035251085
000300 e5 aa 2a bd cf dc 84 bd 9c f4 24 bd 13 a7 ec bc
       -0.041666884 -0.064874284 -0.04027234 -0.028888261
000310 f9 9c 37 bd a7 1d 57 bd 50 18 38 bd 49 8e 0b bd
       -0.044827435 -0.052518513 -0.04494506 -0.03407124
000320 f7 36 58 bd ec 5b f6 bc 45 27 bc 3c c6 23 c4 bb
       -0.052786794 -0.030073129 0.022967944 -0.00598571
000330 da 07 03 bd 0a 2e 3e bd 1f 1b 46 3d 08 86 34 bd
       -0.03198991 -0.046430625 0.04836571 -0.044073135
000340 b9 96 39 bd bc ca 35 bd 87 7b 9c bb b7 fe ee 3d
       -0.045309756 -0.044382796 -0.004775468 0.11669677
000350 c1 70 13 bd af e8 e1 bc a2 03 72 bd 87 00 c5 bc
       -0.035996202 -0.027576772 -0.059085496 -0.024048103
000360 09 dd 55 bc 44 4a b5 bc 0f b2 15 3e c4 c9 40 bd
       -0.013053187 -0.02213014 0.14618705 -0.04706742
000370 3c 3f 03 bd be ea 4c bd fd 11 18 bd 78 48 20 bd
       -0.032042727 -0.050028555 -0.03712653 -0.03913161
000380 30 ec be bc ed 19 5f bc b9 e6 39 bd ec ef 6e bd
       -0.023305982 -0.013617021 -0.04538605 -0.058334276
000390 5d e4 50 bc ab 2d 54 bd d4 6a f2 bc 3d c2 7e bd
       -0.012749759 -0.051801365 -0.029591955 -0.06219696
0003a0 3e 23 22 bd 42 89 98 39 5a 37 95 3c 36 c2 60 bd
       -0.03958439 0.00029093964 0.01821487 -0.054872714
0003b0 99 aa 05 bd f3 fd 0a bd 25 68 3a bd 1b 7a 06 bd
       -0.032633398 -0.03393359 -0.045509476 -0.032831293
0003c0 fb a6 3c bd 1e dd 4a bd 32 f7 48 bd c5 5c e4 3b
       -0.046057682 -0.04952728 -0.04906387 0.006969067
0003d0 64 a8 05 3e 6d 08 09 bd 9b b5 e1 bc a7 5a 00 bd
       0.13052517 -0.0334553 -0.027552417 -0.031336453
0003e0 6b aa 4f bd 4e d6 26 bd d5 ff 10 bd 70 8e 96 bd
       -0.050699633 -0.04073172 -0.03540023 -0.073513865
0003f0 de 68 0c bc 2e 97 51 bd a3 96 a2 bc 13 d0 a8 bd
       -0.008569924 -0.051169567 -0.01984722 -0.08242812

bias f4 [15]
000000 d4 ca 45 bd f9 52 4c bd b4 57 34 bd 3c 41 3b bd
       -0.048289135 -0.049883816 -0.044028953 -0.04571651
000010 ca ca 72 bd 37 bc 5e bd 82 53 43 bd cd a2 48 bd
       -0.059275426 -0.054378714 -0.04768706 -0.048983384
000020 c4 bf 49 bd e3 98 36 bd ce e8 31 bd ee 15 4d bd
       -0.049255148 -0.044579398 -0.04343491 -0.050069742
000030 60 44 79 bd a0 99 4a bd 03 5a 4d bd
       -0.060856223 -0.049462914 -0.05013467
