lexicons/3.lexicon.ovr+dev/5/holdout_guncontrol/model.pth (torch, 121464 bytes, 1 tensors)

weight f4 [15, 2000]
000000 1d 87 22 3c ea 67 db 3c fb bb 6f 3c d3 c3 39 3d
       0.009919909 0.026782949 0.01463222 0.04535277
000010 e1 ec 26 bc 8c 46 87 bd a0 a5 4d 3d 00 2d ff 3c
       -0.010188312 -0.066052526 0.05020678 0.031149387
000020 58 54 2c 3d ad 7e 43 3d c6 8f c1 bd 9f fa 97 bb
       0.042072624 0.04772823 -0.09451251 -0.0046380307
000030 58 b1 80 3d f6 db 03 bd 6b 62 e4 3d 0d 2a 8f 3d
       0.06283826 -0.032192193 0.11151584 0.069904424
000040 3d c4 80 bb 04 55 75 3d 13 b5 a1 3c 31 66 0a bd
       -0.0039296434 0.05989553 0.019739663 -0.033788864
000050 7f 6a d0 3c 43 58 22 bd 99 38 89 3c 13 2f 25 3c
       0.025441406 -0.039634954 0.01675062 0.010082024
000060 f7 dd 41 bb 25 01 b5 bd 00 fc 0b bd 95 a3 b0 bd
       -0.0029581764 -0.08838109 -0.034175873 -0.08624951
000070 44 b2 85 bd 3a b4 92 bd 06 80 50 bd 74 32 d2 bc
       -0.06528142 -0.07163282 -0.050903343 -0.025658824
000080 f2 03 a0 3c ef bc 4b 3b 9b f3 7c bd fc 36 80 bd
       0.019533131 0.0031087955 -0.061755758 -0.062604874
000090 f7 e7 d6 bd d5 87 22 3c 05 7c f4 3d 74 9c b8 3d
       -0.104934625 0.00992008 0.11937717 0.09014216
0000a0 d5 00 c0 bc 0c d9 22 bc 9b 8c 51 3d 99 d1 1c bd
       -0.023437897 -0.009939443 0.051159482 -0.038285825
0000b0 67 a2 72 3d 9c 82 bb bd 21 2e 33 bd 51 b2 be 3d
       0.05923691 -0.09155771 -0.043745164 0.09311355
0000c0 39 76 45 3d c7 d7 99 bd a6 eb c3 bd fb 03 f9 3c
       0.04820845 -0.075118594 -0.09566431 0.030397406
0000d0 59 d1 86 bd 12 a8 9a bd 62 10 28 bd 05 86 e6 3d
       -0.06582899 -0.07551588 -0.04103125 0.11256031
0000e0 c3 78 df 3b 5c aa 9f 3d 1a b3 22 3c 4a 12 e6 bc
       0.006819816 0.07796165 0.009930396 -0.028084893
0000f0 ac 4b d5 3c 28 05 53 bd d5 b2 d4 3d d3 9e 4b bd
       0.02603706 -0.05151859 0.10385672 -0.049712013
000100 70 81 bf 3c 34 39 ba bd a7 a3 50 bb e3 31 1f 3d
       0.02337715 -0.09092942 -0.0031835826 0.038865935
000110 c6 03 d6 bd 60 40 a1 3d 59 27 e5 bc bd b8 24 3c
       -0.104499385 0.07873607 -0.027972864 0.010053811
000120 35 89 d4 bd 26 77 de bd 0a f7 4c bc 23 8e 1b 3d
       -0.10377733 -0.108625695 -0.012510071 0.03797735
000130 e1 55 0f bd f1 35 1b 3d 2b 22 7d 3d c6 cc 12 3d
       -0.03499401 0.03789324 0.061800163 0.03583982
000140 a0 1d a8 bd 92 7c 33 bb 2c 41 c7 bd f0 3b ec 3b
       -0.082087755 -0.0027387482 -0.097292274 0.0072092935
000150 34 5f ab bd 41 e7 af bd 76 83 1a bd 05 2a 51 bb
       -0.08367768 -0.0858903 -0.037723027 -0.0031915915
000160 19 15 8b bd 3d 0d 67 bc 40 34 b2 bd 9a c8 5e 3d
       -0.067911334 -0.014102277 -0.08701372 0.054390527
000170 8b a8 34 bd 75 14 b1 3d 59 37 c4 3b 6c fa b0 bd
       -0.044106048 0.0864648 0.0059880433 -0.08641514
000180 07 fd 48 3d b4 b3 4c 3d 6e 9a d9 bd 8a ad b0 bc
       0.04906943 0.049976066 -0.10625158 -0.021567125
000190 4e f1 df bd d0 ec 98 3d 8e b8 ff 3c 53 bb bb bc
       -0.10934697 0.074670434 0.031215932 -0.022916472
0001a0 a5 2d cd 3d 00 d5 1c bc cb c9 80 3d 7c e2 ab 3d
       0.10018472 -0.0095722675 0.06288489 0.08392808
0001b0 3b c9 71 bc fc 79 e7 bd 1f 04 eb 3b 1b 9a c9 3d
       -0.01475745 -0.113025635 0.007172122 0.098438464
0001c0 0a 78 b5 3d a9 df 8a 3d f6 2e 01 bc 19 0e 30 bd
       0.08860786 0.06780941 -0.0078847315 -0.042982195
0001d0 34 0b 09 3d 87 3e 85 bc 9e 36 5f 3d af b3 a3 3d
       0.03345795 -0.016265167 0.054495446 0.07993256
0001e0 a0 8a e1 3b 2a 9f 6a bd 92 9f 1d 3c 21 67 9b bd
       0.0068829805 -0.057280697 0.009620564 -0.0758803
0001f0 71 c4 7a 3b 43 8c 47 bd 03 31 b2 bd 47 49 57 3d
       0.003826406 -0.04871775 -0.087007545 0.052560117
000200 b2 94 b9 3d cb 65 39 3d 7f 0c 05 3d a7 b5 b8 3c
       0.090615645 0.045263093 0.03248262 0.022547556
000210 a1 72 98 bd f4 a4 36 bd 0c bb 71 bd 81 08 ba bc
       -0.07443739 -0.044590905 -0.059016272 -0.022709133
000220 0b 10 1b 3d bf 6d cd 3d 07 f4 b6 3d 5e d8 3c bd
       0.037857097 0.10030698 0.08933263 -0.04610478
000230 4c a4 6d bc b1 22 e6 bc bb 13 ce bd 16 35 61 3d
       -0.014504503 -0.028092714 -0.10062357 0.054982267
000240 73 da 0f 3d 0e 58 34 bd 2c 0c 38 bc 60 88 8a 3d
       0.03512044 -0.044029288 -0.011233371 0.06764293
000250 9c 10 01 bd 8b 7e 54 3b 1f e4 7e 3c d4 4c e3 bd
       -0.03150998 0.0032424058 0.015557318 -0.11098638
000260 0d 92 d7 bd 4a 71 8e bc 65 dc d8 bd 75 cb 32 3d
       -0.10525904 -0.017388005 -0.10588912 0.043651063
000270 1a 68 f2 bd 27 2f 84 bd d1 d3 80 3d 83 57 65 3d
       -0.11836262 -0.06454306 0.06290401 0.05599166
000280 58 3b 39 bd b7 46 e2 bc ab c3 c7 bc 4e 0d 60 bd
       -0.04522261 -0.02762161 -0.024385294 -0.05470019
000290 a6 1c a5 3b fc f6 de bc 98 90 a3 bd f2 d0 84 3d
       0.0050388156 -0.02721738 -0.079865634 0.06485166
0002a0 1e 7f 8e bd 22 b6 0a 3e 0d b6 ae 3d f7 cb a7 bc
       -0.069578394 0.1354604 0.08530817 -0.020483
0002b0 21 8c 84 bd 06 00 c9 3c 6e 2b 9d bd 19 25 90 3d
       -0.0647204 0.024536144 -0.07674299 0.07038326
0002c0 1d be ce bd ed 63 d6 bd a9 03 be bd 7e 3f 49 bd
       -0.10094855 -0.10468278 -0.09278042 -0.049132816
0002d0 17 a1 02 bd 44 01 8a bd 5d 83 11 3e a6 f5 9b bc
       -0.03189191 -0.06738523 0.14210267 -0.019038033
0002e0 a5 0c d3 3a 91 33 8e 3d 47 ae 32 3d 03 9c 94 bd
       0.0016101791 0.06943429 0.043623235 -0.072563194
0002f0 00 fb a1 bb 2a 3d 2d bc 96 1d 8c 3d 69 4c ef 3d
       -0.0049432516 -0.010573665 0.068415806 0.11684496
000300 ee d9 6e bd 63 51 af bd 74 b8 45 3d c2 21 fd 3c
       -0.058313303 -0.08560445 0.04827161 0.030899886
000310 02 28 a9 bd 47 76 01 3d a7 57 be bd 6d e1 7e 3d
       -0.08259584 0.03160694 -0.09294062 0.0622267
000320 65 19 02 3e 99 11 a3 bd b3 70 cf 3c 38 1c f0 3d
       0.12705 -0.07962341 0.025322294 0.11724132
000330 51 79 cf bb 22 05 06 3e 83 0c bd bd 9c d5 1d bd
       -0.0063316007 0.13087896 -0.09230902 -0.038533792
000340 d8 b1 39 3d bb a8 b0 bd 33 c2 e1 bd 6b 52 d4 3d
       0.04533562 -0.08625933 -0.11023369 0.103672825
000350 85 c4 b3 bd 10 cc 33 bd 56 a9 ad bd 60 85 73 3c
       -0.087777175 -0.04389578 -0.08479564 0.014863342
000360 58 b7 73 3b 6f 17 f8 bd 8b dd d1 bd a5 c3 91 bd
       0.0037188139 -0.121138446 -0.10247334 -0.07117394
000370 92 cd b1 3d 98 71 7d 3d aa 3a bb bd 2d 0a 47 3d
       0.086817876 0.06187591 -0.09142049 0.04859369
000380 82 ec e7 bc 99 f5 51 3d 3f bb 97 bc f7 84 2d 3d
       -0.028311018 0.05125961 -0.018521903 0.042363133
000390 5e d1 05 bd 7f 2b ca bd 29 7f d9 3d 5a a5 88 3d
       -0.03267037 -0.098715775 0.10619957 0.06672163
0003a0 c1 7e 60 bd 89 f4 47 bd 5e af 7e bd 26 0e ab bb
       -0.054808382 -0.04881719 -0.062178962 -0.0052201925
0003b0 7d 9f 3c 3d 7b 0d 28 bd b5 78 d2 3d ea 4f 65 3b
       0.046050537 -0.04102848 0.10276929 0.003499026
0003c0 e9 46 71 bd 04 d5 84 bd e6 28 e0 3d 47 e3 ed bc
       -0.058905516 -0.06485942 0.10945301 -0.029039038
0003d0 41 91 57 bd 4d 4a c5 bd fd ed 67 3c 65 a7 d0 bd
       -0.05262876 -0.096333124 0.014155862 -0.10188178
0003e0 80 e1 a3 bd 42 f4 de bc 19 32 7c 3d ba 7a a1 bd
       -0.08001995 -0.02721608 0.061571214 -0.07884736
0003f0 3e 1e 4e 3d 24 16 d3 3b cc f5 8f bd 93 e9 19 bd
       0.05032181 0.0064418484 -0.07029304 -0.03757627
