lexicons/1.lexicon.ovr/climate/model.pth (torch, 91777 bytes, 2 tensors)

weight f4 [15, 1500]
00000000: 8aab 1abe b42d 293d 7201 253e ad23 53be
00000010: c003 123e ef4c 36bd 5537 79bc 6239 803b
00000020: 54c0 a83c 6c21 f039 aeeb 68bb afe2 2bbe
00000030: 2bda 333c ffc6 d13c 5b1e 7ebe ecdc 34be
00000040: 52b2 053e b895 c2bd 5e3f e0be b11c cebc
00000050: 192f d73d 89fb 213d e67a 50bd 11f7 823d
00000060: 96f0 92be b0ac 69be c2a8 bcbe c9e1 36be
00000070: 693a 03bc 7d2b 36be 1ba6 603c 2cf1 313d
00000080: dcad ccbe 5f29 86be 8beb 59be a92f e7bd
00000090: e21e c0bd 5769 5fbd d812 20be ea75 01bf
000000a0: 798d 81be f369 61be ea6d f9bd d075 dabe
000000b0: c83d df3b 509d 393d 22cc a2be f8a3 2f3e
000000c0: 7f00 f63d d9a9 5bbe 0910 32be 0718 133c
000000d0: 05d4 5abe 67f2 aabd 4ac1 33be df88 b7be
000000e0: fc66 083e 1d1c 7bbe d77c 243e b440 0b3e
000000f0: 1efd 3fbd a132 783c 7a7b 8d3d 1007 6c3d
00000100: 3d3b c03d 58f3 13bf af4c 8d3d b6c3 02bf
00000110: 18ef bc3e 0d03 0c3e de85 0cbf 8843 b9bd
00000120: 084a 4b3f 9d6a 81bc fd3b 39be 3b61 02be
00000130: 87fa 4fbd a7bd 8f3e 4274 273e 720f 1c3f
00000140: bfa8 7bbe 37e1 0bbf 7b2b b5be 31ce 04bc
00000150: 0511 bfbe f47a 89ba 21b1 fc3d 40ed 423e
00000160: 13da eb3d 727a afbe da17 c6be 04ed a3be
00000170: 4284 9d3e ea99 20be 987f 963d bdaf 15be
00000180: 1ab6 14be aaf2 683e ba94 c13c aece 58bd
00000190: 9e4a 153f 589f 34be c14c 32bd cf6f 933e
000001a0: 3ab9 0fbe 44b8 cbbe 4e23 08be 1cb1 8bbe
000001b0: e7b0 273f 3149 bdbc 71ab e93d ede0 f7be
000001c0: 035d eabe b573 ab3d 446b 373d 471e 9a3d
000001d0: 7ed2 b23e 6a34 463e 1b67 94be e964 ad3e
000001e0: 5bce 653d cf31 14bd 3a6f 63be 8d45 eabe
000001f0: 46f7 00be c398 563e b69e 94be ad94 84be
00000200: 34ce cbbe 8173 533f 9d91 993d 5172 afbe
00000210: b640 8dbe 891e 1dbe a355 4c3d 5520 d1bc
00000220: e622 75bc e757 d9bc cefc e4be d229 44bd
00000230: 6293 2fbe 4b96 25be 150a a9be 1a1a b53e
00000240: acef 00be 1014 cdbe d2c7 ff3e 1472 60bd
00000250: bb07 033f 9198 7dbe 6df5 7e3d d035 053c
00000260: f71b 17bd e6e0 44b9 b81b 86be 7bb7 1c3f
00000270: 47f3 ca3d 7f00 45be 7549 b63e 9427 a63e
00000280: 63c4 f4bd 8be8 f7bd 78a7 07bf 827e 01bf
00000290: 17e3 d4be bf42 1a3f 0f7a b3be a582 f4be
000002a0: fc3e e2be 27ce 17be e4dc 1e3c fa1b 89be
000002b0: 97a0 84bd a038 ebbd 0ffc b6be 69ac 023e
000002c0: 1a87 a4bd 129f 633d dc19 a3be cc18 a2be
000002d0: 3448 cdbe bead 69bc 33bf 22bf 8314 633e
000002e0: ee1c 8b3d ea83 34be 792a 773e 664a d6be
000002f0: 9d57 003f 44df c1be a962 f1be 9d84 743e
00000300: baa0 bd3e ac4b a63d aa79 8abe b07d d1be
00000310: 8ba5 b7bd f78d 06be 6231 1bbe d2a1 693e
00000320: bc3c dabe e849 02bf c469 553d d3ba b43d
00000330: aa76 9abe 9383 7abd 2424 16bf b4ba d93e
00000340: 7b3f 143e 41da 86be 2abe 83be 0b06 bd3e
00000350: 2b45 393f 2c21 3a3d 32cf d93e b5aa 53be
00000360: 0fcc 50bd ea70 8cbe 0f71 bfbd 3f8d bcbd
00000370: fef8 f7bd 8fbc 02be 0d57 313e 2a47 02bf
00000380: d790 b83d b4a8 e8be f3f2 4d3c 7ef3 d03e
00000390: 0636 bbbe 17c8 73bc 7b62 a73d 7205 19be
000003a0: 7221 31bf 77e2 273e b344 533e adae 6f3d
000003b0: e55b 5cbe c677 b83e e878 d1be 49f6 6dbe
000003c0: 77ce 9a3e 3dcf bbbe 88cb 39be 3600 dc3e
000003d0: eb4e 59be 5561 c8bc cade 9dbe ddaf 493f
000003e0: 1c36 6e3e 8983 9ebe c095 d3bd 5b61 af3e
000003f0: fa74 ca3e b409 05be 7a62 52be 72f1 a0bd
-0.151045 0.04130335 0.16113833 -0.20619078 0.14259243 -0.044506963 -0.015210946 0.0039130906
0.020599522 0.00045801268 -0.0035540867 -0.16785692 0.010977308 0.025607584 -0.24816267 -0.176624
0.13056305 -0.09501213 -0.43798345 -0.025160166 0.1050703 0.039546523 -0.050898455 0.063947804
-0.28699178 -0.22819781 -0.36847502 -0.17859568 -0.008009532 -0.17790027 0.013711478 0.04344289
-0.39976394 -0.2620344 -0.21281259 -0.11288387 -0.093808904 -0.05454382 -0.15632188 -0.5057055
-0.25303248 -0.22013073 -0.121791676 -0.4266801 0.006812785 0.04531604 -0.31796366 0.17152393
0.12011813 -0.2145151 -0.1738893 0.0089778965 -0.21369942 -0.08347016 -0.17554203 -0.35846612
0.13320535 -0.24522443 0.16063248 0.13598901 -0.04687225 0.01514879 0.06908317 0.057623923
0.09386299 -0.5779319 0.06899392 -0.5107988 0.36901164 0.13673039 -0.54891765 -0.09046084
0.7940984 -0.015797907 -0.1808929 -0.12732403 -0.05077603 0.2807438 0.16352943 0.6096107
-0.2457609 -0.54640526 -0.35384735 -0.0081058005 -0.37317672 -0.0010488913 0.12338472 0.19035816
0.11516204 -0.34273106 -0.38690072 -0.32016766 0.30764967 -0.15683714 0.07348555 -0.1461782
-0.14522591 0.22748819 0.023630489 -0.05293148 0.5831698 -0.1763891 -0.04353023 0.2879624
-0.14035502 -0.3978902 -0.13294718 -0.2728356 0.65504307 -0.02310619 0.11409653 -0.48413792
-0.45774087 0.08371679 0.04478003 0.07525306 0.34926218 0.19355932 -0.28984913 0.3386605
0.056105 -0.036180314 -0.22210398 -0.45756188 -0.12594327 0.20956711 -0.29027337 -0.2589468
-0.39805758 0.8259812 0.07498477 -0.34266904 -0.27588433 -0.1534368 0.049886357 -0.025528112
-0.014961934 -0.026531173 -0.44724125 -0.047891445 -0.17146066 -0.16170613 -0.33015504 0.35371476
-0.12591428 -0.4005437 0.49957138 -0.054796293 0.5118367 -0.2476523 0.062245775 0.008130506
-0.036891904 -0.00018775798 -0.26193023 0.6121747 0.09909683 -0.1923847 0.35602918 0.3245207
-0.1195152 -0.12104901 -0.5298991 -0.5058366 -0.41579506 0.60258096 -0.3505406 -0.47755924
-0.44188678 -0.14824735 0.009696219 -0.26779157 -0.064759426 -0.1148541 -0.3573918 0.12761082
-0.08033581 0.055571623 -0.31855667 -0.31659544 -0.4009415 -0.014262615 -0.63572997 0.22175793
0.06792627 -0.17628446 0.24137296 -0.41853637 0.5013369 -0.3786565 -0.47145584 0.23878713
0.37036687 0.08119902 -0.27045947 -0.40916204 -0.08967122 -0.13140093 -0.15155557 0.22815636
-0.42624462 -0.5089402 0.05210282 0.088246964 -0.30168658 -0.061160635 -0.58648896 0.42525256
0.14477341 -0.2633839 -0.2573102 0.36918673 0.72371167 0.04544179 0.4254089 -0.20670588
-0.050975855 -0.27429897 -0.09347736 -0.09206628 -0.12108038 -0.12767242 0.17318363 -0.5088984
0.09012001 -0.4544121 0.012570131 0.4081077 -0.36564654 -0.014879248 0.081730805 -0.14943483
-0.6919166 0.16394983 0.20631675 0.058516193 -0.2151943 0.3602888 -0.40912557 -0.23238482
0.30235645 -0.36681548 -0.18144047 0.4296891 -0.21221511 -0.024460474 -0.30834037 0.7878397
0.23262829 -0.30959728 -0.10331297 0.34253964 0.3954237 -0.12991983 -0.20545378 -0.07858552

bias f4 [15]
00000000: 7854 3fbe dbde 0bbf fd06 01be a26c 06be
00000010: 212f 01be 90fc a9be f8bd 00be 9f02 0dbe
00000020: 7a10 19be ccc7 48be b55d a4bd 33c2 26be
00000030: b8f7 84be c2ef 80be 1fe2 00be
-0.18684566 -0.54636925 -0.12600322 -0.13127378 -0.12615635 -0.33200502 -0.12572467 -0.13770531
-0.14947692 -0.19607466 -0.08025686 -0.16285019 -0.25970244 -0.2518292 -0.12586258
