lexicons/1.lexicon.ovr/climate/model.pth (torch, 91777 bytes, 2 tensors)

weight f4 [15, 1500]
000000 9a 33 15 be 00 2f 10 3d 73 ee 15 3e 88 7f 45 be
       -0.14570466 0.035201073 0.14641742 -0.1928693
000010 16 db 08 3e 4b 63 36 bd 29 89 93 bc e6 7e 74 3b
       0.13364825 -0.044528287 -0.018009739 0.0037307083
000020 d6 3c 91 3c 77 f6 4b ba 9f 6a 9e bb 8d 51 22 be
       0.017729204 -0.00077805616 -0.0048344876 -0.15851422
000030 1c 2b 54 3c 2a 06 b6 3c 29 97 6d be d2 ec 2d be
       0.012949731 0.022219736 -0.23202194 -0.16984871
000040 df 0a 02 3e e5 b5 b8 bd 58 68 d9 be 87 bb ec bc
       0.1269946 -0.09019069 -0.4246242 -0.028898014
000050 34 fd d6 3d 61 ec f9 3c 35 41 5c bd 5d 7f 74 3d
       0.104975134 0.030508222 -0.053773124 0.059691776
000060 4b 5f 8e be d3 8d 61 be fd 25 b7 be bd 67 2e be
       -0.27807078 -0.22026758 -0.3577117 -0.1703176
000070 92 87 98 bb 4a bd 31 be 99 98 11 3c f2 86 1f 3d
       -0.004654833 -0.17357364 0.00888648 0.038947053
000080 2b ea c2 be 19 1c 83 be da 9f 52 be 5d 34 df bd
       -0.3806928 -0.25607374 -0.20568791 -0.108986594
000090 07 c4 b9 bd 7b 4b 63 bd 89 c9 17 be 38 aa ef be
       -0.090705924 -0.055491906 -0.14822973 -0.46809554
0000a0 1a f6 76 be cd 88 5f be f6 c5 f8 bd fd 99 cf be
       -0.24117318 -0.21829529 -0.12147133 -0.4054717
0000b0 78 8b a9 3b 57 6b 2c 3d 04 1b 9c be 2f bf 27 3e
       0.0051740967 0.042094555 -0.3048936 0.16381525
0000c0 e6 a0 e6 3d f6 57 53 be b7 76 30 be ea 92 9e 3b
       0.11261158 -0.20639023 -0.17232786 0.004839291
0000d0 b2 1c 4f be 52 eb a9 bd dd 7a 2b be ea 42 b0 be
       -0.2022579 -0.08296837 -0.16746087 -0.3442605
0000e0 85 fa 01 3e d5 c0 76 be 46 e5 1d 3e a7 03 01 3e
       0.12693222 -0.24096997 0.15419492 0.1259905
0000f0 cf 8a 3b bd 82 d6 2e 3c b8 79 8a 3d 39 1a 77 3d
       -0.045786675 0.01067126 0.06761497 0.060327742
000100 78 f4 bb 3d 65 97 11 bf 40 19 7c 3d 62 49 fb be
       0.09177488 -0.56871635 0.061547518 -0.49079424
000110 35 c5 b5 3e cb 8b 05 3e 09 92 06 bf 6c 84 c2 bd
       0.3550202 0.13041608 -0.5256658 -0.09497914
000120 04 63 4a 3f 62 bc ad bc fc dc 34 be 0b 33 f7 bd
       0.79057336 -0.021207992 -0.17662424 -0.120702825
000130 08 1d 5f bd 19 c3 86 3e 16 87 24 3e fc 33 1b 3f
       -0.054471046 0.26320723 0.16067156 0.60626197
000140 3e 0f 72 be 3e ee 09 bf 4f fa af be 5a 64 ed bb
       -0.23638627 -0.53879154 -0.34370658 -0.007244629
000150 a3 4e b9 be 5e ed 73 bb 33 bc ea 3d 45 1b 38 3e
       -0.36192808 -0.003722034 0.114616774 0.17979153
000160 1c 76 e0 3d 45 d7 a7 be 0d c8 bc be 81 75 98 be
       0.109600276 -0.32781425 -0.36871377 -0.29777148
000170 fd d3 93 3e 57 ea 1a be bf c4 89 3d 92 ba 10 be
       0.28872672 -0.15128456 0.067269795 -0.14133671
000180 bd f2 10 be 81 29 54 3e 51 3d 6c 3c d4 0a 5a bd
       -0.14155097 0.20718957 0.014418916 -0.053232983
000190 52 94 12 3f 44 f8 28 be 71 16 27 bd 3d f2 88 3e
       0.5725757 -0.16500956 -0.040792886 0.26747313
0001a0 41 69 08 be d1 a8 c5 be 76 9d 07 be 28 cc 86 be
       -0.13321401 -0.3860536 -0.1324366 -0.26327634
0001b0 53 08 24 3f 73 22 8e bc 11 7b e0 3d fe 20 f3 be
       0.640752 -0.017350411 0.10960973 -0.4748611
0001c0 8c 11 df be 96 91 a7 3d 6b c6 18 3d 2d f8 96 3d
       -0.43568075 0.08182065 0.0372986 0.073715545
0001d0 ed ec a8 3e e2 f2 3c 3e cf e5 8a be 4a dd a6 3e
       0.3299326 0.18452027 -0.27128455 0.32590705
0001e0 f3 a9 47 3d 14 ca 1f bd 43 67 60 be 01 61 df be
       0.04874606 -0.039011076 -0.21914391 -0.43628696
0001f0 7b 0d fe bd 9d 09 4d 3e 4e 84 8f be 76 a7 7b be
       -0.12404915 0.20023198 -0.28030628 -0.245756
000200 06 cb ba be cd 5a 51 3f 21 16 a1 3d b0 f7 aa be
       -0.3648302 0.81779176 0.07865549 -0.33392096
000210 74 11 89 be b8 17 1f be 01 2b 3d 3d 7c 6b a6 bc
       -0.26771128 -0.15536392 0.04618359 -0.020314924
000220 e1 48 64 bc 56 e2 d6 bc bf 86 df be a4 c8 3a bd
       -0.013933391 -0.026230972 -0.4365749 -0.045601502
000230 44 73 2f be 93 44 1c be f0 3f a1 be 77 14 ad 3e
       -0.17133814 -0.15260534 -0.31494093 0.33804676
000240 e7 ea f2 bd 67 ab c9 be 5c db fb 3e 9a 7e 4c bd
       -0.1186121 -0.39388582 0.49190795 -0.049925424
000250 43 d2 fe 3e 21 5f 71 be 76 54 69 3d 43 6a a0 35
       0.49769792 -0.23571445 0.056965314 1.1951855e-06
000260 36 64 0d bd b1 b1 18 3a 66 24 82 be 57 c9 13 3f
       -0.034519397 0.0005824818 -0.25418395 0.57729095
000270 42 9a c8 3d 8c 46 39 be 2e 44 af 3e 14 40 9f 3e
       0.09795047 -0.18093318 0.34231704 0.31103575
000280 53 65 f6 bd 81 1d f3 bd c5 a9 05 bf e6 a0 fc be
       -0.12031045 -0.11870862 -0.5221217 -0.49341506
000290 b1 f9 cc be 81 75 18 3f d4 c6 ae be 5c d9 e3 be
       -0.4003425 0.59554297 -0.3413607 -0.4450177
0002a0 8e 1b d8 be 83 21 18 be c5 79 80 3b fb b8 84 be
       -0.42208523 -0.14856534 0.003920766 -0.2592238
0002b0 2f c7 86 bd 72 5d df bd 36 57 af be 0d 6e 04 3e
       -0.0658096 -0.10906495 -0.34246224 0.12932606
0002c0 99 f3 ab bd 47 77 36 3d 85 b3 9b be e2 ff 9b be
       -0.08396072 0.044547345 -0.304104 -0.3046866
0002d0 25 16 c5 be e5 16 9c bc 06 5b 20 bf d2 de 51 3e
       -0.38493457 -0.019053886 -0.6263889 0.20495155
0002e0 c8 44 85 3d 13 06 2a be d1 66 69 3e 9c 28 c7 be
       0.065072596 -0.1660388 0.22793128 -0.3889817
0002f0 e2 13 f7 3e 66 35 b8 be 68 59 e9 be 70 a6 65 3e
       0.48257357 -0.3597824 -0.45576024 0.22426772
000300 0b 60 b7 3e f6 1c a6 3d 9f 23 83 be 75 f8 c8 be
       0.35815462 0.081109926 -0.25613114 -0.39252058
000310 27 f9 aa bd 7f 82 f3 bd 0c b0 1b be 97 f7 57 3e
       -0.08348303 -0.118901245 -0.15203875 0.21090542
000320 3c fa d4 be ed 26 f4 be f0 05 2f 3d 38 6f a3 3d
       -0.41597164 -0.47685948 0.04273027 0.07980198
000330 c8 51 97 be 90 28 5a bd c5 a7 13 bf a9 bb d5 3e
       -0.29554582 -0.05326134 -0.5767787 0.41744736
000340 ee c9 0c 3e 2e 1b 7d be b5 72 7c be d7 8f b9 3e
       0.13748905 -0.247174 -0.24653132 0.36242554
000350 d3 e6 32 3f 9a e8 3d 3d 28 df d5 3e dd 63 4b be
       0.6988346 0.046364404 0.41771817 -0.19862314
000360 ce 84 51 bd f2 31 87 be ef 3d ae bd 22 ed ac bd
       -0.051152043 -0.26405293 -0.08507907 -0.08443667
000370 e2 48 f5 bd 31 60 05 be ee a8 27 3e 6a bc f8 be
       -0.11976792 -0.13024975 0.16373035 -0.4858125
000380 d9 60 b2 3d b2 ea df be 01 9a 8e 3c 2d 0c c8 3e
       0.087098785 -0.43733746 0.01740742 0.3907179
000390 14 03 b6 be 2a 6c 5c bc dc 25 a9 3d 50 db 14 be
       -0.35549223 -0.013453523 0.08259174 -0.14536786
0003a0 56 23 2d bf b5 1a 19 3e 63 3c 4a 3e d8 d1 64 3d
       -0.67632043 0.14951594 0.19749598 0.055864185
0003b0 0a 1e 53 be c1 32 ae 3e 7b 8a cc be 6f a4 66 be
       -0.20616928 0.34023097 -0.39949402 -0.22523664
0003c0 9d 7b 95 3e 59 bd b2 be 12 f0 31 be 7a 8c d3 3e
       0.29195872 -0.34910086 -0.17376736 0.41318113
0003d0 42 98 5b be 53 7a 84 bc 5b ec 9a be 6f aa 46 3f
       -0.214448 -0.01617161 -0.3025845 0.7760381
0003e0 5a ba 68 3e de e5 98 be 10 e8 c4 bd 86 97 a8 3e
       0.22727337 -0.29862875 -0.09614575 0.32928103
0003f0 9a ab c4 3e ad f6 01 be 2e 89 50 be 57 30 9f bd
       0.38412172 -0.12691756 -0.2036483 -0.07772892

bias f4 [15]
000000 aa 02 38 be 6b 09 05 bf 07 11 01 be 80 48 05 be
       -0.17969766 -0.51967496 -0.12604152 -0.13015938
000010 ea df 02 be 53 b1 ad be d2 52 00 be 43 54 0d be
       -0.12780729 -0.3392435 -0.12531593 -0.13801675
000020 1d 47 1c be ad 09 47 be 4a fc a3 bd e7 39 29 be
       -0.15261503 -0.19437285 -0.08007105 -0.16525994
000030 9d 46 88 be 6c a8 7a be 4a 75 02 be
       -0.26616374 -0.2447831 -0.12740055
