lexicons/1.lexicon.ovr/samesex/model.pth (torch, 91841 bytes, 2 tensors)

weight f4 [15, 1500]
00000000: 082f d7bd b077 aabc 8436 84bd 457b 98bd
00000010: 23f0 24be 8e7e eebd 5618 063d 5fd1 aabd
00000020: eb63 32be 6fae ffbd dd99 3dbe f5df 8b3c
00000030: bca4 c8bc 9b05 10bc d759 c0bd 84cb 49be
00000040: 7893 25be c247 77bd 9aa5 86bc 5aa8 1ebd
00000050: f897 d8bd 3108 91bd ef99 073d d34e e83d
00000060: 685c 38be fd39 203d df73 4dbe 9325 05bd
00000070: 9ca7 2bbe 1f09 b7bc 238b 39bd cb75 643d
00000080: e3b4 12be c0de 12be b1fa 65be 3601 913b
00000090: de62 ed3c c397 82bd ed5b 4e3e 72e2 58be
000000a0: af63 143e 43d1 22be 6bbf 52be 62f7 1abe
000000b0: 4e34 013c 82d0 353d 40b2 6abe 6e25 49bd
000000c0: 0acb 383d d9c1 fcbd 4e11 fcbd f454 11be
000000d0: 5f81 24be 299b adbd c693 a2bc 0b5f 45be
000000e0: 946b 2dbe d73a 68be debb f93d baf8 43bd
000000f0: b1ae e5bd 32aa bcbc 5d14 7abe c1b5 a73d
00000100: e89e 51be 17ae 38be e00c 78be a423 163e
00000110: d6a5 84be 2de1 38be 6278 60be fe03 483e
00000120: 27a8 c03c 4289 60bd 6720 33be b2d8 61be
00000130: 83e8 bdbc 9f34 d7bd 8ffd 78bd 2604 ecbd
00000140: f567 2dbe e33a c0bc 0ccb 07be 773d 8e3e
00000150: bc21 90bd 76a4 0cbe 6ebc e8bd 231a 473e
00000160: 0660 413e 5b1e 1cbe a391 da3d a5b6 ed3d
00000170: 1683 30bd 980b d2bd 15d0 8fbc 68af a1be
00000180: ee8a 8dbe 3c9a 78be 3433 a7bd b231 69be
00000190: 3bea 0d3c 5549 1c3e 1f28 193d c18e edbd
000001a0: e11b 2bbe 4697 99be c80c ba3e a1d7 21be
000001b0: 58a1 0cbc b4a1 7dbe 3935 0d3e eccc 49be
000001c0: b7c5 2ebd 12bc 8cbe 5d22 81be 0c3c 28bc
000001d0: 1e4c 26be a75b 18bb be3b ba3d c4bd 23be
000001e0: f1e3 cbbe abff 05be 4234 51be 90bf c1bd
000001f0: 1dd5 583e 6b11 28be a09d 87be ab71 813d
00000200: fe88 d6be 6606 e8bd ee9f e0bd 047c 073e
00000210: 7b95 62bd a3fe 8fbe bd18 c8be 1543 58bd
00000220: f162 1abd 0eb8 343e f6b6 2fbe d13f 4c3d
00000230: 1752 72be 5457 3fbe d9e8 733d ccb2 76be
00000240: d265 bbbd 8411 cebd 2642 b0be 2cb9 87bd
00000250: 4046 67bc d4a1 92be 3d30 753b 52d7 9ebe
00000260: bfca 79be a431 dfbd b870 093d 0697 e43c
00000270: a399 bd3d 32f4 1bbe 1262 59be 57cc 00be
00000280: 51e6 06bd 02ce 073c 2dc7 92bd 1667 cfbd
00000290: b1d6 20be eae8 bb3d 3206 7bbe f24c 7f3e
000002a0: b3a1 8cbc 147c db3e 6195 afbd 48bd 8cbe
000002b0: d976 003e a06f 71be 054f 90be a82a 11be
000002c0: ab3c adbe b161 843e 6256 85bc e97b 023c
000002d0: 3c73 a63e 37e6 63be ea4f 33be 56b6 01be
000002e0: 0d45 c83d 88ff d23d 6a49 d2be 5d50 823e
000002f0: 8f8e a8be 2f45 453e 20ff 9e3d ff52 00be
00000300: b84a 1cbe cf06 acbd 0408 35be 9358 67bb
00000310: ce13 eb3c 85d6 30be 62b2 a1be 6593 78bd
00000320: 0e48 81be 543b 0e3e 116d 57bd 3be0 f53d
00000330: c62b 39be b44e c8be 6bae 813d b2d9 e9bc
00000340: de05 afbe 6787 a4be f3cc a5bd cc2a dc3d
00000350: 71ea 12be 91ad e6be 132f adbe 586e 0e3e
00000360: e615 1dbc c09d 073d 2941 20be 875c 5cbc
00000370: a8c1 10be 9d7d af3d 5a57 4abe 56ac e93c
00000380: 50d6 3dbe 02c9 99be 7c8c c1bd 9a94 56be
00000390: e1ae 84bd 742f 42be f3c4 aebd 1a78 cdbd
000003a0: 5836 7d3e 5f43 093b e397 153c e725 62be
000003b0: 8876 a3be e8ad 57be e8c9 43be 1ae3 593e
000003c0: fa6d 23be a4a3 36be a5dc c6be a148 6dbe
000003d0: 4ff3 0cbe 4319 d6bd 28ea 5bbe 886a 93bd
000003e0: 5aa1 13bd a06f babc acc4 943e 69ab abbc
000003f0: bfed 25be 86f4 37be 644b 233d 265d cfbe
-0.105070174 -0.020809025 -0.064557105 -0.07445387 -0.1610723 -0.11645232 0.032738052 -0.083407156
-0.17420928 -0.124844424 -0.18515725 0.017074564 -0.024492614 -0.008790399 -0.093921356 -0.19706541
-0.16169536 -0.060371168 -0.016436387 -0.03873477 -0.10575861 -0.070816405 0.033105787 0.113431595
-0.18004 0.039117802 -0.20063733 -0.032506537 -0.16763157 -0.022343216 -0.045298707 0.0557764
-0.14326815 -0.14342785 -0.22458912 0.004425193 0.028977808 -0.063766025 0.20152254 -0.21180132
0.14491151 -0.1590014 -0.20580833 -0.15133432 0.007886006 0.0443883 -0.2291956 -0.04910796
0.04511551 -0.12341661 -0.12307988 -0.14192563 -0.16064976 -0.0847686 -0.019845854 -0.19274537
-0.16935569 -0.22678696 0.12194036 -0.047844626 -0.1121496 -0.023030374 -0.2442183 0.08188964
-0.20470774 -0.1803516 -0.24223661 0.14662033 -0.25907773 -0.18054648 -0.21920922 0.19532773
0.023517681 -0.0548184 -0.1749283 -0.22055319 -0.02318216 -0.105080836 -0.060788687 -0.11524229
-0.16934188 -0.02346558 -0.1326105 0.2778127 -0.07037684 -0.13734612 -0.11364065 0.19443564
0.18884286 -0.15245955 0.10672309 0.11607102 -0.043093763 -0.102561176 -0.017555276 -0.31579137
-0.27645057 -0.24277586 -0.08164063 -0.22772864 0.008661802 0.15262349 0.037391778 -0.11599494
-0.16709854 -0.29998225 0.36337876 -0.15804912 -0.008583389 -0.24768716 0.13789834 -0.19707078
-0.042669024 -0.27487236 -0.2522153 -0.010268223 -0.16239974 -0.0023247988 0.09093426 -0.15990359
-0.39822343 -0.13085811 -0.20430091 -0.09460366 0.21175046 -0.16412894 -0.26487446 0.063205086
-0.41901392 -0.113293454 -0.10968004 0.13230902 -0.055318337 -0.2812396 -0.39081374 -0.05279835
-0.037692014 0.17648336 -0.17159638 0.049865548 -0.23664127 -0.18685657 0.059548233 -0.24091643
-0.0915028 -0.100619346 -0.34425467 -0.066271156 -0.01411587 -0.2863909 0.0037412785 -0.3102365
-0.24393748 -0.1089814 0.033554763 0.027904045 0.092578195 -0.15229872 -0.21228817 -0.1257795
-0.03293449 0.008288862 -0.07166896 -0.10127084 -0.15706898 0.09175284 -0.24514082 0.24931696
-0.017166948 0.42868102 -0.08573414 -0.2748816 0.12545337 -0.23577738 -0.28185287 -0.14176428
-0.33835348 0.25855783 -0.016276542 0.007964113 0.32509792 -0.22255789 -0.17510954 -0.12667212
0.097787954 0.10302645 -0.41071635 0.25451937 -0.32921264 0.19264673 0.07763505 -0.1253166
-0.15262878 -0.08399736 -0.17678839 -0.0035300597 0.028695967 -0.17269333 -0.31581408 -0.06068744
-0.25250286 0.1388982 -0.05259425 0.12005659 -0.18083104 -0.39122546 0.06332096 -0.028546188
-0.34184164 -0.32134554 -0.080957316 0.1075035 -0.14347245 -0.45054296 -0.33824977 0.1390928
-0.0095877405 0.033109426 -0.15649857 -0.013449795 -0.14136374 0.08568881 -0.19759884 0.028524559
-0.18538785 -0.3003617 -0.094506234 -0.20955124 -0.06478668 -0.18963414 -0.08533659 -0.10032673
0.24727762 0.0020944697 0.009130451 -0.22084771 -0.3192637 -0.21062434 -0.1911999 0.21278039
-0.15959921 -0.17835861 -0.38840213 -0.23172237 -0.1376469 -0.10454037 -0.21476042 -0.071980536
-0.03604255 -0.022758305 0.290563 -0.020955758 -0.16203974 -0.17964372 0.03986682 -0.40500754

bias f4 [15]
00000000: 9986 34be cdb6 13be 9fe7 26be 89a7 3abe
00000010: b94f 24bf 2735 85be c3ce 15be ae64 0fbe
00000020: 7809 11be b518 17be 4fff 46be b914 47be
00000030: 4fb7 09bf eec5 26be eca9 10be
-0.1762947 -0.14425202 -0.16299294 -0.18227972 -0.6418415 -0.26017115 -0.14629655 -0.1400325
-0.14163768 -0.14755519 -0.1943333 -0.19441499 -0.5379533 -0.16286442 -0.1412732
