output/lexicon/2f.holdout_full/logreg+kb+sn/climate/model.pth (torch, 301688 bytes, 1 tensors)

weight f4 [15, 5000]
00000000: af82 923d c783 fd3c ac10 8cb7 18d6 0fbe
00000010: 754c cf3d d44e 7dbd 9cf6 0bbe 42cc 933d
00000020: 5e21 93bd d207 7b3c dd2e c83d 53cf 62be
00000030: cf14 e136 b4fd cb3d a568 033e 8060 02be
00000040: d7ac 003d 23ff 0a3d c0f9 02bd 9304 8f3c
00000050: b100 e13d 27f2 af3d cc08 05b7 996f 643d
00000060: e17d 36be ff29 1c36 cb42 16bd 7997 573b
00000070: 32d1 8ab6 02b0 eebd e808 0fbe da88 96be
00000080: 1313 af3d baef 24b6 0f49 16bd 34da 5ebe
00000090: 1ea4 1ebd 451c 8737 4a1e 2bbe 4141 bd3d
000000a0: 5ad5 cc3d cd2e e1bd 83f7 fc3c 7834 3d3d
000000b0: 7262 743b 9c19 efbc 59b3 1dbe fcf4 24be
000000c0: 3932 54be 53dd a63c 1ca3 59bd 96b4 0cbc
000000d0: 4459 063e 2655 bab6 07e7 9b3d 109a 17bd
000000e0: 5e31 ae3d 26a2 14b7 ab0c 843d e86b fa3b
000000f0: b1ed 37bd 7c7e 9d3d 2209 a83d a474 aabd
00000100: b138 7c3d fe24 9e3d 7b0c 2abd d9d2 9436
00000110: 1b82 09b6 0101 8e3b 14fc 35be e62a 793c
00000120: 7de2 17bd 959a 0dbd 82c3 06be e6d7 9abe
00000130: 4989 1fbd 7d99 3d3c 800f bb3e d9c7 48bd
00000140: de41 d3bd 113e c83d 66c0 353e 37e1 b9bc
00000150: 3710 babc 1ba0 92bc 7343 7c3e b05c 95be
00000160: 9cd4 d83d b603 c5b5 0037 353c 913e 2ebe
00000170: 833b db3c 6541 0c3d c2e8 043d 65e0 233b
00000180: be3d 1737 1db1 cabd 61df 31be d364 b336
00000190: 6ccd d5bd 4d2c 27bd 304b 12be 6a7e b6bd
000001a0: a576 8136 41a8 7136 742d b0b5 245b 9cbc
000001b0: b93d 0337 3dfd a036 c3c9 b63d 870c 813d
000001c0: e78f 353c 907d b4bd c674 8a3c 6d6b fe36
000001d0: defe aa3c 52e1 a83c a30f 2837 cbc8 0c3d
000001e0: 17dd 5f3e a2f5 313d ed0a 8d3d a2fd 943d
000001f0: b267 88b5 7d3f 94bc cd40 0c3e 3d53 56be
00000200: 0256 c33d 30d1 4b3e a129 69be 0527 a6bd
00000210: 909f 723c ac06 99b6 4b15 fe36 685d 5e3c
00000220: a192 46bd 38e0 853d 1926 b9bd 4eb2 313e
00000230: 903a 53be 74ef 01bd 5811 c63c ac9d c0bc
00000240: c516 b4bc 9fd3 133e 24ff c23c 1d5f 90b6
00000250: c93d 2a37 b7cb 45b6 f546 54be 1ad6 f33d
00000260: 301e 72be 7a5d 0437 ad46 fabd 228e d936
00000270: a1d6 82bb 4d74 35b7 d81e ddbd 6e8a 6e37
00000280: 6331 44bc a230 3d37 f744 d8bc 4f62 b6b6
00000290: 5f4b 8fbc 5c3a 62b6 d91d d93c 17de e2b5
000002a0: 6277 3bbd 7135 e73e 5c71 9f3e bfbf a73c
000002b0: 2711 153d a4f9 0fbe 8a08 95bd 60e9 8bbd
000002c0: 8781 5c3d 2268 ec36 8139 293d 4d37 78bd
000002d0: e712 ff3c 7d7d 88b7 825f d23c d2d4 c83d
000002e0: 78a6 25b6 c394 04be 274b 45bd 3cc2 b13d
000002f0: 5650 55bd 2ef4 59bd 6586 f43c b818 23bd
00000300: 44e6 e63e 6f3d 52be 5c27 b434 8ef3 553c
00000310: f175 89bd cb52 923d 4d76 683d ef60 28bc
00000320: f212 14be fde0 2836 9785 cebc 05c8 5abd
00000330: 48db cfbd ce61 27be 679c 9cbd e910 99ba
00000340: 0738 59bd 900f d5bd 3885 143e 7cc0 c5bc
00000350: 42b4 303c 4a75 223f d4da d83b e0f4 c3bd
00000360: e231 413e a2c8 86bd 0acc 89be 3229 4036
00000370: c9a9 8536 fdd4 53bd 6939 13bc 8ebe 273f
00000380: 46a1 073e e7cd 65bd 6f93 0dbe 7f5d 8fbc
00000390: 5f88 383a 7f15 a2b6 b433 49b7 8083 18be
000003a0: 838a d9bd 3ee2 24b7 f86e 2b3e b686 0537
000003b0: e363 4a3d 87fb 0f3e 3a27 a9bd a64c 77be
000003c0: a1dc 85bd da30 d1bc 8f9f 0837 5822 873c
000003d0: 9de3 2ebd fec7 f13c 0b24 94b6 4235 45be
000003e0: 47fb a8b6 0982 45bd b88d 99b6 d627 5db6
000003f0: 7295 b2bd b71a 873c 5759 1abc 69df 683d
0.07153832 0.030946625 -1.6697064e-05 -0.14046514 0.10122005 -0.061842754 -0.13668293 0.072166935
-0.07184099 0.015321689 0.097745635 -0.221494 6.707945e-06 0.099604994 0.12832887 -0.12732124
0.031414833 0.033934724 -0.03197646 0.017458236 0.1098646 0.08591109 -7.929466e-06 0.05577049
-0.17821456 2.3270256e-06 -0.036684792 0.0032896681 -4.137074e-06 -0.116546646 -0.13968241 -0.29401284
0.0854856 -2.4577444e-06 -0.036690768 -0.21762925 -0.038730733 1.6106418e-05 -0.16710773 0.09240962
0.10001631 -0.10995255 0.030879742 0.046192616 0.0037290123 -0.029187016 -0.15400447 -0.16109079
-0.20722283 0.020369207 -0.05313407 -0.008587977 0.1311999 -5.5531445e-06 0.07612424 -0.03701216
0.0850551 -8.859241e-06 0.06447729 0.007642258 -0.044904415 0.076901406 0.08204867 -0.08323029
0.061577503 0.077218994 -0.04151581 4.4352896e-06 -2.0490322e-06 0.004333616 -0.17771941 0.015207982
-0.03708123 -0.03457125 -0.13160518 -0.30242842 -0.038949285 0.011572239 0.36535263 -0.049018715
-0.103152975 0.09777463 0.17749175 -0.022690399 -0.02271281 -0.01789861 0.24635105 -0.29172277
0.10587427 -1.4678724e-06 0.011060476 -0.17016055 0.026761776 0.034242053 0.032448538 0.0025005576
9.014677e-06 -0.09897063 -0.17370369 5.346353e-06 -0.10439572 -0.040813733 -0.14286494 -0.0891083
3.8583116e-06 3.6009735e-06 -1.312625e-06 -0.019086428 7.822579e-06 4.7978524e-06 0.08925202 0.063012175
0.011081672 -0.08813012 0.016901385 7.582296e-06 0.020873483 0.020615254 1.0017221e-05 0.03437118
0.21861683 0.043447144 0.068868496 0.07274939 -1.0162969e-06 -0.01809668 0.13696595 -0.2093019
0.09537889 0.19904017 -0.22769786 -0.08112911 0.0148085505 -4.560532e-06 7.5722687e-06 0.0135720745
-0.04847968 0.06536907 -0.0904047 0.17353174 -0.20627809 -0.0317225 0.024178192 -0.023512684
-0.021983514 0.14436196 0.023803301 -4.302607e-06 1.0147175e-05 -2.9473865e-06 -0.20730193 0.11906071
-0.23644328 7.889577e-06 -0.122205116 6.4836504e-06 -0.003992871 -1.0815519e-05 -0.107968986 1.4218136e-05
-0.011974665 1.1276601e-05 -0.026400073 -5.4354673e-06 -0.017491994 -3.3710594e-06 0.02650349 -1.6902949e-06
-0.04576815 0.4515796 0.31141174 0.020477174 0.03639331 -0.14060074 -0.07277019 -0.06831622
0.053834464 7.0454707e-06 0.041314606 -0.060599614 0.031136943 -1.6270898e-05 0.025680307 0.09806217
-2.4683814e-06 -0.12947373 -0.048167374 0.086796254 -0.052078567 -0.053211384 0.02984924 -0.039818496
0.45097554 -0.20531248 3.355625e-07 0.013058556 -0.06711949 0.07144698 0.056753445 -0.010277017
-0.14460352 2.5164911e-06 -0.025210185 -0.05341341 -0.101492465 -0.16345903 -0.07647019 -0.0011678013
-0.053031947 -0.10403359 0.14503944 -0.024139635 0.010785164 0.6346022 0.006617883 -0.095681906
0.18866685 -0.065812364 -0.26913482 2.8634208e-06 3.9834745e-06 -0.051716793 -0.008985856 0.6552514
0.13245115 -0.056104567 -0.13825773 -0.017500637 0.0007039364 -4.8304787e-06 -1.1992572e-05 -0.14893913
-0.10622122 -9.827838e-06 0.1674155 7.958783e-06 0.049411666 0.14060794 -0.08259435 -0.24150333
-0.06536222 -0.02553599 8.143382e-06 0.016495869 -0.042697538 0.029514309 -4.4149397e-06 -0.19258597
-5.0360427e-06 -0.048219714 -4.5762536e-06 -3.2954754e-06 -0.08719911 0.01649223 -0.009420714 0.056853686
