lexicons/3.lexicon.ovr+dev/4/holdout_climate/model.pth (torch, 121464 bytes, 1 tensors)

weight f4 [15, 2000]
00000000: 06fa 033d 8e3e a43d c385 5e3c 478f 443c
00000010: 98e7 c2bd 5fd9 743d 1834 94bd 1f30 aa37
00000020: a706 553d 3153 1abd 9ddb 153d 985e 26b9
00000030: 79c1 b0bd c49c 9abd 70ae f83c 5ce4 863d
00000040: 3aba 93bc 4ff7 5c3d 5693 e63c a395 4f3d
00000050: 8996 05bd a1d8 e13d 0a79 9c3c 5bbe 0fbd
00000060: aa50 a73c 1045 94bc 7206 5e3d 5b17 80bd
00000070: 52ac 6abd 35c5 31bd 5456 98bd d154 14bc
00000080: 4d54 9cbd 50ca 9cbd b06a 03bd 5996 d43a
00000090: 82ce 53bd c667 343d 8101 803d e03d 5fbd
000000a0: f78e a53d b8d5 f1bc ff1c afbd fb77 96bd
000000b0: 894a 163d beb1 abbc 8151 62bd 81a3 8a3c
000000c0: ee54 413d c2a6 c3bd d2a1 c53d 4a54 12bd
000000d0: 7026 0d3e 7782 81bd f780 afbd 8a8a 45bc
000000e0: 1d3d ac3d a6ad 91bd f7af bdbd 12e7 08bd
000000f0: ded6 acbd 8f3f ad3d 73b8 3fbd 0014 713c
00000100: 0c7d 6ebc 9dbd 463d a724 d2bd eb07 31bd
00000110: 92f7 7c3d d93b 943c c8aa 8f3d 6681 c9bd
00000120: 4473 66bd bf2a 0cbd 5bd3 a93d 797a df3d
00000130: 1b63 96bd 1753 543c c0a8 bc3d 5e2d 6b3d
00000140: d6ac aa3d 0fcc 2a3d 944f d4bd 47e7 3ebd
00000150: dd38 fc3c 1f40 bebd 4b6a b93d 72c3 c5ba
00000160: a041 9fbd adf0 17bd abbf d2bd 0e98 503d
00000170: b874 14ba 60d2 d13d cd79 87bd 84d7 a73c
00000180: b2a2 c2bd f329 1b3b 1135 98bd 0939 c0bd
00000190: 72af c6bd 1ad3 cdbd 3b1d abbd eaaa ba3a
000001a0: 166f 6b3d e3d4 72bc a6fd d53d d588 cabd
000001b0: 2551 043d 8bdc b6bc d2f3 dcbc f30d 83bd
000001c0: 5dbe e2bd a0e3 fabc a459 85bd 12b9 b23d
000001d0: 7e57 80bd ff7d a3bd f92d b7bd f32a bcbd
000001e0: 6582 0f3d 9b07 8e3d 7948 afbc a028 c33d
000001f0: 0aae 773c 94f3 3e3d bff7 233d 6a33 313d
00000200: 4246 d3bc cd0d 90b7 91c9 c93c d1b8 6ebc
00000210: c0e7 8fbc 26f2 063d 86fc 20bd e621 0e3d
00000220: 0c74 6fbb a8da 50bd f1cf a0bd 3b7e 7abd
00000230: 66c6 393d c795 9b3d f5a1 ec3d 5b0f b73d
00000240: b6b4 14bd b991 49bd 5609 bc3c a6e0 33bd
00000250: 0074 8c3d 05da cd3c 69fc 74bc a1dc f53c
00000260: 9553 b4bd 0a77 47bd a4bc bf3d 9a61 23bd
00000270: 4375 ae3d 26b5 533c 5375 15bd c3f8 e8bd
00000280: df7f 7ebc 60d6 cd3d 9121 403d ea61 803d
00000290: 2e7b bc3c abb7 61bd ce5c 6bbd 4df5 e0bd
000002a0: 7f8a c6bd 15a2 a3bd 8e46 c33d e59d c4bd
000002b0: b605 94bd e717 52bc cbc4 373d 4c58 ac3d
000002c0: 17f8 333d ef57 ccbd f207 b2bd 111f ae3d
000002d0: 4ace 44bd f702 38bd 2c6f 88bd b0fb 1bbd
000002e0: 7c85 dabd 259e babd a490 a93c e43d e4bc
000002f0: 493b 8dbd c697 aabd 7f1c 7abd 23bf 2bbd
00000300: 7e45 90bd 5454 d6bd 7874 aebc 80bb c6bc
00000310: e1a3 65bd bd95 a0bd d7c3 b6bd 5af0 87bc
00000320: d87c bfbd 9bf6 283d 78c0 bf3d 7488 723c
00000330: 7694 743c e143 a6bc 1e5e a63d 3a81 2cbd
00000340: 8681 373b d9e8 7ebd a1ac 7c3d 2816 d13d
00000350: 7574 4bbd ad37 373d 917c f9bd 88a6 1d3d
00000360: 0451 913d 39af 353d 0f06 023e 749e 8f3d
00000370: dd11 25bd f47f d0bc 9495 39bd a9dc 8bbd
00000380: eb7a 873c 9f11 b13d df2c 91bd f9c7 b1bd
00000390: cfcf 093e 0955 ebbd bfa5 3d3c 4d40 cbbd
000003a0: 8b48 18bd fbc0 ff3d b0f0 8f3d 590c 9bbd
000003b0: 537b abbc df83 c93c ba4b bbbd b22b 35bd
000003c0: 43bc a8bd 3ff9 9cbd 86a2 a3bd 02c2 c23d
000003d0: 004a e13d 8df9 a4bc 9285 893c eb2a 1bbd
000003e0: e1c2 98bd 11f3 1bbd 8a43 3cbd 50b7 debd
000003f0: 31ec 9b3d d193 ca3c e023 8e3d 0429 0cbe
0.032220863 0.08019744 0.013581696 0.011997051 -0.09516829 0.059777614 -0.072364986 2.0287987e-05
0.052008297 -0.037676994 0.036586393 -0.00015866233 -0.08630652 -0.07549432 0.030356616 0.06586525
-0.018033136 0.05394679 0.028146427 0.050679814 -0.032614265 0.11027647 0.019100685 -0.035093646
0.020424206 -0.018099338 0.054205365 -0.06254455 -0.057293244 -0.043400962 -0.07438341 -0.009053425
-0.076332666 -0.076557755 -0.032084167 0.0016219123 -0.051710613 0.04404428 0.06250287 -0.054502368
0.08083909 -0.029520854 -0.085504524 -0.07347103 0.036692176 -0.020958778 -0.05525351 0.016923668
0.047200136 -0.09553291 0.096500054 -0.035724916 0.13784194 -0.06323712 -0.0856952 -0.012056956
0.08410094 -0.07113199 -0.09262078 -0.03342349 -0.0843942 0.084593885 -0.046806764 0.014714241
-0.014556181 0.048520673 -0.10260897 -0.04322044 0.06175954 0.018094944 0.07014996 -0.09839134
-0.05626227 -0.034220453 0.08292266 0.10912032 -0.073431216 0.012959263 0.09211874 0.057416312
0.08333747 0.04169851 -0.10366741 -0.046607282 0.030788833 -0.09289574 0.09053477 -0.0015088154
-0.07776189 -0.03709476 -0.10290464 0.05092626 -0.00056631444 0.10245204 -0.066150285 0.020488508
-0.09503688 0.0023676127 -0.074319966 -0.093858786 -0.09701432 -0.1005003 -0.08355185 0.001424161
0.057478987 -0.014821264 0.1044877 -0.0988938 0.032303948 -0.02232196 -0.026971731 -0.06399145
-0.11071465 -0.030626118 -0.06511238 0.087267056 -0.06266688 -0.07983016 -0.089443155 -0.091878794
0.035036463 0.069350444 -0.021396862 0.09529233 0.015117178 0.046619013 0.04003119 0.043261923
-0.025790337 -1.7172564e-05 0.024632247 -0.014570431 -0.017566562 0.032945774 -0.039303325 0.034700297
-0.0036537675 -0.050989777 -0.07852162 -0.06115554 0.045355223 0.07596927 0.11554328 0.08938476
-0.036305152 -0.049211238 0.02295367 -0.043915413 0.06858063 0.025128374 -0.014952757 0.03001243
-0.088050045 -0.04869751 0.09362152 -0.039888002 0.0851846 0.012921607 -0.036488842 -0.113755725
-0.0155334165 0.100506544 0.04690701 0.062686756 0.023007955 -0.0551068 -0.057461552 -0.109842874
-0.09694385 -0.07989899 0.095349416 -0.096004285 -0.07227652 -0.012823082 0.04486541 0.08415279
0.04393777 -0.099777095 -0.08692922 0.08502019 -0.048048295 -0.044924702 -0.06661829 -0.038081825
-0.106699914 -0.09112195 0.020698853 -0.027861543 -0.06896073 -0.0832973 -0.061062332 -0.04193033
-0.070445046 -0.10465303 -0.021295771 -0.024259329 -0.05606449 -0.0784106 -0.08924072 -0.0165941
-0.09349984 0.041250806 0.093628824 0.014803041 0.014927974 -0.020296039 0.0812342 -0.042115428
0.0028000786 -0.06223378 0.06168807 0.10209304 -0.04967161 0.04473083 -0.12181962 0.038488895
0.07095531 0.04435656 0.12697624 0.070126444 -0.04030024 -0.025451638 -0.045308664 -0.06829197
0.016538104 0.08645939 -0.070886366 -0.0868072 0.13458179 -0.114908285 0.0115751615 -0.09924374
-0.037178557 0.1248798 0.07028329 -0.075707145 -0.020932829 0.024599014 -0.09145303 -0.044231124
-0.08239033 -0.076647274 -0.07989983 0.0950966 0.110004425 -0.020138526 0.016787324 -0.037882727
-0.07459045 -0.038073603 -0.045962848 -0.10874808 0.07613409 0.024728687 0.06940436 -0.13687521
