lexicons/3.lexicon.ovr+dev/1/holdout_climate/model.pth (torch, 121464 bytes, 1 tensors)

weight f4 [15, 2000]
000000 f8 5c 89 3d 99 e4 05 3e 24 23 9e bd 2a ca d8 bc
       0.067071855 0.13075484 -0.07721546 -0.026463587
000010 4c d3 86 be 0f 13 c2 3d ac b4 94 bd 0b d9 e3 3c
       -0.26333082 0.094762914 -0.07261023 0.027813455
000020 7d fb 1e 3e 70 53 bc bb 75 d3 cb 3d e4 82 6d be
       0.15525623 -0.005747251 0.099524416 -0.23194462
000030 0a 99 cc be a1 3b 8a be 0e 9a 80 3d 9c 50 0f 3e
       -0.3996051 -0.26998618 0.062793836 0.13995594
000040 2d 7b ed bd 4a f6 39 bd a2 dc b0 3d ad 9a 91 3c
       -0.115957595 -0.045400895 0.08635832 0.01777395
000050 81 30 ae 3d 42 40 6a 3e d6 46 18 bc 0f da ed bd
       0.08505345 0.22876075 -0.009294232 -0.11613857
000060 37 b3 06 be d8 53 82 3d c2 4e a7 bd f8 66 92 bc
       -0.13154303 0.06363648 -0.08169319 -0.017871365
000070 4a e9 90 bd e0 40 85 bb 02 b4 97 be 26 68 f4 3c
       -0.07075746 -0.0040665716 -0.29629523 0.029834818
000080 ca c7 2b bd f3 90 82 be b1 48 a1 bd df 12 01 be
       -0.04193858 -0.25501212 -0.07875193 -0.12604855
000090 a4 b5 53 be 29 b9 45 3c 01 74 cd 3d 84 9e 22 be
       -0.20674759 0.012068071 0.100318916 -0.15880781
0000a0 89 69 00 3e 3b 63 98 bd 96 30 3e be c1 39 c0 be
       0.12540258 -0.07440802 -0.18573222 -0.37544063
0000b0 da 30 a9 3d 48 ea 1a 3d 62 e5 d2 bc c5 f1 12 3e
       0.08261271 0.037821084 -0.025744144 0.1435004
0000c0 44 03 18 3c 1d 98 91 be 72 6e 82 3e f0 a0 d5 bd
       0.009278122 -0.28436366 0.25474888 -0.10431087
0000d0 51 78 ba 3e df 96 d2 bd 16 33 dd bd 9b a2 f5 3d
       0.3641992 -0.102826826 -0.108007595 0.11993905
0000e0 75 77 14 3e 8b 9c 0b be 00 64 c2 be 4c 52 5b bd
       0.14498694 -0.13633935 -0.3796692 -0.05354528
0000f0 17 3a 9d be f7 cb 65 3e 54 85 1e 3b 1e 7a e8 bd
       -0.30708382 0.22441088 0.0024188356 -0.11351417
000100 6b 95 50 bc 7c 76 31 3c b0 84 05 bf 91 61 17 3e
       -0.0127309365 0.0108314715 -0.5215559 0.14783312
000110 d3 11 63 3e 5c fe 9b bd a9 56 dd 3c b4 8d d3 be
       0.22174768 -0.076168746 0.027018862 -0.41319048
000120 39 d5 56 be 24 ba 75 bd 75 d8 37 3e 37 1e d6 3e
       -0.20979775 -0.05999197 0.17953666 0.41819927
000130 c5 2f 2b be f1 a8 33 bc 86 ce 54 3e 2b 03 bb bd
       -0.16717441 -0.010965572 0.20781907 -0.091314636
000140 1c ca 7f 3d 54 c6 6d bd d6 15 f7 be b9 f3 91 be
       0.062448606 -0.05805047 -0.48258847 -0.28506258
000150 c4 65 1d bd 18 92 ae be 27 6f a3 3e 40 fa e7 bd
       -0.03842713 -0.34095836 0.3192074 -0.11327028
000160 e1 f8 48 be 3e bd c9 bd e5 21 fc be 2f d6 be 3d
       -0.1962619 -0.09850548 -0.4924461 0.09318196
000170 d3 ce 40 be 6c 03 70 3e e6 92 2d be df c5 8e bd
       -0.18828897 0.23438805 -0.16950569 -0.06971335
000180 ad b9 d7 be be 1e 08 3e ec 2e c3 be b7 14 ab be
       -0.42133847 0.13292977 -0.38121736 -0.33414242
000190 b5 e8 e8 be 2b 46 08 bf 9a b4 9d be 0b 17 93 bd
       -0.4549004 -0.5323207 -0.3080185 -0.071821295
0001a0 1d 1a 3b 3e 32 33 b6 bd 9e 78 4b 3e 5e 9b e7 be
       0.1827168 -0.088964835 0.1987023 -0.45235723
0001b0 ec c7 80 bc 93 32 9e be 68 01 3b be e3 d2 8e be
       -0.01572033 -0.3089796 -0.18262255 -0.2789527
0001c0 05 c3 98 be 1b b4 6d be c3 58 bc be 1a 3b cf 3e
       -0.29836288 -0.23213236 -0.3678647 0.40474778
0001d0 b8 36 bd be cb 02 bd be 51 12 a7 be ac ee a5 be
       -0.3695581 -0.36916193 -0.32631162 -0.32408655
0001e0 1e 4c fe bd a5 3a cb 3c 8b 13 0a be 39 5e 50 3e
       -0.12416862 0.024808237 -0.13484018 0.20348443
0001f0 d5 9a 3d be e6 7d 8b 3e 7d 4d b3 3e f5 d4 e4 3c
       -0.18516095 0.2724449 0.35020056 0.027933577
000200 03 0e 13 3e ce b7 bd bc 9d 8b 85 3c 7e 8e c4 bd
       0.14360814 -0.023158934 0.016301924 -0.09597491
000210 de 86 2d 3c 4f 5d 60 bd 2f 92 c6 3c e5 a2 3a 3c
       0.010591237 -0.054776486 0.024239628 0.011391376
000220 85 c2 4a be fa b7 46 be 15 6e c1 be cb 57 17 be
       -0.19800766 -0.19406119 -0.37779298 -0.14779584
000230 46 eb 47 bc 75 50 c5 3d 0b 68 1c 3f 7e 3f 80 3e
       -0.01220209 0.096344866 0.61096257 0.2504844
000240 65 ae 4c be 9b 0f fc 3d 04 cb 8d 3c 33 54 9f bc
       -0.19988401 0.12307664 0.01730872 -0.019449329
000250 dc eb 5f 3e f6 aa c7 bc 32 28 20 be db db a8 bd
       0.21867317 -0.024373513 -0.15640333 -0.08245059
000260 c1 61 60 be 26 ee 8d 3d 83 0c 7d 3e 64 e5 fc 3d
       -0.2191229 0.06930189 0.24711804 0.1234844
000270 12 cd 07 3e 7a c5 0f be 85 02 f0 bd fd 1d a5 be
       0.13261822 -0.14040175 -0.117192306 -0.32249442
000280 e8 1b 03 3e b2 a6 c9 3e 27 b7 55 be b9 6b db 3d
       0.12803614 0.3938499 -0.20870648 0.10713906
000290 99 c8 f8 3d bc 79 9c bd 47 a9 a3 bd 6d 44 a8 be
       0.12147636 -0.076404065 -0.079912715 -0.32864705
0002a0 3d a9 47 be 06 d1 ea bd cf c6 c3 3e f5 22 0a bf
       -0.19498153 -0.11465649 0.38237616 -0.5395959
0002b0 73 fa 0c be 4d b1 d9 be 80 8b 68 bd 36 c4 7e 3e
       -0.13767414 -0.42518082 -0.056773663 0.24879536
0002c0 d7 79 8a 3c d2 ae ec be 4c 56 cb bd e4 71 07 3e
       0.0169038 -0.46227127 -0.09928569 0.1322704
0002d0 5b 2f 63 3c e9 80 9b bd 9f 74 5e bd 37 f4 0e be
       0.013866271 -0.07592947 -0.054310437 -0.13960348
0002e0 ca ff ff be fc 2d ad be b8 d7 f7 bd 00 c5 f4 3d
       -0.4999984 -0.33824146 -0.12101692 0.11951637
0002f0 42 75 8c be 69 96 a4 be 7f c6 0f 3e 05 3e f7 3d
       -0.2743321 -0.32146004 0.14040564 0.12072376
000300 98 41 9f be d3 66 1b bf b0 a5 d7 bd 62 04 d8 bd
       -0.31104732 -0.6070377 -0.10529649 -0.10547711
000310 16 2d 24 bd 3c a6 b7 bc 47 6d eb be 14 63 bb 3d
       -0.04008206 -0.022418134 -0.4598181 0.09149757
000320 93 01 9b be c7 2c 5c 3e 04 6b 87 3d 93 83 c3 bd
       -0.3027464 0.21501456 0.066122085 -0.0954658
000330 24 a4 d8 bb 21 84 50 bd 26 d6 8c 3e 53 5b c7 3c
       -0.006611364 -0.050907258 0.27507132 0.024335539
000340 bf f1 8c 3e 34 dd cc 3d 7c e7 1a 3b a1 36 9e 3e
       0.27528188 0.10003129 0.002363651 0.30901054
000350 1b 1a a3 be fc c1 fd 3c 60 36 25 bf 0e be 35 3e
       -0.31855854 0.030976288 -0.64536095 0.17748281
000360 ea 3c 73 3e 8f b7 a3 3d a1 98 40 3f c0 f7 39 3e
       0.23753706 0.079939954 0.75232893 0.18160915
000370 04 94 b1 be b0 05 36 3e d1 f5 25 3d ae 12 8a bd
       -0.3468324 0.17775607 0.040517632 -0.06741844
000380 81 b1 88 be 24 38 99 3e c8 78 8c be 0f 0f f2 be
       -0.26697925 0.29925644 -0.274359 -0.47277114
000390 6e 07 36 3e b7 5b 2e bf 23 9f 2a 3e d0 ac a5 bd
       0.17776272 -0.68108696 0.16662268 -0.08089602
0003a0 52 ca 6f bd b8 24 e5 3e a0 7a 22 3e 71 ab cd 3b
       -0.058542557 0.44754577 0.1586709 0.006276541
0003b0 41 fe 1d 3e 1b 56 98 3e 13 c6 51 be e4 46 af be
       0.15429021 0.29753193 -0.20485716 -0.34233773
0003c0 4f fb 4c bd 7c 22 68 be 61 04 61 be 7b b8 07 3e
       -0.050044354 -0.22669405 -0.21974327 0.13253967
0003d0 82 19 c3 3e 29 86 ec bc 9d 3b 03 be df be df 3e
       0.38105398 -0.028872566 -0.1281571 0.4370031
0003e0 2a ca 31 be b7 e3 38 bd 96 27 b6 be d1 34 d7 be
       -0.17362276 -0.04513904 -0.35577077 -0.42032483
0003f0 69 9e 3e 3e c6 b5 3d 3e 90 79 77 3e c6 31 10 bf
       0.18615116 0.18526372 0.24167466 -0.5632595
