output/lexicon/2f.holdout_full/logreg+kb+sn/immigration/model.pth (torch, 301688 bytes, 1 tensors)

weight f4 [15, 5000]
0	0x3e4df870	0.20114303
1	0x36bac156	5.5657392e-06
2	0x3c590260	0.013245195
3	0xbde1b404	-0.110206634
4	0x3e02cdba	0.12773791
5	0x3e02af86	0.1276227
6	0x37157309	8.907876e-06
7	0xbb3c55cc	-0.0028737662
8	0x3d35ba35	0.044367034
9	0xbd451337	-0.048114028
10	0xbe4eb8a7	-0.20187627
11	0xbc4ec5e0	-0.012620419
12	0x3c958f8b	0.018256923
13	0xbb75c095	-0.003749882
14	0x3de3e77b	0.11128136
15	0x3d43f07a	0.04783676
16	0x3db4dfca	0.08831747
17	0xb6e4d2dc	-6.8194768e-06
18	0x3de95b85	0.11394409
19	0xbdfd50fc	-0.12368962
20	0xb6cfbfb2	-6.191397e-06
21	0xb639e4be	-2.7700294e-06
22	0x3d14d25f	0.036333438
23	0x3be30846	0.0069284765
24	0xbe3f9455	-0.18708928
25	0xbdf86c40	-0.12130022
26	0x3d3e8a2c	0.04651849
27	0xbe091943	-0.13388543
28	0xb6c15429	-5.7616458e-06
29	0xbb3e3da7	-0.0029028447
30	0xbdb5fd5e	-0.088862166
31	0x3df72be2	0.12068917
32	0x3ccc364c	0.024928235
33	0xbc4e8e25	-0.012607132
34	0xbe9a8ebf	-0.30187032
35	0x3e1ef263	0.1552215
36	0x370d871a	8.435711e-06
37	0xbdd6cb7d	-0.10488031
38	0xbd1eb988	-0.038751155
39	0xbd6620e0	-0.056183696
40	0xbe09ec29	-0.13468994
41	0x3c9e122f	0.01929578
42	0xbe3707f0	-0.17874122
43	0x3d6f353f	0.05840039
44	0x3d44bcd9	0.04803166
45	0xbe26c0a3	-0.16284423
46	0xb65d01e8	-3.2932676e-06
47	0xb78156be	-1.541839e-05
48	0xbb9d87ea	-0.004807462
49	0x3dabfe40	0.08398104
50	0x3d28305c	0.041061744
51	0x3d3a46bb	0.04547761
52	0xbcbf7e97	-0.023375792
53	0xbd192038	-0.03738424
54	0x3688289e	4.0578443e-06
55	0x3ce8fc80	0.028440714
56	0xbcfafc93	-0.030638015
57	0x369e907a	4.725586e-06
58	0x3c9ff461	0.019525709
59	0xbe2f9f2f	-0.17150567
60	0x3713ccb0	8.80954e-06
61	0x3cce3969	0.02517386
62	0x3c841a56	0.01612584
63	0x3548e66c	7.4841114e-07
64	0x3b807678	0.0039203726
65	0xbea0cac0	-0.31404686
66	0x3b3565e9	0.0027679151
67	0x3dc2aeca	0.095059946
68	0xbd57883d	-0.05262016
69	0x3d12febc	0.035887465
70	0x3dbba98a	0.091631964
71	0xbe389431	-0.1802528
72	0x3e068767	0.1313759
73	0xbda6c595	-0.081431545
74	0xbde033f4	-0.10947409
75	0x3d2abc3c	0.04168342
76	0x3e5e445e	0.21705768
77	0x3e3b9b90	0.18321061
78	0x3c0ef711	0.008725897
79	0x33a791c3	7.8030574e-08
80	0xbde4116e	-0.11136137
81	0x3e3c8606	0.18410501
82	0xbe09b24b	-0.1344692
83	0xbb84bdaa	-0.00405093
84	0xbc540a11	-0.012941853
85	0xb6a4c2f8	-4.910278e-06
86	0xbd0923ff	-0.033481594
87	0xbe820101	-0.2539139
88	0x3d5f8169	0.054566775
89	0x3cd8cbdb	0.026464393
90	0x3d17ee38	0.037092417
91	0xbd9c14f0	-0.07621181
92	0xbd86b187	-0.065768294
93	0xbd874226	-0.06604414
94	0xbde7599c	-0.112963885
95	0xbc81ed5f	-0.015860258
96	0x3d4779ff	0.04870033
97	0x3ee05e63	0.4382201
98	0xb6c5eab3	-5.89838e-06
99	0x36d92569	6.471459e-06
100	0xb663dbf2	-3.395366e-06
101	0x3d44ae6d	0.048017908
102	0xbd97db1b	-0.07414838
103	0xbe2a8b3c	-0.16654676
104	0xbdd14bc4	-0.10219529
105	0x3c95545e	0.018228706
106	0x3e152c5b	0.14567702
107	0x3b3cf2f5	0.0028831337
108	0xbd432aa6	-0.047648095
109	0x37852204	1.5870675e-05
110	0xbe3186d5	-0.1733659
111	0xbdc6bb11	-0.09703649
112	0x3e0a35a3	0.13497023
113	0xbcb59335	-0.02216492
114	0x3d2cb8a3	0.04216827
115	0x3ecad943	0.39618883
116	0x371c53ed	9.317865e-06
117	0x3d65feb9	0.056151126
118	0x37269319	9.92862e-06
119	0x3d9e03a9	0.07715542
120	0xb4de1127	-4.1363202e-07
121	0x3d5aa33e	0.053378336
122	0x3c9b7e68	0.018981174
123	0x3cf61e39	0.030043708
124	0x3e31d8d5	0.17367871
125	0xb6768e4a	-3.673968e-06
126	0x3e0ae3fd	0.13563533
127	0x36f58693	7.3172355e-06
128	0xba47494f	-0.00076021714
129	0x3c069001	0.008213044
130	0x330e4a43	3.3129492e-08
131	0x3c8e4e45	0.017371306
132	0x37147566	8.848821e-06
133	0xbd0a1b56	-0.033717476
134	0xbdb34b11	-0.08754552
135	0xb7674046	-1.3783638e-05
136	0xb5c5c19b	-1.473399e-06
137	0x3652dff8	3.1422805e-06
138	0x3c826d32	0.015921209
139	0x3d906bff	0.070518486
140	0xbd95d4dc	-0.0731599
141	0x3f2c9b2b	0.6742427
142	0x3c4cc1f1	0.012497411
143	0xbdc74aa1	-0.09731031
144	0x3d20cad8	0.039255947
145	0xb703a931	-7.847601e-06
146	0xb7197b7c	-9.148262e-06
147	0x3705b772	7.970129e-06
148	0xbbe7bdad	-0.0070721717
149	0xbc3aec5c	-0.0114088915
150	0xbe3805fc	-0.17971033
151	0x3df613b0	0.12015474
152	0x3c892c61	0.016744794
153	0xbdc3c941	-0.095598705
154	0xbe660591	-0.22463061
155	0xbe947eef	-0.29003093
156	0xbd8ba7f4	-0.06819144
157	0xbd2485e3	-0.040166747
158	0xbdf9bfc2	-0.12194778
159	0xbd9fc8ca	-0.07801969
160	0xbd7fd8fc	-0.06246279
161	0xbe48e605	-0.19618995
162	0xbd362f70	-0.044478834
163	0xbd670b48	-0.056407243
164	0xbe4c0d3c	-0.19926924
165	0x3d49d2aa	0.04927317
166	0xbcd7b2b6	-0.026330333
167	0xbe7a020e	-0.24414846
168	0xbcbcb24d	-0.02303424
169	0x36c51352	5.8733067e-06
170	0x3caf87cb	0.021427056
171	0x3d2dcb0d	0.042429972
172	0x36fa1df5	7.454068e-06
173	0xbda27b8d	-0.07933722
174	0x3e2d66d9	0.16933765
175	0x3dd32f62	0.10311772
176	0xbe33ea2e	-0.17569801
177	0xbd817460	-0.06321025
178	0x3c4f5212	0.012653844
179	0x3b9c8cc1	0.0047775214
180	0x3deb6f7b	0.114958726
181	0x39ca9ceb	0.00038645355
182	0xbdd37bd7	-0.10326355
183	0xbd83b17d	-0.064303376
184	0x3d9d2663	0.07673337
185	0x3d8060ca	0.06268461
186	0x3e3d1dfb	0.18468468
187	0x37316846	1.05743e-05
188	0x3dbf74b4	0.09348431
189	0x3e1dca87	0.1540929
190	0xbb34dc15	-0.0027597
191	0xb68f3662	-4.268063e-06
192	0x3d82745e	0.063698515
193	0x3daa4f23	0.083158754
194	0x3e41b961	0.18918373
195	0x39e8972d	0.00044363123
196	0xbd9cebb1	-0.07662142
197	0xbd92f9d1	-0.07176555
198	0xbd07c9d1	-0.03315145
199	0x3d691b19	0.056910608
200	0x37001a33	7.6354945e-06
201	0xbd853457	-0.06504124
202	0x3c9a6b03	0.018849855
203	0x3e0dfeab	0.1386668
204	0xbda122e3	-0.07867982
205	0x3f2a1a1b	0.66446084
206	0xbde647ff	-0.11244201
207	0xbdb90461	-0.09034038
208	0xbd40ce6b	-0.047071856
209	0xb5a77e8b	-1.2479298e-06
210	0xbe167a1e	-0.14695022
211	0x3ec1ad04	0.37827313
212	0x369c9b8d	4.667271e-06
213	0x3e29917e	0.16559407
214	0xbe25b185	-0.16181
215	0x371d24ba	9.36648e-06
216	0x3d3ef75c	0.04662262
217	0x3b95f60e	0.004576451
218	0xbc3548fc	-0.011064764
219	0x35909a91	1.0773821e-06
220	0x3de63097	0.112397365
221	0x3dd0e83c	0.10200545
222	0x3ddd6767	0.10810738
223	0x3ccac70d	0.024753118
224	0x3cd3414a	0.025787968
225	0xbdfd25c4	-0.12360719
226	0x3d51f5fa	0.051259972
227	0xb6220270	-2.41413e-06
228	0xb9c81bd5	-0.0003816771
229	0xbe2e994c	-0.17050666
230	0x3741daea	1.1554666e-05
231	0xbbd9d898	-0.0066481344
232	0x3d8199a6	0.06328134
233	0xbc99c5f8	-0.018771157
234	0x3f1c7b97	0.61126083
235	0xbd553d7b	-0.052060585
236	0xbdd2c510	-0.10291493
237	0x3681998d	3.8623753e-06
238	0xb74f41eb	-1.2353509e-05
239	0xbcfdb204	-0.030968674
240	0x3def5e6d	0.11687932
241	0xbc6807f8	-0.014162056
242	0xbd65b633	-0.05608196
243	0x3a19bcfd	0.0005864648
244	0xbe2b355e	-0.16719577
245	0x3c043c64	0.008071039
246	0xbe8b4c2c	-0.27206552
247	0x3628c34e	2.5147633e-06
248	0x3982ab18	0.00024923007
249	0x3dfb1f03	0.122617744
250	0x3d3a43ba	0.045474745
251	0xbd869679	-0.06571669
252	0x358c85bc	1.0469735e-06
253	0x361a56f0	2.2998393e-06
254	0xbe2d2346	-0.16907987
255	0x3694472d	4.4190297e-06
