output/lexicon/2f.holdout_full/logreg+kb+sn/tobacco/model.pth (torch, 301688 bytes, 1 tensors)

weight f4 [15, 5000]
000000 e2 d8 02 3e 4e 26 2d 3d fd 27 5d b3 48 9d 3a bd
       0.12778047 0.04227286 -5.149194e-08 -0.04556015
000010 89 b8 95 3d 4e 29 05 3c 26 18 e0 bd 79 37 bb 35
       0.07310588 0.008127524 -0.10942106 1.394873e-06
000020 22 ea 35 3d 64 34 8c 3d b6 10 a5 bd 95 d4 14 be
       0.04441274 0.0684593 -0.08059828 -0.14534219
000030 b4 e7 9d bd 1d 65 2b 3d 76 77 fd b6 6e a5 11 3e
       -0.077102095 0.041844476 -7.5538946e-06 0.14223263
000040 79 ba 6a 3d 53 23 f8 3c dc 97 70 bb 97 86 01 bd
       0.05730674 0.030290281 -0.003671161 -0.031622496
000050 c6 33 74 3d 5f 66 b0 3c 17 2a 97 3d 16 ee f5 bd
       0.059619687 0.02153319 0.07381075 -0.12008302
000060 81 b7 34 35 e1 11 58 3d 42 4c 36 bd bc 0c ab bd
       6.732226e-07 0.052751426 -0.04450632 -0.08352038
000070 e0 a7 9c b6 08 18 44 3c 54 29 18 be 3c 0c 98 bd
       -4.6687055e-06 0.01196862 -0.14859515 -0.074242085
000080 04 d5 0e 3d a9 8d 8c be 24 b1 90 3d f7 47 a3 3c
       0.034871116 -0.27451828 0.07065037 0.019931776
000090 d7 78 36 be be e9 d8 bd cc cf 02 3e a6 fc ba 3c
       -0.17819534 -0.10591458 0.1277458 0.02282555
0000a0 de 7e 30 bd 4c e5 65 3c 90 32 2e bc c2 06 0f 37
       -0.04308974 0.014031719 -0.010632172 8.525038e-06
0000b0 91 6b 15 3c 13 68 09 be cb da 04 b6 e2 48 52 3d
       0.009119884 -0.13418607 -1.9796887e-06 0.051339038
0000c0 4f f8 00 be ae 43 9d 3d f5 1a 7d bc 36 d8 0c 3d
       -0.12594722 0.076789245 -0.015448322 0.034385882
0000d0 2a e2 43 be f0 91 b5 bd 46 25 5e 36 32 01 26 3c
       -0.19129243 -0.08865726 3.3102274e-06 0.010132121
0000e0 c5 e5 16 bd 08 50 1e 3d 2c eb 65 3d 43 b7 3a 3e
       -0.03684022 0.038650542 0.05613248 0.18233971
0000f0 61 21 25 b6 57 f8 e6 3d 7f c2 b2 3c 97 46 3e bb
       -2.4606345e-06 0.11277836 0.021821259 -0.0029033774
000100 de b4 84 3c 2b 1e 2a be 30 49 6c bd 62 93 ea 3c
       0.016199525 -0.1661307 -0.057686985 0.02863473
000110 26 7f 2c 3c d6 e5 1e 3d a6 58 09 3d 1f ff 8d bd
       0.010528361 0.038793407 0.033531807 -0.06933426
000120 8e 69 8d bc de 97 51 3b 46 d9 9a 3c 8d ad 4f 37
       -0.017262246 0.003198139 0.018902432 1.2378569e-05
000130 99 01 69 bd 84 68 7b 3d e5 41 06 3e 55 62 68 bd
       -0.05688629 0.06137897 0.13111074 -0.0567344
000140 de d1 c5 3d 4a be 33 bc 0c f8 08 be f4 ac 89 3d
       0.096591696 -0.010970661 -0.13375872 0.06722441
000150 4a db a8 36 4a a1 ed 3d 1d 8a 84 3e 32 20 16 3c
       5.0323188e-06 0.11603029 0.25886622 0.009162949
000160 e9 3a 97 bc 04 90 65 be 3a 58 54 be f3 25 66 be
       -0.018460708 -0.22418219 -0.20736781 -0.22475414
000170 e3 1e 4c b6 4e 91 5c b6 24 5c 0b 3d 81 00 2c bc
       -3.0416347e-06 -3.2867133e-06 0.03402342 -0.010498167
000180 c0 f1 9b 3d 22 04 42 3d ac 7b 95 b6 f6 f4 9f 36
       0.076144695 0.047367223 -4.4549433e-06 4.7670865e-06
000190 f1 05 bb 3e 05 a4 1c be a4 78 0e be bc 41 45 be
       0.3652797 -0.15296943 -0.13913208 -0.19263357
0001a0 2c 69 1d 36 61 04 2a 37 72 a3 43 bd 2c b1 82 3d
       2.3456041e-06 1.0133809e-05 -0.047763295 0.06381449
0001b0 1c 50 de 3d 2d 98 59 bd 6a c8 44 3d 59 9a a2 bd
       0.108551234 -0.05312364 0.048042692 -0.07939596
0001c0 aa 7b db ba 05 92 ee 35 d1 ca 1d b6 df d6 7d bc
       -0.0016745229 1.7774879e-06 -2.3512878e-06 -0.015493124
0001d0 2c ab 8e b6 7b ff cc 3d 67 9e 2e 3d 16 65 a6 be
       -4.251857e-06 0.100096665 0.042631533 -0.32498997
0001e0 8a dd 27 3c a5 9b e4 3d 2c 0a a4 bc 8e f3 a1 3d
       0.01024569 0.11162499 -0.020024382 0.079077825
0001f0 7e 61 d6 bd 2b 94 21 3d 13 45 84 35 78 e2 62 3c
       -0.10467814 0.039447945 9.85487e-07 0.01384794
000200 bd 18 dc 36 2a 82 b1 bd 84 9e 3b bd fa 1f c9 3c
       6.559391e-06 -0.08667405 -0.04580547 0.02455138
000210 cc a6 1d 3e 3d 40 01 be 71 b7 f1 bd 8a ee 05 b6
       0.15395659 -0.12622161 -0.11802567 -1.9957392e-06
000220 ef 83 12 3d d3 8f 96 36 10 2e 36 36 f3 d7 44 bd
       0.035770353 4.4870917e-06 2.7146925e-06 -0.048057508
000230 3a c2 f2 bc e9 ad 1a 37 84 d6 39 bd 51 e0 86 3d
       -0.02963363 9.219607e-06 -0.045370594 0.06585754
000240 b4 12 46 be f3 81 5e bc e0 af 90 3d 0e 9c 08 3e
       -0.19343072 -0.013580787 0.070647955 0.1334078
000250 aa c2 10 3e 09 54 2c 3e b3 6a 73 3c 7c 27 dc 3c
       0.14136758 0.16828932 0.014856982 0.026874296
000260 e1 2a cc bd b9 d0 39 b6 f5 fb bc bc f0 a8 5a bd
       -0.09969116 -2.768864e-06 -0.023069361 -0.053383768
000270 be 67 8f bc 85 06 4a 37 8c c0 d1 bd b0 8f 35 be
       -0.017505523 1.2041656e-05 -0.102418035 -0.17730594
000280 47 78 8a bc 78 7d 83 3d 08 8d 48 b9 15 39 60 3d
       -0.016903056 0.06420416 -0.00019126025 0.054741938
000290 fb aa ad 3c 90 5c 78 bd df fe be 36 06 18 04 bd
       0.021199694 -0.06063515 5.692112e-06 -0.032249473
0002a0 b2 c4 43 b6 e9 3d 66 be f1 dd d9 bb 4d 9b 80 3d
       -2.9171756e-06 -0.22484554 -0.006648772 0.06279621
0002b0 de c8 97 3d d4 7e ce bc 4d 72 94 3d 6c 9c 90 3c
       0.07411359 -0.02520696 0.07248364 0.017652713
0002c0 30 6f 5a bd 85 a9 af bc 8d 21 7d 3c cc de 08 3b
       -0.053328693 -0.021443138 0.015449894 0.002088475
0002d0 e6 9d f0 36 fb 1f 3b b7 48 e5 26 3c e3 7a 06 b5
       7.170939e-06 -1.1153515e-05 0.010186501 -5.0097714e-07
0002e0 b5 8f 0c 3c 4e 60 73 3d ec f8 8b 3c 9c d7 6e b6
       0.008579184 0.059418015 0.017086469 -3.5590265e-06
0002f0 a7 b4 35 be ec 54 28 b7 ca 29 2d 3c b1 7a dd bd
       -0.17744695 -1.0033353e-05 0.010569045 -0.10814417
000300 f7 21 92 bd 2b 55 26 be 0b fc f5 3c ab 49 ee 3d
       -0.071353845 -0.16243427 0.03002741 0.11635145
000310 80 72 e8 3d 81 97 79 bd fc 05 b5 3a c2 c2 19 be
       0.11349964 -0.0609355 0.0013810988 -0.150157
000320 df 6b b6 36 9d 67 f4 bd b4 77 82 3d 68 49 8e 3d
       5.4365805e-06 -0.11933825 0.06370488 0.06947595
000330 39 82 88 bd 07 1c b5 3e 4a 99 53 37 5f 4f 14 3e
       -0.06665463 0.35372946 1.261227e-05 0.14483403
000340 06 16 82 bd ea 65 3a 36 14 75 8a bc 0d ae 03 be
       -0.06351857 2.7775482e-06 -0.01690153 -0.12859364
000350 92 43 07 be 63 6b 42 bd 6f 16 a4 3b 36 df 2e bd
       -0.1320937 -0.047465693 0.005007557 -0.04269334
000360 0c f6 94 be 60 2c 8b bd ec b0 53 3e f6 82 6d bd
       -0.2909397 -0.06795573 0.20672959 -0.057986222
000370 1f 70 93 3d 71 c0 10 3b 1b 75 0a b7 60 89 99 3d
       0.0719912 0.002208736 -8.252707e-06 0.07496905
000380 7d b5 68 bd 30 a0 28 3e f9 46 3a 3c 2e b1 a7 bd
       -0.056813706 0.16467357 0.01136946 -0.08188091
000390 0c f6 ce 3c 3d 54 d0 3b cd 3b 6a 3e 6e 2a 27 3e
       0.025263809 0.0063576982 0.22874375 0.1632478
0003a0 83 11 5c b5 d5 74 7e b6 4b 43 79 3e c9 4c 43 bd
       -8.198187e-07 -3.7916955e-06 0.24342076 -0.04768065
0003b0 7f d7 1d b6 76 b4 7d 36 9e 34 87 b7 32 13 c9 35
       -2.3520258e-06 3.780498e-06 -1.6117756e-05 1.4981254e-06
0003c0 f2 85 cc bc 71 f8 07 37 2e 91 4e 3d 58 a7 18 bd
       -0.024966214 8.104472e-06 0.050431423 -0.037268966
0003d0 e4 31 6b 3c 8a 89 98 35 0f 87 07 be e9 5d b6 36
       0.014355157 1.1364912e-06 -0.13235115 5.4349553e-06
0003e0 60 ea 5f 35 61 1c 77 3d 02 96 99 3d 30 4d 65 be
       8.3415034e-07 0.0603298 0.07499315 -0.22392726
0003f0 5d 9d 79 37 c3 3e 16 3c 0c 94 e2 3c 96 0d df bd
       1.48781955e-05 0.009170237 0.027658485 -0.10891263
