lexicons/1.lexicon.ovr+dev/samesex/model.pth (torch, 91448 bytes, 1 tensors)

weight f4 [15, 1500]
-0.24388301 0.14435732 -0.008953081 0.013723547 -0.338208 -0.184027 0.19323489 -0.1473496
-0.3228498 -0.27759317 -0.38177067 0.12677743 0.11682946 0.045000676 -0.08663597 -0.3744355
-0.33936062 -0.0545503 0.17443335 0.05520516 -0.13070343 -0.05109926 0.15710945 0.17433213
-0.3364058 0.2399226 -0.56804234 0.038730603 -0.2279729 0.30294505 0.20660433 0.2580542
-0.2952601 -0.08370043 -0.40974846 0.2830204 0.14028865 0.06653859 0.27950814 -0.4728483
0.2636484 -0.3669083 -0.29343155 -0.29957542 0.22100641 0.424694 -0.4366188 0.039668944
0.23108794 -0.12626399 -0.25475654 -0.21573839 -0.45388055 -0.115516834 0.09774586 -0.33982143
-0.3064536 -0.2834289 0.45912433 0.027890136 -0.07088697 -0.09490714 -0.5379165 0.16733892
-0.36876497 -0.4121838 -0.38373402 0.27237406 -0.45049986 -0.32745433 -0.37935448 0.29191265
0.25174448 0.13583902 -0.15536283 -0.27584705 0.15090962 -0.14566602 -0.0059361486 -0.15338367
-0.35964507 0.12155023 -0.25106505 0.556902 -0.17591035 -0.24486804 -0.16374597 0.3441643
0.50135136 -0.34372303 0.38648278 0.28212783 -0.071145155 0.25215 0.19147502 -0.68184036
-0.3441817 -0.4426519 -0.07800831 -0.50585824 0.14732902 0.4360709 0.2014343 -0.3029571
-0.25908515 -0.34966552 0.5393834 -0.39866367 0.0966665 -0.34217417 0.34434366 -0.29922757
-0.17050846 -0.5139418 -0.5119833 0.16037649 -0.2725846 0.07011484 0.27362683 -0.2786729
-0.572508 -0.22774126 -0.30401713 -0.26390204 0.62667775 -0.2688712 -0.709403 0.3734344
-0.41567305 -0.16062224 0.11338631 0.3506955 -0.02852154 -0.49714154 -0.5643627 0.06090911
0.0668066 0.51212734 -0.34732857 -0.042920362 -0.4372377 -0.17868362 0.08911701 -0.5716021
-0.009935958 -0.18677366 -0.53127366 -0.1553555 0.17926665 -0.48586172 0.22810423 -0.4559458
-0.36276823 -0.024283445 0.042659882 0.15539962 0.16945304 -0.25299856 -0.5092929 -0.14616871
-0.086821936 0.33382845 -0.39223254 -0.23726188 -0.38987714 0.3854064 -0.36399296 0.46146262
-0.004182142 0.38614252 -0.13925613 -0.61108494 0.3860078 -0.37722346 -0.43068948 -0.20372088
-0.49275506 0.6040584 0.17225295 0.13631774 0.5869815 -0.5099464 -0.4237482 -0.20998515
0.23809046 0.47373196 -0.5236844 0.5388618 -0.54051083 0.3163816 0.37883085 -0.41057566
-0.26159397 -0.009199254 -0.2853333 0.09309465 0.28210655 -0.3359108 -0.3705188 -0.17168303
-0.5028586 0.47871593 0.2452943 0.39310718 -0.16071734 -0.5970282 0.4323058 0.021096222
-0.56146234 -0.607327 -0.03342545 0.20274319 -0.013810364 -0.5940115 -0.5157172 0.2174936
0.10967654 0.4128737 -0.41331995 -0.058088988 -0.14081874 0.4931408 -0.24896371 0.2736645
-0.32542217 -0.49712932 -0.2350655 -0.24643809 0.00023875857 -0.43794736 0.22069106 -0.36751425
0.53311265 0.23168248 0.124452226 -0.19075069 -0.5946269 -0.4533949 -0.39936197 0.5248273
-0.24628806 -0.31175053 -0.52416307 -0.505693 -0.12957984 0.06763887 -0.4129705 0.1842847
0.22516663 -0.0027464486 0.6865462 0.23983815 -0.3754823 -0.4255824 -0.0016059498 -0.55832285
00000000: 78bc 79be 68d2 133e f2af 12bc bad8 603c
00000010: 9929 adbe 9371 3cbe 5edf 453e d0e2 16be
00000020: 924c a5be b120 8ebe 7277 c3be f1d1 013e
00000030: 4944 ef3d a152 383d 336e b1bd 03b6 bfbe
00000040: adc0 adbe 2370 5fbd a89e 323e ce1e 623d
00000050: 1fd7 05be 754d 51bd 4de1 203e 1f84 323e
00000060: 623d acbe 45ae 753e 396b 11bf fba3 1e3d
00000070: ba71 69be 9d1b 9b3e 1690 533e ae1f 843e
00000080: 552c 97be 226b abbd 8dca d1be 0de8 903e
00000090: d4a7 0f3e 6245 883d b11b 8f3e 2c19 f2be
000000a0: ecfc 863e 68db bbbe a93c 96be f361 99be
000000b0: 814f 623e 7e71 d93e 808c dfbe e77b 223d
000000c0: 51a2 6c3e 594b 01be 736f 82be 86ea 5cbe
000000d0: 0863 e8be 1794 ecbd fb2e c83d 13fd adbe
000000e0: 7ce7 9cbe 981d 91be 5812 eb3e db79 e43c
000000f0: 302d 91bd ad5e c2bd e5b4 09bf e55a 2b3e
00000100: c3ce bcbe c109 d3be c978 c4be 9d74 8b3e
00000110: eba7 e6be 18a8 a7be c03a c2be 9375 953e
00000120: a7e4 803e 6219 0b3e 6f17 1fbe d33b 8dbe
00000130: 0d88 1a3e 7929 15be 0684 c2bb 9c10 1dbe
00000140: 6623 b8be 54ef f83d 998b 80be 2191 0e3f
00000150: d821 34be b0be 7abe 06ad 27be 4e36 b03e
00000160: 9058 003f 77fc afbe 12e1 c53e 0f73 903e
00000170: 8db4 91bd ce19 813e 0712 443e 178d 2ebf
00000180: 9538 b0be 45a3 e2be d2c2 9fbd ed7f 01bf
00000190: 6bdd 163e af44 df3e cb44 4e3e 311d 9bbe
000001a0: cfa6 84be 5c07 b3be 0815 0a3f a51d ccbe
000001b0: 16f9 c53d 7431 afbe d04d b03e 5b34 99be
000001c0: c599 2ebe b191 03bf 5611 03bf bc39 243e
000001d0: 3590 8bbe 5f98 8f3d d118 8c3e 37ae 8ebe
000001e0: e28f 12bf 0135 69be 22a8 9bbe 2b1e 87be
000001f0: f46d 203f 7ca9 89be 6f9b 35bf cb32 bf3e
00000200: 19d3 d4be 287a 24be 1537 e83d 5c8e b33e
00000210: 01a6 e9bc 5689 febe 137a 10bf d57b 793d
00000220: e6d1 883d c71a 033f 0dd5 b1be 43cd 2fbd
00000230: 9fdd dfbe d7f8 36be fb82 b63d 8454 12bf
00000240: 6eca 22bc 9841 3fbe 8d01 08bf 8315 1fbe
00000250: ad91 373e dec2 f8be 2894 693e ba71 e9be
00000260: c2bc b9be 13ee c6bc 21bc 2e3d 1421 1f3e
00000270: 1985 2d3e 0789 81be 0561 02bf 40ad 15be
00000280: b3cf b1bd 90eb aa3e b4d2 c8be c7f4 72be
00000290: fa9d c7be fd53 c53e 495d babe d444 ec3e
000002a0: 5a0a 89bb 79b4 c53e 2999 0ebe 1070 1cbf
000002b0: d0a2 c53e 6f23 c1be 5583 dcbe 359c 50be
000002c0: 644a fcbe 92a3 1a3f 1463 303e e196 0b3e
000002d0: 6b44 163f d98b 02bf 86f5 d8be 5906 57be
000002e0: fccd 733e ff8c f23e 2e10 06bf d9f2 093f
000002f0: eb5e 0abf c5fc a13e 1ef6 c13e f936 d2be
00000300: a5ef 85be 78b8 16bc 3517 92be 68a8 be3d
00000310: 4570 903e 80fc abbe a4b4 bdbe adcd 2fbe
00000320: 57bb 00bf 411a f53e 6e2e 7b3e 5845 c93e
00000330: 1693 24be d7d6 18bf 3057 dd3e fcd1 ac3c
00000340: ffbb 0fbf c879 1bbf 20e9 08bd e99b 4f3e
00000350: dd44 62bc 2311 18bf 0b06 04bf a4b6 5e3e
00000360: 189e e03d 2e64 d33e ac9e d3be b8ee 6dbd
00000370: ca32 10be f37c fc3e 58f0 7ebe c11d 8c3e
00000380: bc9d a6be bc87 febe 03b5 70be 445a 7cbe
00000390: 445b 7a39 a33a e0be d6fc 613e d42a bcbe
000003a0: 127a 083f 2c3e 6d3e cfe0 fe3d 2654 43be
000003b0: 7839 18bf 6023 e8be 2c79 ccbe 155b 063f
000003c0: f032 7cbe c49d 9fbe 8d2f 06bf 1975 01bf
000003d0: 94b0 04be 3f86 8a3d df70 d3be 21b5 3c3e
000003e0: 1592 663e c3fd 33bb 7ec1 2f3f 2298 753e
000003f0: 373f c0be f0e5 d9be bc7e d2ba 3fee 0ebf
