lexicons/5.lexicon.ovr+dev/4/climate/model.pth (torch, 121464 bytes, 1 tensors)

weight f4 [15, 2000]
-0.04229516 0.032127645 0.093929395 -0.04911692 0.091780014 0.02124944 0.036973655 -0.025248729
0.023692274 0.067721866 0.060064714 -0.040317122 0.019782541 0.04180757 -0.10199562 -0.014240264
0.03588352 -0.0476348 -0.08693396 -0.03264041 0.026981475 -0.03859269 0.035541616 0.048249975
-0.068443514 -0.106643766 -0.09496545 -0.079248704 0.023575446 -0.03341294 -0.0049592336 0.00020697684
-0.110323735 -0.08614292 0.006529286 -0.029907018 0.042402912 -0.018113459 -0.0964963 -0.11573962
-0.06298761 -0.081256844 -0.044016402 -0.11646715 0.008342596 0.06363386 -0.10244356 0.04663164
0.08665956 -0.06274292 0.03570924 0.049967293 0.009681737 -0.028713264 -0.023282455 -0.11788888
0.040004212 -0.07176638 0.0718343 0.100559585 -0.09087916 0.014819752 0.06713728 0.03291902
0.004307159 -0.11765324 0.07832882 -0.12069317 0.10766674 0.09052082 -0.115330614 0.016194157
0.13366461 -0.045463216 -0.08217961 -0.0023084453 0.014836911 -0.022925116 0.04144003 0.12190315
-0.035517626 -0.10952644 -0.102441646 0.071083136 -0.07694836 0.0015550816 0.08968193 0.06851409
0.09228973 -0.095494315 -0.06531135 -0.074532464 0.11679087 -0.046137117 -0.025251834 -0.09957216
-0.069035895 0.019091096 0.04862534 0.045239087 0.12710787 -0.059745528 0.00897886 0.11105069
-0.034798775 -0.0800741 0.03884934 -0.05826215 0.13256696 0.023006486 0.07681473 -0.12373408
-0.09814547 0.072357826 0.018690998 -0.08253081 0.048688103 0.088844195 -0.1059366 0.117840685
-0.029915046 0.03011866 -0.06706427 -0.1176538 -0.030090231 0.09823889 -0.07485238 -0.059932396
-0.10686824 0.14656293 0.080031514 -0.09035114 -0.0852898 -0.04122371 0.031577498 0.005864155
-0.007939367 0.029765226 -0.105193354 -0.031246493 -0.034483902 -0.09447946 -0.07834147 0.041316047
-0.017369345 -0.11313085 0.11355036 5.3765825e-06 0.111590095 -0.09160547 0.008404026 0.03417881
0.010548351 -0.078820005 -0.032713562 0.06278518 0.09538661 -0.06613321 0.10148681 0.10702472
-0.07298838 -0.01623166 -0.12604146 -0.10042915 -0.10196545 0.1300515 -0.111008264 -0.10665663
-0.104145825 -0.067988105 0.04005336 -0.01181453 -0.014492631 -0.09720852 -0.09107975 0.050528914
-0.041167527 0.020523852 -0.07320715 -0.10120327 -0.06669101 0.026527146 -0.0947681 0.079947226
0.017115943 -0.0589805 0.057465434 -0.086866125 0.11230551 -0.10242365 -0.08427497 0.08010978
0.06810157 0.048594892 -0.028088558 -0.08978287 0.028176397 -0.032938797 -0.07528238 -0.016566448
0.014272012 -0.0315238 -0.008175246 0.0052035553 -0.026910963 -0.0047971406 -0.13231142 0.12336516
0.016812664 -0.023585306 -0.012175276 0.054526266 0.1437971 0.018525762 0.12693238 -0.07385971
0.04365795 -0.123289704 -0.011066108 -0.048684996 -0.021283891 0.06938033 0.100868575 -0.089448
-0.04602718 -0.04745423 0.01901495 0.06426451 -0.09622344 0.043426394 0.034405354 0.0724797
-0.1280128 -0.02591685 0.10594232 -0.0065351794 -0.06385134 0.06582302 -0.08043552 -0.06262868
0.004294333 -0.010450898 -0.09050407 0.12299773 -0.10821646 0.04666913 0.007221493 0.12222153
0.086128324 -0.04519362 0.009368357 0.10199818 0.1265405 -0.08234492 0.01333565 -0.056699146
00000000: b13d 2dbd 4798 033d 0e5e c03d d32e 49bd
00000010: 29f7 bb3d 4e13 ae3c b071 173d 6cd6 cebc
00000020: 4d16 c23c c3b1 8a3d 6b06 763d 9123 25bd
00000030: ff0e a23c 6a3e 2b3d 14e3 d0bd ff4f 69bc
00000040: 99fa 123d b51c 43bd 6f0a b2bd f3b1 05bd
00000050: 4108 dd3c 5e13 1ebd 1694 113d c4a1 453d
00000060: 1d2c 8cbd 0c68 dabd 3f7d c2bd 254d a2bd
00000070: 4b21 c13c 02dc 08bd 1181 a2bb ec07 5939
00000080: 69f1 e1bd b36b b0bd 9ff3 d53b 90ff f4bc
00000090: adae 2d3d ad62 94bc da9f c5bd e508 edbd
000000a0: a6ff 80bd fd69 a6bd 8b4a 34bd 5486 eebd
000000b0: 62af 083c 7852 823d eecd d1bd d200 3f3d
000000c0: 917a b13d 5c7f 80bd da43 123d 81aa 4c3d
000000d0: 26a0 1e3c 1438 ebbc d9ba bebc ba6f f1bd
000000e0: 75db 233d 40fa 92bd dd1d 933d 2ff2 cd3d
000000f0: da1e babd 8cce 723c 457f 893d 18d6 063d
00000100: 1223 8d3b 2ff4 f0bd dc6a a03d fb2d f7bd
00000110: 6180 dc3d fb62 b93d 7532 ecbd 9ca9 843c
00000120: 60df 083e a337 3abd c94d a8bd 4949 17bb
00000130: 8416 733c 74cd bbbc 05bd 293d 5ca8 f93d
00000140: ee7a 11bd 664f e0bd edcc d1bd 0994 913d
00000150: 1a97 9dbd e1d3 cb3a 29ab b73d 1d51 8c3d
00000160: 6602 bd3d 8692 c3bd f5c1 85bd 7aa4 98bd
00000170: 0d30 ef3d 46fa 3cbd efdc cebc 7dec cbbd
00000180: b162 8dbd ee64 9c3c 5d2b 473d 9f4c 393d
00000190: 9128 023e bab7 74bd 121c 133c 8b6e e33d
000001a0: 2989 0ebd e4fd a3bd 7c20 1f3d 4ba4 6ebd
000001b0: a2bf 073e 1978 bc3c 0b51 9d3d 4b68 fdbd
000001c0: 7e00 c9bd 5730 943d dd1d 993c ea05 a9bd
000001d0: 2d6d 473d f2f3 b53d 4af5 d8bd 7556 f13d
000001e0: 6610 f5bc 68bb f63c fe58 89bd 7af4 f0bd
000001f0: ca7f f6bc 7931 c93d 344c 99bd ac7b 75bd
00000200: bcdd dabd 9814 163e 90e7 a33d 050a b9bd
00000210: 6bac aebd 31da 28bd 6857 013d 1928 c03b
00000220: 1e14 02bc 34d6 f33c 9d6f d7bd a5f8 ffbc
00000230: fe3e 0dbd 727e c1bd 7e71 a0bd 043b 293d
00000240: 284a 8ebc 26b1 e7bd 178d e83d 7e68 b436
00000250: 5989 e43d a69b bbbd 0ab1 093c 14ff 0b3d
00000260: fed2 2c3c 626c a1bd a8fe 05bd 8495 803d
00000270: 0e5a c33d d970 87bd 51d8 cf3d c72f db3d
00000280: ef7a 95bd 42f8 84bc 0311 01be ccad cdbd
00000290: 43d3 d0bd 382c 053e 4d58 e3bd cb6e dabd
000002a0: 684a d5bd 593d 8bbd fe0e 243d bb91 41bc
000002b0: 8072 6dbc 4315 c7bd 0588 babd 68f7 4e3d
000002c0: 489f 28bd a321 a83c a1ed 95bd a943 cfbd
000002d0: 4c95 88bd 754f d93c c715 c2bd 5fbb a33d
000002e0: bc36 8c3c 8995 71bd e060 6b3d dee6 b1bd
000002f0: 6e00 e63d 7ec3 d1bd 5b98 acbd 9910 a43d
00000300: d678 8b3d 700b 473d fa19 e6bc 15e0 b7bd
00000310: 30d2 e63c d5ea 06bd a62d 9abd 5cb6 87bc
00000320: 28d5 693c 1a1f 01bd 78f1 05bc 9682 aa3b
00000330: 6174 dcbc 5531 9dbb a57c 07be dfa6 fc3d
00000340: b6ba 893c f935 c1bc cf7a 47bc ef56 5f3d
00000350: 8c3f 133e 57c3 973c 90fa 013e c243 97bd
00000360: aed2 323d 507f fcbd 9f4e 35bc eb69 47bd
00000370: 8e5b aebc 4617 8e3d 2f94 ce3d 8330 b7bd
00000380: ff86 3cbd 5e5f 42bd 3ec5 9b3c 1d9d 833d
00000390: cb10 c5bd e0df 313d a1ec 0c3d 3d70 943d
000003a0: ca15 03be 934f d4bc 49f8 d83d 0f25 d6bb
000003b0: 7ec4 82bd 38ce 863d 61bb a4bd 7743 80bd
000003c0: 7ab7 8c3b 3e3a 2bbc 335a b9bd 3ce6 fb3d
000003d0: 97a0 ddbd 2128 3f3d 46a2 ec3b 484f fa3d
000003e0: 0c64 b03d f21c 39bd bd7d 193c 6ce4 d03d
000003f0: d593 013e 74a4 a8bd c57d 5a3c 5d3d 68bd
